node {
  name: "input"
  op: "Placeholder"
  attr {
    key: "dtype"
    value {
      type: DT_FLOAT
    }
  }
  attr {
    key: "shape"
    value {
      shape {
        dim {
          size: -1
        }
        dim {
          size: 28
        }
        dim {
          size: 28
        }
      }
    }
  }
}
node {
  name: "Rank"
  op: "Const"
  attr {
    key: "dtype"
    value {
      type: DT_INT32
    }
  }
  attr {
    key: "value"
    value {
      tensor {
        dtype: DT_INT32
        tensor_shape {
        }
        int_val: 3
      }
    }
  }
}
node {
  name: "range/start"
  op: "Const"
  attr {
    key: "dtype"
    value {
      type: DT_INT32
    }
  }
  attr {
    key: "value"
    value {
      tensor {
        dtype: DT_INT32
        tensor_shape {
        }
        int_val: 2
      }
    }
  }
}
node {
  name: "range/delta"
  op: "Const"
  attr {
    key: "dtype"
    value {
      type: DT_INT32
    }
  }
  attr {
    key: "value"
    value {
      tensor {
        dtype: DT_INT32
        tensor_shape {
        }
        int_val: 1
      }
    }
  }
}
node {
  name: "range"
  op: "Range"
  input: "range/start"
  input: "Rank"
  input: "range/delta"
  attr {
    key: "Tidx"
    value {
      type: DT_INT32
    }
  }
}
node {
  name: "concat/values_0"
  op: "Const"
  attr {
    key: "dtype"
    value {
      type: DT_INT32
    }
  }
  attr {
    key: "value"
    value {
      tensor {
        dtype: DT_INT32
        tensor_shape {
          dim {
            size: 2
          }
        }
        tensor_content: "\001\000\000\000\000\000\000\000"
      }
    }
  }
}
node {
  name: "concat/axis"
  op: "Const"
  attr {
    key: "dtype"
    value {
      type: DT_INT32
    }
  }
  attr {
    key: "value"
    value {
      tensor {
        dtype: DT_INT32
        tensor_shape {
        }
        int_val: 0
      }
    }
  }
}
node {
  name: "concat"
  op: "ConcatV2"
  input: "concat/values_0"
  input: "range"
  input: "concat/axis"
  attr {
    key: "N"
    value {
      i: 2
    }
  }
  attr {
    key: "T"
    value {
      type: DT_INT32
    }
  }
  attr {
    key: "Tidx"
    value {
      type: DT_INT32
    }
  }
}
node {
  name: "transpose"
  op: "Transpose"
  input: "input"
  input: "concat"
  attr {
    key: "T"
    value {
      type: DT_FLOAT
    }
  }
  attr {
    key: "Tperm"
    value {
      type: DT_INT32
    }
  }
}
node {
  name: "rnn/Shape"
  op: "Shape"
  input: "transpose"
  attr {
    key: "T"
    value {
      type: DT_FLOAT
    }
  }
  attr {
    key: "out_type"
    value {
      type: DT_INT32
    }
  }
}
node {
  name: "rnn/strided_slice/stack"
  op: "Const"
  attr {
    key: "dtype"
    value {
      type: DT_INT32
    }
  }
  attr {
    key: "value"
    value {
      tensor {
        dtype: DT_INT32
        tensor_shape {
          dim {
            size: 1
          }
        }
        int_val: 1
      }
    }
  }
}
node {
  name: "rnn/strided_slice/stack_1"
  op: "Const"
  attr {
    key: "dtype"
    value {
      type: DT_INT32
    }
  }
  attr {
    key: "value"
    value {
      tensor {
        dtype: DT_INT32
        tensor_shape {
          dim {
            size: 1
          }
        }
        int_val: 2
      }
    }
  }
}
node {
  name: "rnn/strided_slice/stack_2"
  op: "Const"
  attr {
    key: "dtype"
    value {
      type: DT_INT32
    }
  }
  attr {
    key: "value"
    value {
      tensor {
        dtype: DT_INT32
        tensor_shape {
          dim {
            size: 1
          }
        }
        int_val: 1
      }
    }
  }
}
node {
  name: "rnn/strided_slice"
  op: "StridedSlice"
  input: "rnn/Shape"
  input: "rnn/strided_slice/stack"
  input: "rnn/strided_slice/stack_1"
  input: "rnn/strided_slice/stack_2"
  attr {
    key: "Index"
    value {
      type: DT_INT32
    }
  }
  attr {
    key: "T"
    value {
      type: DT_INT32
    }
  }
  attr {
    key: "begin_mask"
    value {
      i: 0
    }
  }
  attr {
    key: "ellipsis_mask"
    value {
      i: 0
    }
  }
  attr {
    key: "end_mask"
    value {
      i: 0
    }
  }
  attr {
    key: "new_axis_mask"
    value {
      i: 0
    }
  }
  attr {
    key: "shrink_axis_mask"
    value {
      i: 1
    }
  }
}
node {
  name: "rnn/MultiRNNCellZeroState/GRUCellZeroState/ExpandDims/dim"
  op: "Const"
  attr {
    key: "dtype"
    value {
      type: DT_INT32
    }
  }
  attr {
    key: "value"
    value {
      tensor {
        dtype: DT_INT32
        tensor_shape {
        }
        int_val: 0
      }
    }
  }
}
node {
  name: "rnn/MultiRNNCellZeroState/GRUCellZeroState/ExpandDims"
  op: "ExpandDims"
  input: "rnn/strided_slice"
  input: "rnn/MultiRNNCellZeroState/GRUCellZeroState/ExpandDims/dim"
  attr {
    key: "T"
    value {
      type: DT_INT32
    }
  }
  attr {
    key: "Tdim"
    value {
      type: DT_INT32
    }
  }
}
node {
  name: "rnn/MultiRNNCellZeroState/GRUCellZeroState/Const"
  op: "Const"
  attr {
    key: "dtype"
    value {
      type: DT_INT32
    }
  }
  attr {
    key: "value"
    value {
      tensor {
        dtype: DT_INT32
        tensor_shape {
          dim {
            size: 1
          }
        }
        int_val: 20
      }
    }
  }
}
node {
  name: "rnn/MultiRNNCellZeroState/GRUCellZeroState/concat/axis"
  op: "Const"
  attr {
    key: "dtype"
    value {
      type: DT_INT32
    }
  }
  attr {
    key: "value"
    value {
      tensor {
        dtype: DT_INT32
        tensor_shape {
        }
        int_val: 0
      }
    }
  }
}
node {
  name: "rnn/MultiRNNCellZeroState/GRUCellZeroState/concat"
  op: "ConcatV2"
  input: "rnn/MultiRNNCellZeroState/GRUCellZeroState/ExpandDims"
  input: "rnn/MultiRNNCellZeroState/GRUCellZeroState/Const"
  input: "rnn/MultiRNNCellZeroState/GRUCellZeroState/concat/axis"
  attr {
    key: "N"
    value {
      i: 2
    }
  }
  attr {
    key: "T"
    value {
      type: DT_INT32
    }
  }
  attr {
    key: "Tidx"
    value {
      type: DT_INT32
    }
  }
}
node {
  name: "rnn/MultiRNNCellZeroState/GRUCellZeroState/zeros/Const"
  op: "Const"
  attr {
    key: "dtype"
    value {
      type: DT_FLOAT
    }
  }
  attr {
    key: "value"
    value {
      tensor {
        dtype: DT_FLOAT
        tensor_shape {
        }
        float_val: 0.0
      }
    }
  }
}
node {
  name: "rnn/MultiRNNCellZeroState/GRUCellZeroState/zeros"
  op: "Fill"
  input: "rnn/MultiRNNCellZeroState/GRUCellZeroState/concat"
  input: "rnn/MultiRNNCellZeroState/GRUCellZeroState/zeros/Const"
  attr {
    key: "T"
    value {
      type: DT_FLOAT
    }
  }
}
node {
  name: "rnn/MultiRNNCellZeroState/GRUCellZeroState_1/ExpandDims/dim"
  op: "Const"
  attr {
    key: "dtype"
    value {
      type: DT_INT32
    }
  }
  attr {
    key: "value"
    value {
      tensor {
        dtype: DT_INT32
        tensor_shape {
        }
        int_val: 0
      }
    }
  }
}
node {
  name: "rnn/MultiRNNCellZeroState/GRUCellZeroState_1/ExpandDims"
  op: "ExpandDims"
  input: "rnn/strided_slice"
  input: "rnn/MultiRNNCellZeroState/GRUCellZeroState_1/ExpandDims/dim"
  attr {
    key: "T"
    value {
      type: DT_INT32
    }
  }
  attr {
    key: "Tdim"
    value {
      type: DT_INT32
    }
  }
}
node {
  name: "rnn/MultiRNNCellZeroState/GRUCellZeroState_1/Const"
  op: "Const"
  attr {
    key: "dtype"
    value {
      type: DT_INT32
    }
  }
  attr {
    key: "value"
    value {
      tensor {
        dtype: DT_INT32
        tensor_shape {
          dim {
            size: 1
          }
        }
        int_val: 20
      }
    }
  }
}
node {
  name: "rnn/MultiRNNCellZeroState/GRUCellZeroState_1/concat/axis"
  op: "Const"
  attr {
    key: "dtype"
    value {
      type: DT_INT32
    }
  }
  attr {
    key: "value"
    value {
      tensor {
        dtype: DT_INT32
        tensor_shape {
        }
        int_val: 0
      }
    }
  }
}
node {
  name: "rnn/MultiRNNCellZeroState/GRUCellZeroState_1/concat"
  op: "ConcatV2"
  input: "rnn/MultiRNNCellZeroState/GRUCellZeroState_1/ExpandDims"
  input: "rnn/MultiRNNCellZeroState/GRUCellZeroState_1/Const"
  input: "rnn/MultiRNNCellZeroState/GRUCellZeroState_1/concat/axis"
  attr {
    key: "N"
    value {
      i: 2
    }
  }
  attr {
    key: "T"
    value {
      type: DT_INT32
    }
  }
  attr {
    key: "Tidx"
    value {
      type: DT_INT32
    }
  }
}
node {
  name: "rnn/MultiRNNCellZeroState/GRUCellZeroState_1/zeros/Const"
  op: "Const"
  attr {
    key: "dtype"
    value {
      type: DT_FLOAT
    }
  }
  attr {
    key: "value"
    value {
      tensor {
        dtype: DT_FLOAT
        tensor_shape {
        }
        float_val: 0.0
      }
    }
  }
}
node {
  name: "rnn/MultiRNNCellZeroState/GRUCellZeroState_1/zeros"
  op: "Fill"
  input: "rnn/MultiRNNCellZeroState/GRUCellZeroState_1/concat"
  input: "rnn/MultiRNNCellZeroState/GRUCellZeroState_1/zeros/Const"
  attr {
    key: "T"
    value {
      type: DT_FLOAT
    }
  }
}
node {
  name: "rnn/MultiRNNCellZeroState/GRUCellZeroState_2/ExpandDims/dim"
  op: "Const"
  attr {
    key: "dtype"
    value {
      type: DT_INT32
    }
  }
  attr {
    key: "value"
    value {
      tensor {
        dtype: DT_INT32
        tensor_shape {
        }
        int_val: 0
      }
    }
  }
}
node {
  name: "rnn/MultiRNNCellZeroState/GRUCellZeroState_2/ExpandDims"
  op: "ExpandDims"
  input: "rnn/strided_slice"
  input: "rnn/MultiRNNCellZeroState/GRUCellZeroState_2/ExpandDims/dim"
  attr {
    key: "T"
    value {
      type: DT_INT32
    }
  }
  attr {
    key: "Tdim"
    value {
      type: DT_INT32
    }
  }
}
node {
  name: "rnn/MultiRNNCellZeroState/GRUCellZeroState_2/Const"
  op: "Const"
  attr {
    key: "dtype"
    value {
      type: DT_INT32
    }
  }
  attr {
    key: "value"
    value {
      tensor {
        dtype: DT_INT32
        tensor_shape {
          dim {
            size: 1
          }
        }
        int_val: 20
      }
    }
  }
}
node {
  name: "rnn/MultiRNNCellZeroState/GRUCellZeroState_2/concat/axis"
  op: "Const"
  attr {
    key: "dtype"
    value {
      type: DT_INT32
    }
  }
  attr {
    key: "value"
    value {
      tensor {
        dtype: DT_INT32
        tensor_shape {
        }
        int_val: 0
      }
    }
  }
}
node {
  name: "rnn/MultiRNNCellZeroState/GRUCellZeroState_2/concat"
  op: "ConcatV2"
  input: "rnn/MultiRNNCellZeroState/GRUCellZeroState_2/ExpandDims"
  input: "rnn/MultiRNNCellZeroState/GRUCellZeroState_2/Const"
  input: "rnn/MultiRNNCellZeroState/GRUCellZeroState_2/concat/axis"
  attr {
    key: "N"
    value {
      i: 2
    }
  }
  attr {
    key: "T"
    value {
      type: DT_INT32
    }
  }
  attr {
    key: "Tidx"
    value {
      type: DT_INT32
    }
  }
}
node {
  name: "rnn/MultiRNNCellZeroState/GRUCellZeroState_2/zeros/Const"
  op: "Const"
  attr {
    key: "dtype"
    value {
      type: DT_FLOAT
    }
  }
  attr {
    key: "value"
    value {
      tensor {
        dtype: DT_FLOAT
        tensor_shape {
        }
        float_val: 0.0
      }
    }
  }
}
node {
  name: "rnn/MultiRNNCellZeroState/GRUCellZeroState_2/zeros"
  op: "Fill"
  input: "rnn/MultiRNNCellZeroState/GRUCellZeroState_2/concat"
  input: "rnn/MultiRNNCellZeroState/GRUCellZeroState_2/zeros/Const"
  attr {
    key: "T"
    value {
      type: DT_FLOAT
    }
  }
}
node {
  name: "rnn/Shape_1"
  op: "Shape"
  input: "transpose"
  attr {
    key: "T"
    value {
      type: DT_FLOAT
    }
  }
  attr {
    key: "out_type"
    value {
      type: DT_INT32
    }
  }
}
node {
  name: "rnn/strided_slice_1/stack"
  op: "Const"
  attr {
    key: "dtype"
    value {
      type: DT_INT32
    }
  }
  attr {
    key: "value"
    value {
      tensor {
        dtype: DT_INT32
        tensor_shape {
          dim {
            size: 1
          }
        }
        int_val: 0
      }
    }
  }
}
node {
  name: "rnn/strided_slice_1/stack_1"
  op: "Const"
  attr {
    key: "dtype"
    value {
      type: DT_INT32
    }
  }
  attr {
    key: "value"
    value {
      tensor {
        dtype: DT_INT32
        tensor_shape {
          dim {
            size: 1
          }
        }
        int_val: 1
      }
    }
  }
}
node {
  name: "rnn/strided_slice_1/stack_2"
  op: "Const"
  attr {
    key: "dtype"
    value {
      type: DT_INT32
    }
  }
  attr {
    key: "value"
    value {
      tensor {
        dtype: DT_INT32
        tensor_shape {
          dim {
            size: 1
          }
        }
        int_val: 1
      }
    }
  }
}
node {
  name: "rnn/strided_slice_1"
  op: "StridedSlice"
  input: "rnn/Shape_1"
  input: "rnn/strided_slice_1/stack"
  input: "rnn/strided_slice_1/stack_1"
  input: "rnn/strided_slice_1/stack_2"
  attr {
    key: "Index"
    value {
      type: DT_INT32
    }
  }
  attr {
    key: "T"
    value {
      type: DT_INT32
    }
  }
  attr {
    key: "begin_mask"
    value {
      i: 0
    }
  }
  attr {
    key: "ellipsis_mask"
    value {
      i: 0
    }
  }
  attr {
    key: "end_mask"
    value {
      i: 0
    }
  }
  attr {
    key: "new_axis_mask"
    value {
      i: 0
    }
  }
  attr {
    key: "shrink_axis_mask"
    value {
      i: 1
    }
  }
}
node {
  name: "rnn/time"
  op: "Const"
  attr {
    key: "dtype"
    value {
      type: DT_INT32
    }
  }
  attr {
    key: "value"
    value {
      tensor {
        dtype: DT_INT32
        tensor_shape {
        }
        int_val: 0
      }
    }
  }
}
node {
  name: "rnn/TensorArray"
  op: "TensorArrayV3"
  input: "rnn/strided_slice_1"
  attr {
    key: "clear_after_read"
    value {
      b: true
    }
  }
  attr {
    key: "dtype"
    value {
      type: DT_FLOAT
    }
  }
  attr {
    key: "dynamic_size"
    value {
      b: false
    }
  }
  attr {
    key: "element_shape"
    value {
      shape {
        unknown_rank: true
      }
    }
  }
  attr {
    key: "tensor_array_name"
    value {
      s: "rnn/dynamic_rnn/output_0"
    }
  }
}
node {
  name: "rnn/TensorArray_1"
  op: "TensorArrayV3"
  input: "rnn/strided_slice_1"
  attr {
    key: "clear_after_read"
    value {
      b: true
    }
  }
  attr {
    key: "dtype"
    value {
      type: DT_FLOAT
    }
  }
  attr {
    key: "dynamic_size"
    value {
      b: false
    }
  }
  attr {
    key: "element_shape"
    value {
      shape {
        unknown_rank: true
      }
    }
  }
  attr {
    key: "tensor_array_name"
    value {
      s: "rnn/dynamic_rnn/input_0"
    }
  }
}
node {
  name: "rnn/TensorArrayUnstack/Shape"
  op: "Shape"
  input: "transpose"
  attr {
    key: "T"
    value {
      type: DT_FLOAT
    }
  }
  attr {
    key: "out_type"
    value {
      type: DT_INT32
    }
  }
}
node {
  name: "rnn/TensorArrayUnstack/strided_slice/stack"
  op: "Const"
  attr {
    key: "dtype"
    value {
      type: DT_INT32
    }
  }
  attr {
    key: "value"
    value {
      tensor {
        dtype: DT_INT32
        tensor_shape {
          dim {
            size: 1
          }
        }
        int_val: 0
      }
    }
  }
}
node {
  name: "rnn/TensorArrayUnstack/strided_slice/stack_1"
  op: "Const"
  attr {
    key: "dtype"
    value {
      type: DT_INT32
    }
  }
  attr {
    key: "value"
    value {
      tensor {
        dtype: DT_INT32
        tensor_shape {
          dim {
            size: 1
          }
        }
        int_val: 1
      }
    }
  }
}
node {
  name: "rnn/TensorArrayUnstack/strided_slice/stack_2"
  op: "Const"
  attr {
    key: "dtype"
    value {
      type: DT_INT32
    }
  }
  attr {
    key: "value"
    value {
      tensor {
        dtype: DT_INT32
        tensor_shape {
          dim {
            size: 1
          }
        }
        int_val: 1
      }
    }
  }
}
node {
  name: "rnn/TensorArrayUnstack/strided_slice"
  op: "StridedSlice"
  input: "rnn/TensorArrayUnstack/Shape"
  input: "rnn/TensorArrayUnstack/strided_slice/stack"
  input: "rnn/TensorArrayUnstack/strided_slice/stack_1"
  input: "rnn/TensorArrayUnstack/strided_slice/stack_2"
  attr {
    key: "Index"
    value {
      type: DT_INT32
    }
  }
  attr {
    key: "T"
    value {
      type: DT_INT32
    }
  }
  attr {
    key: "begin_mask"
    value {
      i: 0
    }
  }
  attr {
    key: "ellipsis_mask"
    value {
      i: 0
    }
  }
  attr {
    key: "end_mask"
    value {
      i: 0
    }
  }
  attr {
    key: "new_axis_mask"
    value {
      i: 0
    }
  }
  attr {
    key: "shrink_axis_mask"
    value {
      i: 1
    }
  }
}
node {
  name: "rnn/TensorArrayUnstack/range/start"
  op: "Const"
  attr {
    key: "dtype"
    value {
      type: DT_INT32
    }
  }
  attr {
    key: "value"
    value {
      tensor {
        dtype: DT_INT32
        tensor_shape {
        }
        int_val: 0
      }
    }
  }
}
node {
  name: "rnn/TensorArrayUnstack/range/delta"
  op: "Const"
  attr {
    key: "dtype"
    value {
      type: DT_INT32
    }
  }
  attr {
    key: "value"
    value {
      tensor {
        dtype: DT_INT32
        tensor_shape {
        }
        int_val: 1
      }
    }
  }
}
node {
  name: "rnn/TensorArrayUnstack/range"
  op: "Range"
  input: "rnn/TensorArrayUnstack/range/start"
  input: "rnn/TensorArrayUnstack/strided_slice"
  input: "rnn/TensorArrayUnstack/range/delta"
  attr {
    key: "Tidx"
    value {
      type: DT_INT32
    }
  }
}
node {
  name: "rnn/TensorArrayUnstack/TensorArrayScatter/TensorArrayScatterV3"
  op: "TensorArrayScatterV3"
  input: "rnn/TensorArray_1"
  input: "rnn/TensorArrayUnstack/range"
  input: "transpose"
  input: "rnn/TensorArray_1:1"
  attr {
    key: "T"
    value {
      type: DT_FLOAT
    }
  }
  attr {
    key: "_class"
    value {
      list {
        s: "loc:@transpose"
      }
    }
  }
}
node {
  name: "rnn/while/Enter"
  op: "Enter"
  input: "rnn/time"
  attr {
    key: "T"
    value {
      type: DT_INT32
    }
  }
  attr {
    key: "frame_name"
    value {
      s: "rnn/while/rnn/while/"
    }
  }
  attr {
    key: "is_constant"
    value {
      b: false
    }
  }
  attr {
    key: "parallel_iterations"
    value {
      i: 32
    }
  }
}
node {
  name: "rnn/while/Enter_1"
  op: "Enter"
  input: "rnn/TensorArray:1"
  attr {
    key: "T"
    value {
      type: DT_FLOAT
    }
  }
  attr {
    key: "frame_name"
    value {
      s: "rnn/while/rnn/while/"
    }
  }
  attr {
    key: "is_constant"
    value {
      b: false
    }
  }
  attr {
    key: "parallel_iterations"
    value {
      i: 32
    }
  }
}
node {
  name: "rnn/while/Enter_2"
  op: "Enter"
  input: "rnn/MultiRNNCellZeroState/GRUCellZeroState/zeros"
  attr {
    key: "T"
    value {
      type: DT_FLOAT
    }
  }
  attr {
    key: "frame_name"
    value {
      s: "rnn/while/rnn/while/"
    }
  }
  attr {
    key: "is_constant"
    value {
      b: false
    }
  }
  attr {
    key: "parallel_iterations"
    value {
      i: 32
    }
  }
}
node {
  name: "rnn/while/Enter_3"
  op: "Enter"
  input: "rnn/MultiRNNCellZeroState/GRUCellZeroState_1/zeros"
  attr {
    key: "T"
    value {
      type: DT_FLOAT
    }
  }
  attr {
    key: "frame_name"
    value {
      s: "rnn/while/rnn/while/"
    }
  }
  attr {
    key: "is_constant"
    value {
      b: false
    }
  }
  attr {
    key: "parallel_iterations"
    value {
      i: 32
    }
  }
}
node {
  name: "rnn/while/Enter_4"
  op: "Enter"
  input: "rnn/MultiRNNCellZeroState/GRUCellZeroState_2/zeros"
  attr {
    key: "T"
    value {
      type: DT_FLOAT
    }
  }
  attr {
    key: "frame_name"
    value {
      s: "rnn/while/rnn/while/"
    }
  }
  attr {
    key: "is_constant"
    value {
      b: false
    }
  }
  attr {
    key: "parallel_iterations"
    value {
      i: 32
    }
  }
}
node {
  name: "rnn/while/Merge"
  op: "Merge"
  input: "rnn/while/Enter"
  input: "rnn/while/NextIteration"
  attr {
    key: "N"
    value {
      i: 2
    }
  }
  attr {
    key: "T"
    value {
      type: DT_INT32
    }
  }
}
node {
  name: "rnn/while/Merge_1"
  op: "Merge"
  input: "rnn/while/Enter_1"
  input: "rnn/while/NextIteration_1"
  attr {
    key: "N"
    value {
      i: 2
    }
  }
  attr {
    key: "T"
    value {
      type: DT_FLOAT
    }
  }
}
node {
  name: "rnn/while/Merge_2"
  op: "Merge"
  input: "rnn/while/Enter_2"
  input: "rnn/while/NextIteration_2"
  attr {
    key: "N"
    value {
      i: 2
    }
  }
  attr {
    key: "T"
    value {
      type: DT_FLOAT
    }
  }
}
node {
  name: "rnn/while/Merge_3"
  op: "Merge"
  input: "rnn/while/Enter_3"
  input: "rnn/while/NextIteration_3"
  attr {
    key: "N"
    value {
      i: 2
    }
  }
  attr {
    key: "T"
    value {
      type: DT_FLOAT
    }
  }
}
node {
  name: "rnn/while/Merge_4"
  op: "Merge"
  input: "rnn/while/Enter_4"
  input: "rnn/while/NextIteration_4"
  attr {
    key: "N"
    value {
      i: 2
    }
  }
  attr {
    key: "T"
    value {
      type: DT_FLOAT
    }
  }
}
node {
  name: "rnn/while/Less/Enter"
  op: "Enter"
  input: "rnn/strided_slice_1"
  attr {
    key: "T"
    value {
      type: DT_INT32
    }
  }
  attr {
    key: "frame_name"
    value {
      s: "rnn/while/rnn/while/"
    }
  }
  attr {
    key: "is_constant"
    value {
      b: true
    }
  }
  attr {
    key: "parallel_iterations"
    value {
      i: 32
    }
  }
}
node {
  name: "rnn/while/Less"
  op: "Less"
  input: "rnn/while/Merge"
  input: "rnn/while/Less/Enter"
  attr {
    key: "T"
    value {
      type: DT_INT32
    }
  }
}
node {
  name: "rnn/while/LoopCond"
  op: "LoopCond"
  input: "rnn/while/Less"
}
node {
  name: "rnn/while/Switch"
  op: "Switch"
  input: "rnn/while/Merge"
  input: "rnn/while/LoopCond"
  attr {
    key: "T"
    value {
      type: DT_INT32
    }
  }
  attr {
    key: "_class"
    value {
      list {
        s: "loc:@rnn/while/Merge"
      }
    }
  }
}
node {
  name: "rnn/while/Switch_1"
  op: "Switch"
  input: "rnn/while/Merge_1"
  input: "rnn/while/LoopCond"
  attr {
    key: "T"
    value {
      type: DT_FLOAT
    }
  }
  attr {
    key: "_class"
    value {
      list {
        s: "loc:@rnn/while/Merge_1"
      }
    }
  }
}
node {
  name: "rnn/while/Switch_2"
  op: "Switch"
  input: "rnn/while/Merge_2"
  input: "rnn/while/LoopCond"
  attr {
    key: "T"
    value {
      type: DT_FLOAT
    }
  }
  attr {
    key: "_class"
    value {
      list {
        s: "loc:@rnn/while/Merge_2"
      }
    }
  }
}
node {
  name: "rnn/while/Switch_3"
  op: "Switch"
  input: "rnn/while/Merge_3"
  input: "rnn/while/LoopCond"
  attr {
    key: "T"
    value {
      type: DT_FLOAT
    }
  }
  attr {
    key: "_class"
    value {
      list {
        s: "loc:@rnn/while/Merge_3"
      }
    }
  }
}
node {
  name: "rnn/while/Switch_4"
  op: "Switch"
  input: "rnn/while/Merge_4"
  input: "rnn/while/LoopCond"
  attr {
    key: "T"
    value {
      type: DT_FLOAT
    }
  }
  attr {
    key: "_class"
    value {
      list {
        s: "loc:@rnn/while/Merge_4"
      }
    }
  }
}
node {
  name: "rnn/while/Identity"
  op: "Identity"
  input: "rnn/while/Switch:1"
  attr {
    key: "T"
    value {
      type: DT_INT32
    }
  }
}
node {
  name: "rnn/while/Identity_1"
  op: "Identity"
  input: "rnn/while/Switch_1:1"
  attr {
    key: "T"
    value {
      type: DT_FLOAT
    }
  }
}
node {
  name: "rnn/while/Identity_2"
  op: "Identity"
  input: "rnn/while/Switch_2:1"
  attr {
    key: "T"
    value {
      type: DT_FLOAT
    }
  }
}
node {
  name: "rnn/while/Identity_3"
  op: "Identity"
  input: "rnn/while/Switch_3:1"
  attr {
    key: "T"
    value {
      type: DT_FLOAT
    }
  }
}
node {
  name: "rnn/while/Identity_4"
  op: "Identity"
  input: "rnn/while/Switch_4:1"
  attr {
    key: "T"
    value {
      type: DT_FLOAT
    }
  }
}
node {
  name: "rnn/while/TensorArrayReadV3/Enter"
  op: "Enter"
  input: "rnn/TensorArray_1"
  attr {
    key: "T"
    value {
      type: DT_RESOURCE
    }
  }
  attr {
    key: "frame_name"
    value {
      s: "rnn/while/rnn/while/"
    }
  }
  attr {
    key: "is_constant"
    value {
      b: true
    }
  }
  attr {
    key: "parallel_iterations"
    value {
      i: 32
    }
  }
}
node {
  name: "rnn/while/TensorArrayReadV3/Enter_1"
  op: "Enter"
  input: "rnn/TensorArrayUnstack/TensorArrayScatter/TensorArrayScatterV3"
  attr {
    key: "T"
    value {
      type: DT_FLOAT
    }
  }
  attr {
    key: "frame_name"
    value {
      s: "rnn/while/rnn/while/"
    }
  }
  attr {
    key: "is_constant"
    value {
      b: true
    }
  }
  attr {
    key: "parallel_iterations"
    value {
      i: 32
    }
  }
}
node {
  name: "rnn/while/TensorArrayReadV3"
  op: "TensorArrayReadV3"
  input: "rnn/while/TensorArrayReadV3/Enter"
  input: "rnn/while/Identity"
  input: "rnn/while/TensorArrayReadV3/Enter_1"
  attr {
    key: "dtype"
    value {
      type: DT_FLOAT
    }
  }
}
node {
  name: "rnn/multi_rnn_cell/cell_0/gru_cell/gates/kernel"
  op: "Const"
  attr {
    key: "dtype"
    value {
      type: DT_FLOAT
    }
  }
  attr {
    key: "value"
    value {
      tensor {
        dtype: DT_FLOAT
        tensor_shape {
          dim {
            size: 48
          }
          dim {
            size: 40
          }
        }
        tensor_content: "…"
      }
    }
  }
}
node {
  name: "rnn/multi_rnn_cell/cell_0/gru_cell/gates/kernel/read"
  op: "Identity"
  input: "rnn/multi_rnn_cell/cell_0/gru_cell/gates/kernel"
  attr {
    key: "T"
    value {
      type: DT_FLOAT
    }
  }
}
node {
  name: "rnn/while/rnn/multi_rnn_cell/cell_0/cell_0/gru_cell/gates/gates/concat/axis"
  op: "Const"
  input: "^rnn/while/Identity"
  attr {
    key: "dtype"
    value {
      type: DT_INT32
    }
  }
  attr {
    key: "value"
    value {
      tensor {
        dtype: DT_INT32
        tensor_shape {
        }
        int_val: 1
      }
    }
  }
}
node {
  name: "rnn/while/rnn/multi_rnn_cell/cell_0/cell_0/gru_cell/gates/gates/concat"
  op: "ConcatV2"
  input: "rnn/while/TensorArrayReadV3"
  input: "rnn/while/Identity_2"
  input: "rnn/while/rnn/multi_rnn_cell/cell_0/cell_0/gru_cell/gates/gates/concat/axis"
  attr {
    key: "N"
    value {
      i: 2
    }
  }
  attr {
    key: "T"
    value {
      type: DT_FLOAT
    }
  }
  attr {
    key: "Tidx"
    value {
      type: DT_INT32
    }
  }
}
node {
  name: "rnn/while/rnn/multi_rnn_cell/cell_0/cell_0/gru_cell/gates/gates/MatMul/Enter"
  op: "Enter"
  input: "rnn/multi_rnn_cell/cell_0/gru_cell/gates/kernel/read"
  attr {
    key: "T"
    value {
      type: DT_FLOAT
    }
  }
  attr {
    key: "frame_name"
    value {
      s: "rnn/while/rnn/while/"
    }
  }
  attr {
    key: "is_constant"
    value {
      b: true
    }
  }
  attr {
    key: "parallel_iterations"
    value {
      i: 32
    }
  }
}
node {
  name: "rnn/while/rnn/multi_rnn_cell/cell_0/cell_0/gru_cell/gates/gates/MatMul"
  op: "MatMul"
  input: "rnn/while/rnn/multi_rnn_cell/cell_0/cell_0/gru_cell/gates/gates/concat"
  input: "rnn/while/rnn/multi_rnn_cell/cell_0/cell_0/gru_cell/gates/gates/MatMul/Enter"
  attr {
    key: "T"
    value {
      type: DT_FLOAT
    }
  }
  attr {
    key: "transpose_a"
    value {
      b: false
    }
  }
  attr {
    key: "transpose_b"
    value {
      b: false
    }
  }
}
node {
  name: "rnn/multi_rnn_cell/cell_0/gru_cell/gates/bias"
  op: "Const"
  attr {
    key: "dtype"
    value {
      type: DT_FLOAT
    }
  }
  attr {
    key: "value"
    value {
      tensor {
        dtype: DT_FLOAT
        tensor_shape {
          dim {
            size: 40
          }
        }
        tensor_content: "…"
      }
    }
  }
}
node {
  name: "rnn/multi_rnn_cell/cell_0/gru_cell/gates/bias/read"
  op: "Identity"
  input: "rnn/multi_rnn_cell/cell_0/gru_cell/gates/bias"
  attr {
    key: "T"
    value {
      type: DT_FLOAT
    }
  }
}
node {
  name: "rnn/while/rnn/multi_rnn_cell/cell_0/cell_0/gru_cell/gates/gates/BiasAdd/Enter"
  op: "Enter"
  input: "rnn/multi_rnn_cell/cell_0/gru_cell/gates/bias/read"
  attr {
    key: "T"
    value {
      type: DT_FLOAT
    }
  }
  attr {
    key: "frame_name"
    value {
      s: "rnn/while/rnn/while/"
    }
  }
  attr {
    key: "is_constant"
    value {
      b: true
    }
  }
  attr {
    key: "parallel_iterations"
    value {
      i: 32
    }
  }
}
node {
  name: "rnn/while/rnn/multi_rnn_cell/cell_0/cell_0/gru_cell/gates/gates/BiasAdd"
  op: "BiasAdd"
  input: "rnn/while/rnn/multi_rnn_cell/cell_0/cell_0/gru_cell/gates/gates/MatMul"
  input: "rnn/while/rnn/multi_rnn_cell/cell_0/cell_0/gru_cell/gates/gates/BiasAdd/Enter"
  attr {
    key: "T"
    value {
      type: DT_FLOAT
    }
  }
  attr {
    key: "data_format"
    value {
      s: "NHWC"
    }
  }
}
node {
  name: "rnn/while/rnn/multi_rnn_cell/cell_0/cell_0/gru_cell/gates/Sigmoid"
  op: "Sigmoid"
  input: "rnn/while/rnn/multi_rnn_cell/cell_0/cell_0/gru_cell/gates/gates/BiasAdd"
  attr {
    key: "T"
    value {
      type: DT_FLOAT
    }
  }
}
node {
  name: "rnn/while/rnn/multi_rnn_cell/cell_0/cell_0/gru_cell/gates/split/split_dim"
  op: "Const"
  input: "^rnn/while/Identity"
  attr {
    key: "dtype"
    value {
      type: DT_INT32
    }
  }
  attr {
    key: "value"
    value {
      tensor {
        dtype: DT_INT32
        tensor_shape {
        }
        int_val: 1
      }
    }
  }
}
node {
  name: "rnn/while/rnn/multi_rnn_cell/cell_0/cell_0/gru_cell/gates/split"
  op: "Split"
  input: "rnn/while/rnn/multi_rnn_cell/cell_0/cell_0/gru_cell/gates/split/split_dim"
  input: "rnn/while/rnn/multi_rnn_cell/cell_0/cell_0/gru_cell/gates/Sigmoid"
  attr {
    key: "T"
    value {
      type: DT_FLOAT
    }
  }
  attr {
    key: "num_split"
    value {
      i: 2
    }
  }
}
node {
  name: "rnn/while/rnn/multi_rnn_cell/cell_0/cell_0/gru_cell/candidate/mul"
  op: "Mul"
  input: "rnn/while/rnn/multi_rnn_cell/cell_0/cell_0/gru_cell/gates/split"
  input: "rnn/while/Identity_2"
  attr {
    key: "T"
    value {
      type: DT_FLOAT
    }
  }
}
node {
  name: "rnn/multi_rnn_cell/cell_0/gru_cell/candidate/kernel"
  op: "Const"
  attr {
    key: "dtype"
    value {
      type: DT_FLOAT
    }
  }
  attr {
    key: "value"
    value {
      tensor {
        dtype: DT_FLOAT
        tensor_shape {
          dim {
            size: 48
          }
          dim {
            size: 20
          }
        }
        tensor_content: "…"
      }
    }
  }
}
node {
  name: "rnn/multi_rnn_cell/cell_0/gru_cell/candidate/kernel/read"
  op: "Identity"
  input: "rnn/multi_rnn_cell/cell_0/gru_cell/candidate/kernel"
  attr {
    key: "T"
    value {
      type: DT_FLOAT
    }
  }
}
node {
  name: "rnn/while/rnn/multi_rnn_cell/cell_0/cell_0/gru_cell/candidate/candidate/concat/axis"
  op: "Const"
  input: "^rnn/while/Identity"
  attr {
    key: "dtype"
    value {
      type: DT_INT32
    }
  }
  attr {
    key: "value"
    value {
      tensor {
        dtype: DT_INT32
        tensor_shape {
        }
        int_val: 1
      }
    }
  }
}
node {
  name: "rnn/while/rnn/multi_rnn_cell/cell_0/cell_0/gru_cell/candidate/candidate/concat"
  op: "ConcatV2"
  input: "rnn/while/TensorArrayReadV3"
  input: "rnn/while/rnn/multi_rnn_cell/cell_0/cell_0/gru_cell/candidate/mul"
  input: "rnn/while/rnn/multi_rnn_cell/cell_0/cell_0/gru_cell/candidate/candidate/concat/axis"
  attr {
    key: "N"
    value {
      i: 2
    }
  }
  attr {
    key: "T"
    value {
      type: DT_FLOAT
    }
  }
  attr {
    key: "Tidx"
    value {
      type: DT_INT32
    }
  }
}
node {
  name: "rnn/while/rnn/multi_rnn_cell/cell_0/cell_0/gru_cell/candidate/candidate/MatMul/Enter"
  op: "Enter"
  input: "rnn/multi_rnn_cell/cell_0/gru_cell/candidate/kernel/read"
  attr {
    key: "T"
    value {
      type: DT_FLOAT
    }
  }
  attr {
    key: "frame_name"
    value {
      s: "rnn/while/rnn/while/"
    }
  }
  attr {
    key: "is_constant"
    value {
      b: true
    }
  }
  attr {
    key: "parallel_iterations"
    value {
      i: 32
    }
  }
}
node {
  name: "rnn/while/rnn/multi_rnn_cell/cell_0/cell_0/gru_cell/candidate/candidate/MatMul"
  op: "MatMul"
  input: "rnn/while/rnn/multi_rnn_cell/cell_0/cell_0/gru_cell/candidate/candidate/concat"
  input: "rnn/while/rnn/multi_rnn_cell/cell_0/cell_0/gru_cell/candidate/candidate/MatMul/Enter"
  attr {
    key: "T"
    value {
      type: DT_FLOAT
    }
  }
  attr {
    key: "transpose_a"
    value {
      b: false
    }
  }
  attr {
    key: "transpose_b"
    value {
      b: false
    }
  }
}
node {
  name: "rnn/multi_rnn_cell/cell_0/gru_cell/candidate/bias"
  op: "Const"
  attr {
    key: "dtype"
    value {
      type: DT_FLOAT
    }
  }
  attr {
    key: "value"
    value {
      tensor {
        dtype: DT_FLOAT
        tensor_shape {
          dim {
            size: 20
          }
        }
        tensor_content: "…"
      }
    }
  }
}
node {
  name: "rnn/multi_rnn_cell/cell_0/gru_cell/candidate/bias/read"
  op: "Identity"
  input: "rnn/multi_rnn_cell/cell_0/gru_cell/candidate/bias"
  attr {
    key: "T"
    value {
      type: DT_FLOAT
    }
  }
}
node {
  name: "rnn/while/rnn/multi_rnn_cell/cell_0/cell_0/gru_cell/candidate/candidate/BiasAdd/Enter"
  op: "Enter"
  input: "rnn/multi_rnn_cell/cell_0/gru_cell/candidate/bias/read"
  attr {
    key: "T"
    value {
      type: DT_FLOAT
    }
  }
  attr {
    key: "frame_name"
    value {
      s: "rnn/while/rnn/while/"
    }
  }
  attr {
    key: "is_constant"
    value {
      b: true
    }
  }
  attr {
    key: "parallel_iterations"
    value {
      i: 32
    }
  }
}
node {
  name: "rnn/while/rnn/multi_rnn_cell/cell_0/cell_0/gru_cell/candidate/candidate/BiasAdd"
  op: "BiasAdd"
  input: "rnn/while/rnn/multi_rnn_cell/cell_0/cell_0/gru_cell/candidate/candidate/MatMul"
  input: "rnn/while/rnn/multi_rnn_cell/cell_0/cell_0/gru_cell/candidate/candidate/BiasAdd/Enter"
  attr {
    key: "T"
    value {
      type: DT_FLOAT
    }
  }
  attr {
    key: "data_format"
    value {
      s: "NHWC"
    }
  }
}
node {
  name: "rnn/while/rnn/multi_rnn_cell/cell_0/cell_0/gru_cell/candidate/Tanh"
  op: "Tanh"
  input: "rnn/while/rnn/multi_rnn_cell/cell_0/cell_0/gru_cell/candidate/candidate/BiasAdd"
  attr {
    key: "T"
    value {
      type: DT_FLOAT
    }
  }
}
node {
  name: "rnn/while/rnn/multi_rnn_cell/cell_0/cell_0/gru_cell/mul"
  op: "Mul"
  input: "rnn/while/rnn/multi_rnn_cell/cell_0/cell_0/gru_cell/gates/split:1"
  input: "rnn/while/Identity_2"
  attr {
    key: "T"
    value {
      type: DT_FLOAT
    }
  }
}
node {
  name: "rnn/while/rnn/multi_rnn_cell/cell_0/cell_0/gru_cell/sub/x"
  op: "Const"
  input: "^rnn/while/Identity"
  attr {
    key: "dtype"
    value {
      type: DT_FLOAT
    }
  }
  attr {
    key: "value"
    value {
      tensor {
        dtype: DT_FLOAT
        tensor_shape {
        }
        float_val: 1.0
      }
    }
  }
}
node {
  name: "rnn/while/rnn/multi_rnn_cell/cell_0/cell_0/gru_cell/sub"
  op: "Sub"
  input: "rnn/while/rnn/multi_rnn_cell/cell_0/cell_0/gru_cell/sub/x"
  input: "rnn/while/rnn/multi_rnn_cell/cell_0/cell_0/gru_cell/gates/split:1"
  attr {
    key: "T"
    value {
      type: DT_FLOAT
    }
  }
}
node {
  name: "rnn/while/rnn/multi_rnn_cell/cell_0/cell_0/gru_cell/mul_1"
  op: "Mul"
  input: "rnn/while/rnn/multi_rnn_cell/cell_0/cell_0/gru_cell/sub"
  input: "rnn/while/rnn/multi_rnn_cell/cell_0/cell_0/gru_cell/candidate/Tanh"
  attr {
    key: "T"
    value {
      type: DT_FLOAT
    }
  }
}
node {
  name: "rnn/while/rnn/multi_rnn_cell/cell_0/cell_0/gru_cell/add"
  op: "Add"
  input: "rnn/while/rnn/multi_rnn_cell/cell_0/cell_0/gru_cell/mul"
  input: "rnn/while/rnn/multi_rnn_cell/cell_0/cell_0/gru_cell/mul_1"
  attr {
    key: "T"
    value {
      type: DT_FLOAT
    }
  }
}
node {
  name: "rnn/multi_rnn_cell/cell_1/gru_cell/gates/kernel"
  op: "Const"
  attr {
    key: "dtype"
    value {
      type: DT_FLOAT
    }
  }
  attr {
    key: "value"
    value {
      tensor {
        dtype: DT_FLOAT
        tensor_shape {
          dim {
            size: 40
          }
          dim {
            size: 40
          }
        }
        tensor_content: "…"
      }
    }
  }
}
node {
  name: "rnn/multi_rnn_cell/cell_1/gru_cell/gates/kernel/read"
  op: "Identity"
  input: "rnn/multi_rnn_cell/cell_1/gru_cell/gates/kernel"
  attr {
    key: "T"
    value {
      type: DT_FLOAT
    }
  }
}
node {
  name: "rnn/while/rnn/multi_rnn_cell/cell_1/cell_1/gru_cell/gates/gates/concat/axis"
  op: "Const"
  input: "^rnn/while/Identity"
  attr {
    key: "dtype"
    value {
      type: DT_INT32
    }
  }
  attr {
    key: "value"
    value {
      tensor {
        dtype: DT_INT32
        tensor_shape {
        }
        int_val: 1
      }
    }
  }
}
node {
  name: "rnn/while/rnn/multi_rnn_cell/cell_1/cell_1/gru_cell/gates/gates/concat"
  op: "ConcatV2"
  input: "rnn/while/rnn/multi_rnn_cell/cell_0/cell_0/gru_cell/add"
  input: "rnn/while/Identity_3"
  input: "rnn/while/rnn/multi_rnn_cell/cell_1/cell_1/gru_cell/gates/gates/concat/axis"
  attr {
    key: "N"
    value {
      i: 2
    }
  }
  attr {
    key: "T"
    value {
      type: DT_FLOAT
    }
  }
  attr {
    key: "Tidx"
    value {
      type: DT_INT32
    }
  }
}
node {
  name: "rnn/while/rnn/multi_rnn_cell/cell_1/cell_1/gru_cell/gates/gates/MatMul/Enter"
  op: "Enter"
  input: "rnn/multi_rnn_cell/cell_1/gru_cell/gates/kernel/read"
  attr {
    key: "T"
    value {
      type: DT_FLOAT
    }
  }
  attr {
    key: "frame_name"
    value {
      s: "rnn/while/rnn/while/"
    }
  }
  attr {
    key: "is_constant"
    value {
      b: true
    }
  }
  attr {
    key: "parallel_iterations"
    value {
      i: 32
    }
  }
}
node {
  name: "rnn/while/rnn/multi_rnn_cell/cell_1/cell_1/gru_cell/gates/gates/MatMul"
  op: "MatMul"
  input: "rnn/while/rnn/multi_rnn_cell/cell_1/cell_1/gru_cell/gates/gates/concat"
  input: "rnn/while/rnn/multi_rnn_cell/cell_1/cell_1/gru_cell/gates/gates/MatMul/Enter"
  attr {
    key: "T"
    value {
      type: DT_FLOAT
    }
  }
  attr {
    key: "transpose_a"
    value {
      b: false
    }
  }
  attr {
    key: "transpose_b"
    value {
      b: false
    }
  }
}
node {
  name: "rnn/multi_rnn_cell/cell_1/gru_cell/gates/bias"
  op: "Const"
  attr {
    key: "dtype"
    value {
      type: DT_FLOAT
    }
  }
  attr {
    key: "value"
    value {
      tensor {
        dtype: DT_FLOAT
        tensor_shape {
          dim {
            size: 40
          }
        }
        tensor_content: "…"
      }
    }
  }
}
node {
  name: "rnn/multi_rnn_cell/cell_1/gru_cell/gates/bias/read"
  op: "Identity"
  input: "rnn/multi_rnn_cell/cell_1/gru_cell/gates/bias"
  attr {
    key: "T"
    value {
      type: DT_FLOAT
    }
  }
}
node {
  name: "rnn/while/rnn/multi_rnn_cell/cell_1/cell_1/gru_cell/gates/gates/BiasAdd/Enter"
  op: "Enter"
  input: "rnn/multi_rnn_cell/cell_1/gru_cell/gates/bias/read"
  attr {
    key: "T"
    value {
      type: DT_FLOAT
    }
  }
  attr {
    key: "frame_name"
    value {
      s: "rnn/while/rnn/while/"
    }
  }
  attr {
    key: "is_constant"
    value {
      b: true
    }
  }
  attr {
    key: "parallel_iterations"
    value {
      i: 32
    }
  }
}
node {
  name: "rnn/while/rnn/multi_rnn_cell/cell_1/cell_1/gru_cell/gates/gates/BiasAdd"
  op: "BiasAdd"
  input: "rnn/while/rnn/multi_rnn_cell/cell_1/cell_1/gru_cell/gates/gates/MatMul"
  input: "rnn/while/rnn/multi_rnn_cell/cell_1/cell_1/gru_cell/gates/gates/BiasAdd/Enter"
  attr {
    key: "T"
    value {
      type: DT_FLOAT
    }
  }
  attr {
    key: "data_format"
    value {
      s: "NHWC"
    }
  }
}
node {
  name: "rnn/while/rnn/multi_rnn_cell/cell_1/cell_1/gru_cell/gates/Sigmoid"
  op: "Sigmoid"
  input: "rnn/while/rnn/multi_rnn_cell/cell_1/cell_1/gru_cell/gates/gates/BiasAdd"
  attr {
    key: "T"
    value {
      type: DT_FLOAT
    }
  }
}
node {
  name: "rnn/while/rnn/multi_rnn_cell/cell_1/cell_1/gru_cell/gates/split/split_dim"
  op: "Const"
  input: "^rnn/while/Identity"
  attr {
    key: "dtype"
    value {
      type: DT_INT32
    }
  }
  attr {
    key: "value"
    value {
      tensor {
        dtype: DT_INT32
        tensor_shape {
        }
        int_val: 1
      }
    }
  }
}
node {
  name: "rnn/while/rnn/multi_rnn_cell/cell_1/cell_1/gru_cell/gates/split"
  op: "Split"
  input: "rnn/while/rnn/multi_rnn_cell/cell_1/cell_1/gru_cell/gates/split/split_dim"
  input: "rnn/while/rnn/multi_rnn_cell/cell_1/cell_1/gru_cell/gates/Sigmoid"
  attr {
    key: "T"
    value {
      type: DT_FLOAT
    }
  }
  attr {
    key: "num_split"
    value {
      i: 2
    }
  }
}
node {
  name: "rnn/while/rnn/multi_rnn_cell/cell_1/cell_1/gru_cell/candidate/mul"
  op: "Mul"
  input: "rnn/while/rnn/multi_rnn_cell/cell_1/cell_1/gru_cell/gates/split"
  input: "rnn/while/Identity_3"
  attr {
    key: "T"
    value {
      type: DT_FLOAT
    }
  }
}
node {
  name: "rnn/multi_rnn_cell/cell_1/gru_cell/candidate/kernel"
  op: "Const"
  attr {
    key: "dtype"
    value {
      type: DT_FLOAT
    }
  }
  attr {
    key: "value"
    value {
      tensor {
        dtype: DT_FLOAT
        tensor_shape {
          dim {
            size: 40
          }
          dim {
            size: 20
          }
        }
        tensor_content: "…"
      }
    }
  }
}
node {
  name: "rnn/multi_rnn_cell/cell_1/gru_cell/candidate/kernel/read"
  op: "Identity"
  input: "rnn/multi_rnn_cell/cell_1/gru_cell/candidate/kernel"
  attr {
    key: "T"
    value {
      type: DT_FLOAT
    }
  }
}
node {
  name: "rnn/while/rnn/multi_rnn_cell/cell_1/cell_1/gru_cell/candidate/candidate/concat/axis"
  op: "Const"
  input: "^rnn/while/Identity"
  attr {
    key: "dtype"
    value {
      type: DT_INT32
    }
  }
  attr {
    key: "value"
    value {
      tensor {
        dtype: DT_INT32
        tensor_shape {
        }
        int_val: 1
      }
    }
  }
}
node {
  name: "rnn/while/rnn/multi_rnn_cell/cell_1/cell_1/gru_cell/candidate/candidate/concat"
  op: "ConcatV2"
  input: "rnn/while/rnn/multi_rnn_cell/cell_0/cell_0/gru_cell/add"
  input: "rnn/while/rnn/multi_rnn_cell/cell_1/cell_1/gru_cell/candidate/mul"
  input: "rnn/while/rnn/multi_rnn_cell/cell_1/cell_1/gru_cell/candidate/candidate/concat/axis"
  attr {
    key: "N"
    value {
      i: 2
    }
  }
  attr {
    key: "T"
    value {
      type: DT_FLOAT
    }
  }
  attr {
    key: "Tidx"
    value {
      type: DT_INT32
    }
  }
}
node {
  name: "rnn/while/rnn/multi_rnn_cell/cell_1/cell_1/gru_cell/candidate/candidate/MatMul/Enter"
  op: "Enter"
  input: "rnn/multi_rnn_cell/cell_1/gru_cell/candidate/kernel/read"
  attr {
    key: "T"
    value {
      type: DT_FLOAT
    }
  }
  attr {
    key: "frame_name"
    value {
      s: "rnn/while/rnn/while/"
    }
  }
  attr {
    key: "is_constant"
    value {
      b: true
    }
  }
  attr {
    key: "parallel_iterations"
    value {
      i: 32
    }
  }
}
node {
  name: "rnn/while/rnn/multi_rnn_cell/cell_1/cell_1/gru_cell/candidate/candidate/MatMul"
  op: "MatMul"
  input: "rnn/while/rnn/multi_rnn_cell/cell_1/cell_1/gru_cell/candidate/candidate/concat"
  input: "rnn/while/rnn/multi_rnn_cell/cell_1/cell_1/gru_cell/candidate/candidate/MatMul/Enter"
  attr {
    key: "T"
    value {
      type: DT_FLOAT
    }
  }
  attr {
    key: "transpose_a"
    value {
      b: false
    }
  }
  attr {
    key: "transpose_b"
    value {
      b: false
    }
  }
}
node {
  name: "rnn/multi_rnn_cell/cell_1/gru_cell/candidate/bias"
  op: "Const"
  attr {
    key: "dtype"
    value {
      type: DT_FLOAT
    }
  }
  attr {
    key: "value"
    value {
      tensor {
        dtype: DT_FLOAT
        tensor_shape {
          dim {
            size: 20
          }
        }
        tensor_content: "…"
      }
    }
  }
}
node {
  name: "rnn/multi_rnn_cell/cell_1/gru_cell/candidate/bias/read"
  op: "Identity"
  input: "rnn/multi_rnn_cell/cell_1/gru_cell/candidate/bias"
  attr {
    key: "T"
    value {
      type: DT_FLOAT
    }
  }
}
node {
  name: "rnn/while/rnn/multi_rnn_cell/cell_1/cell_1/gru_cell/candidate/candidate/BiasAdd/Enter"
  op: "Enter"
  input: "rnn/multi_rnn_cell/cell_1/gru_cell/candidate/bias/read"
  attr {
    key: "T"
    value {
      type: DT_FLOAT
    }
  }
  attr {
    key: "frame_name"
    value {
      s: "rnn/while/rnn/while/"
    }
  }
  attr {
    key: "is_constant"
    value {
      b: true
    }
  }
  attr {
    key: "parallel_iterations"
    value {
      i: 32
    }
  }
}
node {
  name: "rnn/while/rnn/multi_rnn_cell/cell_1/cell_1/gru_cell/candidate/candidate/BiasAdd"
  op: "BiasAdd"
  input: "rnn/while/rnn/multi_rnn_cell/cell_1/cell_1/gru_cell/candidate/candidate/MatMul"
  input: "rnn/while/rnn/multi_rnn_cell/cell_1/cell_1/gru_cell/candidate/candidate/BiasAdd/Enter"
  attr {
    key: "T"
    value {
      type: DT_FLOAT
    }
  }
  attr {
    key: "data_format"
    value {
      s: "NHWC"
    }
  }
}
node {
  name: "rnn/while/rnn/multi_rnn_cell/cell_1/cell_1/gru_cell/candidate/Tanh"
  op: "Tanh"
  input: "rnn/while/rnn/multi_rnn_cell/cell_1/cell_1/gru_cell/candidate/candidate/BiasAdd"
  attr {
    key: "T"
    value {
      type: DT_FLOAT
    }
  }
}
node {
  name: "rnn/while/rnn/multi_rnn_cell/cell_1/cell_1/gru_cell/mul"
  op: "Mul"
  input: "rnn/while/rnn/multi_rnn_cell/cell_1/cell_1/gru_cell/gates/split:1"
  input: "rnn/while/Identity_3"
  attr {
    key: "T"
    value {
      type: DT_FLOAT
    }
  }
}
node {
  name: "rnn/while/rnn/multi_rnn_cell/cell_1/cell_1/gru_cell/sub/x"
  op: "Const"
  input: "^rnn/while/Identity"
  attr {
    key: "dtype"
    value {
      type: DT_FLOAT
    }
  }
  attr {
    key: "value"
    value {
      tensor {
        dtype: DT_FLOAT
        tensor_shape {
        }
        float_val: 1.0
      }
    }
  }
}
node {
  name: "rnn/while/rnn/multi_rnn_cell/cell_1/cell_1/gru_cell/sub"
  op: "Sub"
  input: "rnn/while/rnn/multi_rnn_cell/cell_1/cell_1/gru_cell/sub/x"
  input: "rnn/while/rnn/multi_rnn_cell/cell_1/cell_1/gru_cell/gates/split:1"
  attr {
    key: "T"
    value {
      type: DT_FLOAT
    }
  }
}
node {
  name: "rnn/while/rnn/multi_rnn_cell/cell_1/cell_1/gru_cell/mul_1"
  op: "Mul"
  input: "rnn/while/rnn/multi_rnn_cell/cell_1/cell_1/gru_cell/sub"
  input: "rnn/while/rnn/multi_rnn_cell/cell_1/cell_1/gru_cell/candidate/Tanh"
  attr {
    key: "T"
    value {
      type: DT_FLOAT
    }
  }
}
node {
  name: "rnn/while/rnn/multi_rnn_cell/cell_1/cell_1/gru_cell/add"
  op: "Add"
  input: "rnn/while/rnn/multi_rnn_cell/cell_1/cell_1/gru_cell/mul"
  input: "rnn/while/rnn/multi_rnn_cell/cell_1/cell_1/gru_cell/mul_1"
  attr {
    key: "T"
    value {
      type: DT_FLOAT
    }
  }
}
node {
  name: "rnn/multi_rnn_cell/cell_2/gru_cell/gates/kernel"
  op: "Const"
  attr {
    key: "dtype"
    value {
      type: DT_FLOAT
    }
  }
  attr {
    key: "value"
    value {
      tensor {
        dtype: DT_FLOAT
        tensor_shape {
          dim {
            size: 40
          }
          dim {
            size: 40
          }
        }
        tensor_content: "…"
      }
    }
  }
}
node {
  name: "rnn/multi_rnn_cell/cell_2/gru_cell/gates/kernel/read"
  op: "Identity"
  input: "rnn/multi_rnn_cell/cell_2/gru_cell/gates/kernel"
  attr {
    key: "T"
    value {
      type: DT_FLOAT
    }
  }
}
node {
  name: "rnn/while/rnn/multi_rnn_cell/cell_2/cell_2/gru_cell/gates/gates/concat/axis"
  op: "Const"
  input: "^rnn/while/Identity"
  attr {
    key: "dtype"
    value {
      type: DT_INT32
    }
  }
  attr {
    key: "value"
    value {
      tensor {
        dtype: DT_INT32
        tensor_shape {
        }
        int_val: 1
      }
    }
  }
}
node {
  name: "rnn/while/rnn/multi_rnn_cell/cell_2/cell_2/gru_cell/gates/gates/concat"
  op: "ConcatV2"
  input: "rnn/while/rnn/multi_rnn_cell/cell_1/cell_1/gru_cell/add"
  input: "rnn/while/Identity_4"
  input: "rnn/while/rnn/multi_rnn_cell/cell_2/cell_2/gru_cell/gates/gates/concat/axis"
  attr {
    key: "N"
    value {
      i: 2
    }
  }
  attr {
    key: "T"
    value {
      type: DT_FLOAT
    }
  }
  attr {
    key: "Tidx"
    value {
      type: DT_INT32
    }
  }
}
node {
  name: "rnn/while/rnn/multi_rnn_cell/cell_2/cell_2/gru_cell/gates/gates/MatMul/Enter"
  op: "Enter"
  input: "rnn/multi_rnn_cell/cell_2/gru_cell/gates/kernel/read"
  attr {
    key: "T"
    value {
      type: DT_FLOAT
    }
  }
  attr {
    key: "frame_name"
    value {
      s: "rnn/while/rnn/while/"
    }
  }
  attr {
    key: "is_constant"
    value {
      b: true
    }
  }
  attr {
    key: "parallel_iterations"
    value {
      i: 32
    }
  }
}
node {
  name: "rnn/while/rnn/multi_rnn_cell/cell_2/cell_2/gru_cell/gates/gates/MatMul"
  op: "MatMul"
  input: "rnn/while/rnn/multi_rnn_cell/cell_2/cell_2/gru_cell/gates/gates/concat"
  input: "rnn/while/rnn/multi_rnn_cell/cell_2/cell_2/gru_cell/gates/gates/MatMul/Enter"
  attr {
    key: "T"
    value {
      type: DT_FLOAT
    }
  }
  attr {
    key: "transpose_a"
    value {
      b: false
    }
  }
  attr {
    key: "transpose_b"
    value {
      b: false
    }
  }
}
node {
  name: "rnn/multi_rnn_cell/cell_2/gru_cell/gates/bias"
  op: "Const"
  attr {
    key: "dtype"
    value {
      type: DT_FLOAT
    }
  }
  attr {
    key: "value"
    value {
      tensor {
        dtype: DT_FLOAT
        tensor_shape {
          dim {
            size: 40
          }
        }
        tensor_content: "…"
      }
    }
  }
}
node {
  name: "rnn/multi_rnn_cell/cell_2/gru_cell/gates/bias/read"
  op: "Identity"
  input: "rnn/multi_rnn_cell/cell_2/gru_cell/gates/bias"
  attr {
    key: "T"
    value {
      type: DT_FLOAT
    }
  }
}
node {
  name: "rnn/while/rnn/multi_rnn_cell/cell_2/cell_2/gru_cell/gates/gates/BiasAdd/Enter"
  op: "Enter"
  input: "rnn/multi_rnn_cell/cell_2/gru_cell/gates/bias/read"
  attr {
    key: "T"
    value {
      type: DT_FLOAT
    }
  }
  attr {
    key: "frame_name"
    value {
      s: "rnn/while/rnn/while/"
    }
  }
  attr {
    key: "is_constant"
    value {
      b: true
    }
  }
  attr {
    key: "parallel_iterations"
    value {
      i: 32
    }
  }
}
node {
  name: "rnn/while/rnn/multi_rnn_cell/cell_2/cell_2/gru_cell/gates/gates/BiasAdd"
  op: "BiasAdd"
  input: "rnn/while/rnn/multi_rnn_cell/cell_2/cell_2/gru_cell/gates/gates/MatMul"
  input: "rnn/while/rnn/multi_rnn_cell/cell_2/cell_2/gru_cell/gates/gates/BiasAdd/Enter"
  attr {
    key: "T"
    value {
      type: DT_FLOAT
    }
  }
  attr {
    key: "data_format"
    value {
      s: "NHWC"
    }
  }
}
node {
  name: "rnn/while/rnn/multi_rnn_cell/cell_2/cell_2/gru_cell/gates/Sigmoid"
  op: "Sigmoid"
  input: "rnn/while/rnn/multi_rnn_cell/cell_2/cell_2/gru_cell/gates/gates/BiasAdd"
  attr {
    key: "T"
    value {
      type: DT_FLOAT
    }
  }
}
node {
  name: "rnn/while/rnn/multi_rnn_cell/cell_2/cell_2/gru_cell/gates/split/split_dim"
  op: "Const"
  input: "^rnn/while/Identity"
  attr {
    key: "dtype"
    value {
      type: DT_INT32
    }
  }
  attr {
    key: "value"
    value {
      tensor {
        dtype: DT_INT32
        tensor_shape {
        }
        int_val: 1
      }
    }
  }
}
node {
  name: "rnn/while/rnn/multi_rnn_cell/cell_2/cell_2/gru_cell/gates/split"
  op: "Split"
  input: "rnn/while/rnn/multi_rnn_cell/cell_2/cell_2/gru_cell/gates/split/split_dim"
  input: "rnn/while/rnn/multi_rnn_cell/cell_2/cell_2/gru_cell/gates/Sigmoid"
  attr {
    key: "T"
    value {
      type: DT_FLOAT
    }
  }
  attr {
    key: "num_split"
    value {
      i: 2
    }
  }
}
node {
  name: "rnn/while/rnn/multi_rnn_cell/cell_2/cell_2/gru_cell/candidate/mul"
  op: "Mul"
  input: "rnn/while/rnn/multi_rnn_cell/cell_2/cell_2/gru_cell/gates/split"
  input: "rnn/while/Identity_4"
  attr {
    key: "T"
    value {
      type: DT_FLOAT
    }
  }
}
node {
  name: "rnn/multi_rnn_cell/cell_2/gru_cell/candidate/kernel"
  op: "Const"
  attr {
    key: "dtype"
    value {
      type: DT_FLOAT
    }
  }
  attr {
    key: "value"
    value {
      tensor {
        dtype: DT_FLOAT
        tensor_shape {
          dim {
            size: 40
          }
          dim {
            size: 20
          }
        }
        tensor_content: "…"
      }
    }
  }
}
node {
  name: "rnn/multi_rnn_cell/cell_2/gru_cell/candidate/kernel/read"
  op: "Identity"
  input: "rnn/multi_rnn_cell/cell_2/gru_cell/candidate/kernel"
  attr {
    key: "T"
    value {
      type: DT_FLOAT
    }
  }
}
node {
  name: "rnn/while/rnn/multi_rnn_cell/cell_2/cell_2/gru_cell/candidate/candidate/concat/axis"
  op: "Const"
  input: "^rnn/while/Identity"
  attr {
    key: "dtype"
    value {
      type: DT_INT32
    }
  }
  attr {
    key: "value"
    value {
      tensor {
        dtype: DT_INT32
        tensor_shape {
        }
        int_val: 1
      }
    }
  }
}
node {
  name: "rnn/while/rnn/multi_rnn_cell/cell_2/cell_2/gru_cell/candidate/candidate/concat"
  op: "ConcatV2"
  input: "rnn/while/rnn/multi_rnn_cell/cell_1/cell_1/gru_cell/add"
  input: "rnn/while/rnn/multi_rnn_cell/cell_2/cell_2/gru_cell/candidate/mul"
  input: "rnn/while/rnn/multi_rnn_cell/cell_2/cell_2/gru_cell/candidate/candidate/concat/axis"
  attr {
    key: "N"
    value {
      i: 2
    }
  }
  attr {
    key: "T"
    value {
      type: DT_FLOAT
    }
  }
  attr {
    key: "Tidx"
    value {
      type: DT_INT32
    }
  }
}
node {
  name: "rnn/while/rnn/multi_rnn_cell/cell_2/cell_2/gru_cell/candidate/candidate/MatMul/Enter"
  op: "Enter"
  input: "rnn/multi_rnn_cell/cell_2/gru_cell/candidate/kernel/read"
  attr {
    key: "T"
    value {
      type: DT_FLOAT
    }
  }
  attr {
    key: "frame_name"
    value {
      s: "rnn/while/rnn/while/"
    }
  }
  attr {
    key: "is_constant"
    value {
      b: true
    }
  }
  attr {
    key: "parallel_iterations"
    value {
      i: 32
    }
  }
}
node {
  name: "rnn/while/rnn/multi_rnn_cell/cell_2/cell_2/gru_cell/candidate/candidate/MatMul"
  op: "MatMul"
  input: "rnn/while/rnn/multi_rnn_cell/cell_2/cell_2/gru_cell/candidate/candidate/concat"
  input: "rnn/while/rnn/multi_rnn_cell/cell_2/cell_2/gru_cell/candidate/candidate/MatMul/Enter"
  attr {
    key: "T"
    value {
      type: DT_FLOAT
    }
  }
  attr {
    key: "transpose_a"
    value {
      b: false
    }
  }
  attr {
    key: "transpose_b"
    value {
      b: false
    }
  }
}
node {
  name: "rnn/multi_rnn_cell/cell_2/gru_cell/candidate/bias"
  op: "Const"
  attr {
    key: "dtype"
    value {
      type: DT_FLOAT
    }
  }
  attr {
    key: "value"
    value {
      tensor {
        dtype: DT_FLOAT
        tensor_shape {
          dim {
            size: 20
          }
        }
        tensor_content: "…"
      }
    }
  }
}
node {
  name: "rnn/multi_rnn_cell/cell_2/gru_cell/candidate/bias/read"
  op: "Identity"
  input: "rnn/multi_rnn_cell/cell_2/gru_cell/candidate/bias"
  attr {
    key: "T"
    value {
      type: DT_FLOAT
    }
  }
}
node {
  name: "rnn/while/rnn/multi_rnn_cell/cell_2/cell_2/gru_cell/candidate/candidate/BiasAdd/Enter"
  op: "Enter"
  input: "rnn/multi_rnn_cell/cell_2/gru_cell/candidate/bias/read"
  attr {
    key: "T"
    value {
      type: DT_FLOAT
    }
  }
  attr {
    key: "frame_name"
    value {
      s: "rnn/while/rnn/while/"
    }
  }
  attr {
    key: "is_constant"
    value {
      b: true
    }
  }
  attr {
    key: "parallel_iterations"
    value {
      i: 32
    }
  }
}
node {
  name: "rnn/while/rnn/multi_rnn_cell/cell_2/cell_2/gru_cell/candidate/candidate/BiasAdd"
  op: "BiasAdd"
  input: "rnn/while/rnn/multi_rnn_cell/cell_2/cell_2/gru_cell/candidate/candidate/MatMul"
  input: "rnn/while/rnn/multi_rnn_cell/cell_2/cell_2/gru_cell/candidate/candidate/BiasAdd/Enter"
  attr {
    key: "T"
    value {
      type: DT_FLOAT
    }
  }
  attr {
    key: "data_format"
    value {
      s: "NHWC"
    }
  }
}
node {
  name: "rnn/while/rnn/multi_rnn_cell/cell_2/cell_2/gru_cell/candidate/Tanh"
  op: "Tanh"
  input: "rnn/while/rnn/multi_rnn_cell/cell_2/cell_2/gru_cell/candidate/candidate/BiasAdd"
  attr {
    key: "T"
    value {
      type: DT_FLOAT
    }
  }
}
node {
  name: "rnn/while/rnn/multi_rnn_cell/cell_2/cell_2/gru_cell/mul"
  op: "Mul"
  input: "rnn/while/rnn/multi_rnn_cell/cell_2/cell_2/gru_cell/gates/split:1"
  input: "rnn/while/Identity_4"
  attr {
    key: "T"
    value {
      type: DT_FLOAT
    }
  }
}
node {
  name: "rnn/while/rnn/multi_rnn_cell/cell_2/cell_2/gru_cell/sub/x"
  op: "Const"
  input: "^rnn/while/Identity"
  attr {
    key: "dtype"
    value {
      type: DT_FLOAT
    }
  }
  attr {
    key: "value"
    value {
      tensor {
        dtype: DT_FLOAT
        tensor_shape {
        }
        float_val: 1.0
      }
    }
  }
}
node {
  name: "rnn/while/rnn/multi_rnn_cell/cell_2/cell_2/gru_cell/sub"
  op: "Sub"
  input: "rnn/while/rnn/multi_rnn_cell/cell_2/cell_2/gru_cell/sub/x"
  input: "rnn/while/rnn/multi_rnn_cell/cell_2/cell_2/gru_cell/gates/split:1"
  attr {
    key: "T"
    value {
      type: DT_FLOAT
    }
  }
}
node {
  name: "rnn/while/rnn/multi_rnn_cell/cell_2/cell_2/gru_cell/mul_1"
  op: "Mul"
  input: "rnn/while/rnn/multi_rnn_cell/cell_2/cell_2/gru_cell/sub"
  input: "rnn/while/rnn/multi_rnn_cell/cell_2/cell_2/gru_cell/candidate/Tanh"
  attr {
    key: "T"
    value {
      type: DT_FLOAT
    }
  }
}
node {
  name: "rnn/while/rnn/multi_rnn_cell/cell_2/cell_2/gru_cell/add"
  op: "Add"
  input: "rnn/while/rnn/multi_rnn_cell/cell_2/cell_2/gru_cell/mul"
  input: "rnn/while/rnn/multi_rnn_cell/cell_2/cell_2/gru_cell/mul_1"
  attr {
    key: "T"
    value {
      type: DT_FLOAT
    }
  }
}
node {
  name: "rnn/while/TensorArrayWrite/TensorArrayWriteV3/Enter"
  op: "Enter"
  input: "rnn/TensorArray"
  attr {
    key: "T"
    value {
      type: DT_RESOURCE
    }
  }
  attr {
    key: "_class"
    value {
      list {
        s: "loc:@rnn/while/rnn/multi_rnn_cell/cell_2/cell_2/gru_cell/add"
      }
    }
  }
  attr {
    key: "frame_name"
    value {
      s: "rnn/while/rnn/while/"
    }
  }
  attr {
    key: "is_constant"
    value {
      b: true
    }
  }
  attr {
    key: "parallel_iterations"
    value {
      i: 32
    }
  }
}
node {
  name: "rnn/while/TensorArrayWrite/TensorArrayWriteV3"
  op: "TensorArrayWriteV3"
  input: "rnn/while/TensorArrayWrite/TensorArrayWriteV3/Enter"
  input: "rnn/while/Identity"
  input: "rnn/while/rnn/multi_rnn_cell/cell_2/cell_2/gru_cell/add"
  input: "rnn/while/Identity_1"
  attr {
    key: "T"
    value {
      type: DT_FLOAT
    }
  }
  attr {
    key: "_class"
    value {
      list {
        s: "loc:@rnn/while/rnn/multi_rnn_cell/cell_2/cell_2/gru_cell/add"
      }
    }
  }
}
node {
  name: "rnn/while/add/y"
  op: "Const"
  input: "^rnn/while/Identity"
  attr {
    key: "dtype"
    value {
      type: DT_INT32
    }
  }
  attr {
    key: "value"
    value {
      tensor {
        dtype: DT_INT32
        tensor_shape {
        }
        int_val: 1
      }
    }
  }
}
node {
  name: "rnn/while/add"
  op: "Add"
  input: "rnn/while/Identity"
  input: "rnn/while/add/y"
  attr {
    key: "T"
    value {
      type: DT_INT32
    }
  }
}
node {
  name: "rnn/while/NextIteration"
  op: "NextIteration"
  input: "rnn/while/add"
  attr {
    key: "T"
    value {
      type: DT_INT32
    }
  }
}
node {
  name: "rnn/while/NextIteration_1"
  op: "NextIteration"
  input: "rnn/while/TensorArrayWrite/TensorArrayWriteV3"
  attr {
    key: "T"
    value {
      type: DT_FLOAT
    }
  }
}
node {
  name: "rnn/while/NextIteration_2"
  op: "NextIteration"
  input: "rnn/while/rnn/multi_rnn_cell/cell_0/cell_0/gru_cell/add"
  attr {
    key: "T"
    value {
      type: DT_FLOAT
    }
  }
}
node {
  name: "rnn/while/NextIteration_3"
  op: "NextIteration"
  input: "rnn/while/rnn/multi_rnn_cell/cell_1/cell_1/gru_cell/add"
  attr {
    key: "T"
    value {
      type: DT_FLOAT
    }
  }
}
node {
  name: "rnn/while/NextIteration_4"
  op: "NextIteration"
  input: "rnn/while/rnn/multi_rnn_cell/cell_2/cell_2/gru_cell/add"
  attr {
    key: "T"
    value {
      type: DT_FLOAT
    }
  }
}
node {
  name: "rnn/while/Exit_1"
  op: "Exit"
  input: "rnn/while/Switch_1"
  attr {
    key: "T"
    value {
      type: DT_FLOAT
    }
  }
}
node {
  name: "rnn/TensorArrayStack/TensorArraySizeV3"
  op: "TensorArraySizeV3"
  input: "rnn/TensorArray"
  input: "rnn/while/Exit_1"
  attr {
    key: "_class"
    value {
      list {
        s: "loc:@rnn/TensorArray"
      }
    }
  }
}
node {
  name: "rnn/TensorArrayStack/range/start"
  op: "Const"
  attr {
    key: "_class"
    value {
      list {
        s: "loc:@rnn/TensorArray"
      }
    }
  }
  attr {
    key: "dtype"
    value {
      type: DT_INT32
    }
  }
  attr {
    key: "value"
    value {
      tensor {
        dtype: DT_INT32
        tensor_shape {
        }
        int_val: 0
      }
    }
  }
}
node {
  name: "rnn/TensorArrayStack/range/delta"
  op: "Const"
  attr {
    key: "_class"
    value {
      list {
        s: "loc:@rnn/TensorArray"
      }
    }
  }
  attr {
    key: "dtype"
    value {
      type: DT_INT32
    }
  }
  attr {
    key: "value"
    value {
      tensor {
        dtype: DT_INT32
        tensor_shape {
        }
        int_val: 1
      }
    }
  }
}
node {
  name: "rnn/TensorArrayStack/range"
  op: "Range"
  input: "rnn/TensorArrayStack/range/start"
  input: "rnn/TensorArrayStack/TensorArraySizeV3"
  input: "rnn/TensorArrayStack/range/delta"
  attr {
    key: "Tidx"
    value {
      type: DT_INT32
    }
  }
  attr {
    key: "_class"
    value {
      list {
        s: "loc:@rnn/TensorArray"
      }
    }
  }
}
node {
  name: "rnn/TensorArrayStack/TensorArrayGatherV3"
  op: "TensorArrayGatherV3"
  input: "rnn/TensorArray"
  input: "rnn/TensorArrayStack/range"
  input: "rnn/while/Exit_1"
  attr {
    key: "_class"
    value {
      list {
        s: "loc:@rnn/TensorArray"
      }
    }
  }
  attr {
    key: "dtype"
    value {
      type: DT_FLOAT
    }
  }
  attr {
    key: "element_shape"
    value {
      shape {
        dim {
          size: -1
        }
        dim {
          size: 20
        }
      }
    }
  }
}
node {
  name: "rnn/Rank"
  op: "Const"
  attr {
    key: "dtype"
    value {
      type: DT_INT32
    }
  }
  attr {
    key: "value"
    value {
      tensor {
        dtype: DT_INT32
        tensor_shape {
        }
        int_val: 3
      }
    }
  }
}
node {
  name: "rnn/range/start"
  op: "Const"
  attr {
    key: "dtype"
    value {
      type: DT_INT32
    }
  }
  attr {
    key: "value"
    value {
      tensor {
        dtype: DT_INT32
        tensor_shape {
        }
        int_val: 2
      }
    }
  }
}
node {
  name: "rnn/range/delta"
  op: "Const"
  attr {
    key: "dtype"
    value {
      type: DT_INT32
    }
  }
  attr {
    key: "value"
    value {
      tensor {
        dtype: DT_INT32
        tensor_shape {
        }
        int_val: 1
      }
    }
  }
}
node {
  name: "rnn/range"
  op: "Range"
  input: "rnn/range/start"
  input: "rnn/Rank"
  input: "rnn/range/delta"
  attr {
    key: "Tidx"
    value {
      type: DT_INT32
    }
  }
}
node {
  name: "rnn/concat_1/values_0"
  op: "Const"
  attr {
    key: "dtype"
    value {
      type: DT_INT32
    }
  }
  attr {
    key: "value"
    value {
      tensor {
        dtype: DT_INT32
        tensor_shape {
          dim {
            size: 2
          }
        }
        tensor_content: "\001\000\000\000\000\000\000\000"
      }
    }
  }
}
node {
  name: "rnn/concat_1/axis"
  op: "Const"
  attr {
    key: "dtype"
    value {
      type: DT_INT32
    }
  }
  attr {
    key: "value"
    value {
      tensor {
        dtype: DT_INT32
        tensor_shape {
        }
        int_val: 0
      }
    }
  }
}
node {
  name: "rnn/concat_1"
  op: "ConcatV2"
  input: "rnn/concat_1/values_0"
  input: "rnn/range"
  input: "rnn/concat_1/axis"
  attr {
    key: "N"
    value {
      i: 2
    }
  }
  attr {
    key: "T"
    value {
      type: DT_INT32
    }
  }
  attr {
    key: "Tidx"
    value {
      type: DT_INT32
    }
  }
}
node {
  name: "rnn/transpose"
  op: "Transpose"
  input: "rnn/TensorArrayStack/TensorArrayGatherV3"
  input: "rnn/concat_1"
  attr {
    key: "T"
    value {
      type: DT_FLOAT
    }
  }
  attr {
    key: "Tperm"
    value {
      type: DT_INT32
    }
  }
}
node {
  name: "transpose_1/perm"
  op: "Const"
  attr {
    key: "dtype"
    value {
      type: DT_INT32
    }
  }
  attr {
    key: "value"
    value {
      tensor {
        dtype: DT_INT32
        tensor_shape {
          dim {
            size: 3
          }
        }
        tensor_content: "\001\000\000\000\000\000\000\000\002\000\000\000"
      }
    }
  }
}
node {
  name: "transpose_1"
  op: "Transpose"
  input: "rnn/transpose"
  input: "transpose_1/perm"
  attr {
    key: "T"
    value {
      type: DT_FLOAT
    }
  }
  attr {
    key: "Tperm"
    value {
      type: DT_INT32
    }
  }
}
node {
  name: "Gather/indices"
  op: "Const"
  attr {
    key: "dtype"
    value {
      type: DT_INT32
    }
  }
  attr {
    key: "value"
    value {
      tensor {
        dtype: DT_INT32
        tensor_shape {
        }
        int_val: 27
      }
    }
  }
}
node {
  name: "Gather"
  op: "Gather"
  input: "transpose_1"
  input: "Gather/indices"
  attr {
    key: "Tindices"
    value {
      type: DT_INT32
    }
  }
  attr {
    key: "Tparams"
    value {
      type: DT_FLOAT
    }
  }
  attr {
    key: "validate_indices"
    value {
      b: true
    }
  }
}
node {
  name: "Variable"
  op: "Const"
  attr {
    key: "dtype"
    value {
      type: DT_FLOAT
    }
  }
  attr {
    key: "value"
    value {
      tensor {
        dtype: DT_FLOAT
        tensor_shape {
          dim {
            size: 20
          }
          dim {
            size: 10
          }
        }
        tensor_content: "…"
      }
    }
  }
}
node {
  name: "Variable/read"
  op: "Identity"
  input: "Variable"
  attr {
    key: "T"
    value {
      type: DT_FLOAT
    }
  }
  attr {
    key: "_class"
    value {
      list {
        s: "loc:@Variable"
      }
    }
  }
}
node {
  name: "Variable_1"
  op: "Const"
  attr {
    key: "dtype"
    value {
      type: DT_FLOAT
    }
  }
  attr {
    key: "value"
    value {
      tensor {
        dtype: DT_FLOAT
        tensor_shape {
          dim {
            size: 10
          }
        }
        tensor_content: "…"
      }
    }
  }
}
node {
  name: "Variable_1/read"
  op: "Identity"
  input: "Variable_1"
  attr {
    key: "T"
    value {
      type: DT_FLOAT
    }
  }
  attr {
    key: "_class"
    value {
      list {
        s: "loc:@Variable_1"
      }
    }
  }
}
node {
  name: "MatMul"
  op: "MatMul"
  input: "Gather"
  input: "Variable/read"
  attr {
    key: "T"
    value {
      type: DT_FLOAT
    }
  }
  attr {
    key: "transpose_a"
    value {
      b: false
    }
  }
  attr {
    key: "transpose_b"
    value {
      b: false
    }
  }
}
node {
  name: "add"
  op: "Add"
  input: "MatMul"
  input: "Variable_1/read"
  attr {
    key: "T"
    value {
      type: DT_FLOAT
    }
  }
}
node {
  name: "output"
  op: "Softmax"
  input: "add"
  attr {
    key: "T"
    value {
      type: DT_FLOAT
    }
  }
}
library {
}
