node {
  name: "input_0"
  op: "Placeholder"
  attr {
    key: "dtype"
    value {
      type: DT_FLOAT
    }
  }
  attr {
    key: "shape"
    value {
      shape {
        dim {
          size: 4
        }
        dim {
          size: 128
        }
        dim {
          size: 128
        }
        dim {
          size: 4
        }
      }
    }
  }
}
node {
  name: "filter1"
  op: "Const"
  attr {
    key: "dtype"
    value {
      type: DT_FLOAT
    }
  }
  attr {
    key: "value"
    value {
      tensor {
        dtype: DT_FLOAT
        tensor_shape {
          dim {
            size: 4
          }
          dim {
            size: 5
          }
          dim {
            size: 4
          }
        }
        tensor_content: "…"
      }
    }
  }
}
node {
  name: "filter1/read"
  op: "Identity"
  input: "filter1"
  attr {
    key: "T"
    value {
      type: DT_FLOAT
    }
  }
  attr {
    key: "_class"
    value {
      list {
        s: "loc:@filter1"
      }
    }
  }
}
node {
  name: "atrous_one"
  op: "Dilation2D"
  input: "input_0"
  input: "filter1/read"
  attr {
    key: "T"
    value {
      type: DT_FLOAT
    }
  }
  attr {
    key: "padding"
    value {
      s: "SAME"
    }
  }
  attr {
    key: "rates"
    value {
      list {
        i: 1
        i: 5
        i: 7
        i: 1
      }
    }
  }
  attr {
    key: "strides"
    value {
      list {
        i: 1
        i: 2
        i: 3
        i: 1
      }
    }
  }
}
node {
  name: "filter2"
  op: "Const"
  attr {
    key: "dtype"
    value {
      type: DT_FLOAT
    }
  }
  attr {
    key: "value"
    value {
      tensor {
        dtype: DT_FLOAT
        tensor_shape {
          dim {
            size: 11
          }
          dim {
            size: 7
          }
          dim {
            size: 4
          }
        }
        tensor_content: "…"
      }
    }
  }
}
node {
  name: "filter2/read"
  op: "Identity"
  input: "filter2"
  attr {
    key: "T"
    value {
      type: DT_FLOAT
    }
  }
  attr {
    key: "_class"
    value {
      list {
        s: "loc:@filter2"
      }
    }
  }
}
node {
  name: "output"
  op: "Dilation2D"
  input: "atrous_one"
  input: "filter2/read"
  attr {
    key: "T"
    value {
      type: DT_FLOAT
    }
  }
  attr {
    key: "padding"
    value {
      s: "VALID"
    }
  }
  attr {
    key: "rates"
    value {
      list {
        i: 1
        i: 2
        i: 3
        i: 1
      }
    }
  }
  attr {
    key: "strides"
    value {
      list {
        i: 1
        i: 3
        i: 2
        i: 1
      }
    }
  }
}
library {
}
