node {
  name: "image"
  op: "Placeholder"
  attr {
    key: "dtype"
    value {
      type: DT_FLOAT
    }
  }
  attr {
    key: "shape"
    value {
      shape {
        dim {
          size: -1
        }
        dim {
          size: 4
        }
        dim {
          size: 4
        }
        dim {
          size: 5
        }
      }
    }
  }
}
node {
  name: "filterW0"
  op: "Const"
  attr {
    key: "dtype"
    value {
      type: DT_FLOAT
    }
  }
  attr {
    key: "value"
    value {
      tensor {
        dtype: DT_FLOAT
        tensor_shape {
          dim {
            size: 7
          }
          dim {
            size: 7
          }
          dim {
            size: 16
          }
          dim {
            size: 5
          }
        }
        tensor_content: "…"
      }
    }
  }
}
node {
  name: "filterW0/read"
  op: "Identity"
  input: "filterW0"
  attr {
    key: "T"
    value {
      type: DT_FLOAT
    }
  }
  attr {
    key: "_class"
    value {
      list {
        s: "loc:@filterW0"
      }
    }
  }
}
node {
  name: "conv2d_transpose1/output_shape"
  op: "Const"
  attr {
    key: "dtype"
    value {
      type: DT_INT32
    }
  }
  attr {
    key: "value"
    value {
      tensor {
        dtype: DT_INT32
        tensor_shape {
          dim {
            size: 4
          }
        }
        tensor_content: "\003\000\000\000\010\000\000\000\010\000\000\000\020\000\000\000"
      }
    }
  }
}
node {
  name: "conv2d_transpose1"
  op: "Conv2DBackpropInput"
  input: "conv2d_transpose1/output_shape"
  input: "filterW0/read"
  input: "image"
  attr {
    key: "T"
    value {
      type: DT_FLOAT
    }
  }
  attr {
    key: "data_format"
    value {
      s: "NHWC"
    }
  }
  attr {
    key: "padding"
    value {
      s: "SAME"
    }
  }
  attr {
    key: "strides"
    value {
      list {
        i: 1
        i: 2
        i: 2
        i: 1
      }
    }
  }
  attr {
    key: "use_cudnn_on_gpu"
    value {
      b: true
    }
  }
}
node {
  name: "filterW1"
  op: "Const"
  attr {
    key: "dtype"
    value {
      type: DT_FLOAT
    }
  }
  attr {
    key: "value"
    value {
      tensor {
        dtype: DT_FLOAT
        tensor_shape {
          dim {
            size: 2
          }
          dim {
            size: 2
          }
          dim {
            size: 32
          }
          dim {
            size: 16
          }
        }
        tensor_content: "…"
      }
    }
  }
}
node {
  name: "filterW1/read"
  op: "Identity"
  input: "filterW1"
  attr {
    key: "T"
    value {
      type: DT_FLOAT
    }
  }
  attr {
    key: "_class"
    value {
      list {
        s: "loc:@filterW1"
      }
    }
  }
}
node {
  name: "atrous_conv2d_transpose2/SpaceToBatchND/block_shape"
  op: "Const"
  attr {
    key: "dtype"
    value {
      type: DT_INT32
    }
  }
  attr {
    key: "value"
    value {
      tensor {
        dtype: DT_INT32
        tensor_shape {
          dim {
            size: 2
          }
        }
        tensor_content: "\002\000\000\000\002\000\000\000"
      }
    }
  }
}
node {
  name: "atrous_conv2d_transpose2/SpaceToBatchND/paddings"
  op: "Const"
  attr {
    key: "dtype"
    value {
      type: DT_INT32
    }
  }
  attr {
    key: "value"
    value {
      tensor {
        dtype: DT_INT32
        tensor_shape {
          dim {
            size: 2
          }
          dim {
            size: 2
          }
        }
        tensor_content: "\000\000\000\000\000\000\000\000\000\000\000\000\000\000\000\000"
      }
    }
  }
}
node {
  name: "atrous_conv2d_transpose2/SpaceToBatchND"
  op: "SpaceToBatchND"
  input: "conv2d_transpose1"
  input: "atrous_conv2d_transpose2/SpaceToBatchND/block_shape"
  input: "atrous_conv2d_transpose2/SpaceToBatchND/paddings"
  attr {
    key: "T"
    value {
      type: DT_FLOAT
    }
  }
  attr {
    key: "Tblock_shape"
    value {
      type: DT_INT32
    }
  }
  attr {
    key: "Tpaddings"
    value {
      type: DT_INT32
    }
  }
}
node {
  name: "atrous_conv2d_transpose2/Conv2DBackpropInput/input_sizes"
  op: "Const"
  attr {
    key: "dtype"
    value {
      type: DT_INT32
    }
  }
  attr {
    key: "value"
    value {
      tensor {
        dtype: DT_INT32
        tensor_shape {
          dim {
            size: 4
          }
        }
        tensor_content: "\014\000\000\000\005\000\000\000\005\000\000\000 \000\000\000"
      }
    }
  }
}
node {
  name: "atrous_conv2d_transpose2/Conv2DBackpropInput"
  op: "Conv2DBackpropInput"
  input: "atrous_conv2d_transpose2/Conv2DBackpropInput/input_sizes"
  input: "filterW1/read"
  input: "atrous_conv2d_transpose2/SpaceToBatchND"
  attr {
    key: "T"
    value {
      type: DT_FLOAT
    }
  }
  attr {
    key: "data_format"
    value {
      s: "NHWC"
    }
  }
  attr {
    key: "padding"
    value {
      s: "VALID"
    }
  }
  attr {
    key: "strides"
    value {
      list {
        i: 1
        i: 1
        i: 1
        i: 1
      }
    }
  }
  attr {
    key: "use_cudnn_on_gpu"
    value {
      b: true
    }
  }
}
node {
  name: "atrous_conv2d_transpose2/BatchToSpaceND/block_shape"
  op: "Const"
  attr {
    key: "dtype"
    value {
      type: DT_INT32
    }
  }
  attr {
    key: "value"
    value {
      tensor {
        dtype: DT_INT32
        tensor_shape {
          dim {
            size: 2
          }
        }
        tensor_content: "\002\000\000\000\002\000\000\000"
      }
    }
  }
}
node {
  name: "atrous_conv2d_transpose2/BatchToSpaceND/crops"
  op: "Const"
  attr {
    key: "dtype"
    value {
      type: DT_INT32
    }
  }
  attr {
    key: "value"
    value {
      tensor {
        dtype: DT_INT32
        tensor_shape {
          dim {
            size: 2
          }
          dim {
            size: 2
          }
        }
        tensor_content: "\001\000\000\000\001\000\000\000\001\000\000\000\001\000\000\000"
      }
    }
  }
}
node {
  name: "atrous_conv2d_transpose2/BatchToSpaceND"
  op: "BatchToSpaceND"
  input: "atrous_conv2d_transpose2/Conv2DBackpropInput"
  input: "atrous_conv2d_transpose2/BatchToSpaceND/block_shape"
  input: "atrous_conv2d_transpose2/BatchToSpaceND/crops"
  attr {
    key: "T"
    value {
      type: DT_FLOAT
    }
  }
  attr {
    key: "Tblock_shape"
    value {
      type: DT_INT32
    }
  }
  attr {
    key: "Tcrops"
    value {
      type: DT_INT32
    }
  }
}
node {
  name: "filterW2"
  op: "Const"
  attr {
    key: "dtype"
    value {
      type: DT_FLOAT
    }
  }
  attr {
    key: "value"
    value {
      tensor {
        dtype: DT_FLOAT
        tensor_shape {
          dim {
            size: 2
          }
          dim {
            size: 2
          }
          dim {
            size: 32
          }
          dim {
            size: 2
          }
        }
        tensor_content: "…"
      }
    }
  }
}
node {
  name: "filterW2/read"
  op: "Identity"
  input: "filterW2"
  attr {
    key: "T"
    value {
      type: DT_FLOAT
    }
  }
  attr {
    key: "_class"
    value {
      list {
        s: "loc:@filterW2"
      }
    }
  }
}
node {
  name: "pointwise_filterW2"
  op: "Const"
  attr {
    key: "dtype"
    value {
      type: DT_FLOAT
    }
  }
  attr {
    key: "value"
    value {
      tensor {
        dtype: DT_FLOAT
        tensor_shape {
          dim {
            size: 1
          }
          dim {
            size: 1
          }
          dim {
            size: 64
          }
          dim {
            size: 8
          }
        }
        tensor_content: "…"
      }
    }
  }
}
node {
  name: "pointwise_filterW2/read"
  op: "Identity"
  input: "pointwise_filterW2"
  attr {
    key: "T"
    value {
      type: DT_FLOAT
    }
  }
  attr {
    key: "_class"
    value {
      list {
        s: "loc:@pointwise_filterW2"
      }
    }
  }
}
node {
  name: "separable_conv2d3/SpaceToBatchND/block_shape"
  op: "Const"
  attr {
    key: "dtype"
    value {
      type: DT_INT32
    }
  }
  attr {
    key: "value"
    value {
      tensor {
        dtype: DT_INT32
        tensor_shape {
          dim {
            size: 2
          }
        }
        tensor_content: "\001\000\000\000\002\000\000\000"
      }
    }
  }
}
node {
  name: "separable_conv2d3/SpaceToBatchND/paddings"
  op: "Const"
  attr {
    key: "dtype"
    value {
      type: DT_INT32
    }
  }
  attr {
    key: "value"
    value {
      tensor {
        dtype: DT_INT32
        tensor_shape {
          dim {
            size: 2
          }
          dim {
            size: 2
          }
        }
        tensor_content: "\000\000\000\000\001\000\000\000\001\000\000\000\001\000\000\000"
      }
    }
  }
}
node {
  name: "separable_conv2d3/SpaceToBatchND"
  op: "SpaceToBatchND"
  input: "atrous_conv2d_transpose2/BatchToSpaceND"
  input: "separable_conv2d3/SpaceToBatchND/block_shape"
  input: "separable_conv2d3/SpaceToBatchND/paddings"
  attr {
    key: "T"
    value {
      type: DT_FLOAT
    }
  }
  attr {
    key: "Tblock_shape"
    value {
      type: DT_INT32
    }
  }
  attr {
    key: "Tpaddings"
    value {
      type: DT_INT32
    }
  }
}
node {
  name: "separable_conv2d3/depthwise"
  op: "DepthwiseConv2dNative"
  input: "separable_conv2d3/SpaceToBatchND"
  input: "filterW2/read"
  attr {
    key: "T"
    value {
      type: DT_FLOAT
    }
  }
  attr {
    key: "data_format"
    value {
      s: "NHWC"
    }
  }
  attr {
    key: "padding"
    value {
      s: "VALID"
    }
  }
  attr {
    key: "strides"
    value {
      list {
        i: 1
        i: 1
        i: 1
        i: 1
      }
    }
  }
}
node {
  name: "separable_conv2d3/BatchToSpaceND/block_shape"
  op: "Const"
  attr {
    key: "dtype"
    value {
      type: DT_INT32
    }
  }
  attr {
    key: "value"
    value {
      tensor {
        dtype: DT_INT32
        tensor_shape {
          dim {
            size: 2
          }
        }
        tensor_content: "\001\000\000\000\002\000\000\000"
      }
    }
  }
}
node {
  name: "separable_conv2d3/BatchToSpaceND/crops"
  op: "Const"
  attr {
    key: "dtype"
    value {
      type: DT_INT32
    }
  }
  attr {
    key: "value"
    value {
      tensor {
        dtype: DT_INT32
        tensor_shape {
          dim {
            size: 2
          }
          dim {
            size: 2
          }
        }
        tensor_content: "\000\000\000\000\000\000\000\000\000\000\000\000\000\000\000\000"
      }
    }
  }
}
node {
  name: "separable_conv2d3/BatchToSpaceND"
  op: "BatchToSpaceND"
  input: "separable_conv2d3/depthwise"
  input: "separable_conv2d3/BatchToSpaceND/block_shape"
  input: "separable_conv2d3/BatchToSpaceND/crops"
  attr {
    key: "T"
    value {
      type: DT_FLOAT
    }
  }
  attr {
    key: "Tblock_shape"
    value {
      type: DT_INT32
    }
  }
  attr {
    key: "Tcrops"
    value {
      type: DT_INT32
    }
  }
}
node {
  name: "separable_conv2d3"
  op: "Conv2D"
  input: "separable_conv2d3/BatchToSpaceND"
  input: "pointwise_filterW2/read"
  attr {
    key: "T"
    value {
      type: DT_FLOAT
    }
  }
  attr {
    key: "data_format"
    value {
      s: "NHWC"
    }
  }
  attr {
    key: "padding"
    value {
      s: "VALID"
    }
  }
  attr {
    key: "strides"
    value {
      list {
        i: 1
        i: 1
        i: 1
        i: 1
      }
    }
  }
  attr {
    key: "use_cudnn_on_gpu"
    value {
      b: true
    }
  }
}
node {
  name: "filterW3"
  op: "Const"
  attr {
    key: "dtype"
    value {
      type: DT_FLOAT
    }
  }
  attr {
    key: "value"
    value {
      tensor {
        dtype: DT_FLOAT
        tensor_shape {
          dim {
            size: 2
          }
          dim {
            size: 2
          }
          dim {
            size: 8
          }
          dim {
            size: 4
          }
        }
        tensor_content: "…"
      }
    }
  }
}
node {
  name: "filterW3/read"
  op: "Identity"
  input: "filterW3"
  attr {
    key: "T"
    value {
      type: DT_FLOAT
    }
  }
  attr {
    key: "_class"
    value {
      list {
        s: "loc:@filterW3"
      }
    }
  }
}
node {
  name: "depthwise_conv2d4/SpaceToBatchND/block_shape"
  op: "Const"
  attr {
    key: "dtype"
    value {
      type: DT_INT32
    }
  }
  attr {
    key: "value"
    value {
      tensor {
        dtype: DT_INT32
        tensor_shape {
          dim {
            size: 2
          }
        }
        tensor_content: "\003\000\000\000\002\000\000\000"
      }
    }
  }
}
node {
  name: "depthwise_conv2d4/SpaceToBatchND/paddings"
  op: "Const"
  attr {
    key: "dtype"
    value {
      type: DT_INT32
    }
  }
  attr {
    key: "value"
    value {
      tensor {
        dtype: DT_INT32
        tensor_shape {
          dim {
            size: 2
          }
          dim {
            size: 2
          }
        }
        tensor_content: "\001\000\000\000\003\000\000\000\001\000\000\000\001\000\000\000"
      }
    }
  }
}
node {
  name: "depthwise_conv2d4/SpaceToBatchND"
  op: "SpaceToBatchND"
  input: "separable_conv2d3"
  input: "depthwise_conv2d4/SpaceToBatchND/block_shape"
  input: "depthwise_conv2d4/SpaceToBatchND/paddings"
  attr {
    key: "T"
    value {
      type: DT_FLOAT
    }
  }
  attr {
    key: "Tblock_shape"
    value {
      type: DT_INT32
    }
  }
  attr {
    key: "Tpaddings"
    value {
      type: DT_INT32
    }
  }
}
node {
  name: "depthwise_conv2d4"
  op: "DepthwiseConv2dNative"
  input: "depthwise_conv2d4/SpaceToBatchND"
  input: "filterW3/read"
  attr {
    key: "T"
    value {
      type: DT_FLOAT
    }
  }
  attr {
    key: "data_format"
    value {
      s: "NHWC"
    }
  }
  attr {
    key: "padding"
    value {
      s: "VALID"
    }
  }
  attr {
    key: "strides"
    value {
      list {
        i: 1
        i: 1
        i: 1
        i: 1
      }
    }
  }
}
node {
  name: "depthwise_conv2d4/BatchToSpaceND/block_shape"
  op: "Const"
  attr {
    key: "dtype"
    value {
      type: DT_INT32
    }
  }
  attr {
    key: "value"
    value {
      tensor {
        dtype: DT_INT32
        tensor_shape {
          dim {
            size: 2
          }
        }
        tensor_content: "\003\000\000\000\002\000\000\000"
      }
    }
  }
}
node {
  name: "depthwise_conv2d4/BatchToSpaceND/crops"
  op: "Const"
  attr {
    key: "dtype"
    value {
      type: DT_INT32
    }
  }
  attr {
    key: "value"
    value {
      tensor {
        dtype: DT_INT32
        tensor_shape {
          dim {
            size: 2
          }
          dim {
            size: 2
          }
        }
        tensor_content: "\000\000\000\000\001\000\000\000\000\000\000\000\000\000\000\000"
      }
    }
  }
}
node {
  name: "depthwise_conv2d4/BatchToSpaceND"
  op: "BatchToSpaceND"
  input: "depthwise_conv2d4"
  input: "depthwise_conv2d4/BatchToSpaceND/block_shape"
  input: "depthwise_conv2d4/BatchToSpaceND/crops"
  attr {
    key: "T"
    value {
      type: DT_FLOAT
    }
  }
  attr {
    key: "Tblock_shape"
    value {
      type: DT_INT32
    }
  }
  attr {
    key: "Tcrops"
    value {
      type: DT_INT32
    }
  }
}
node {
  name: "SpaceToBatchND/block_shape"
  op: "Const"
  attr {
    key: "dtype"
    value {
      type: DT_INT32
    }
  }
  attr {
    key: "value"
    value {
      tensor {
        dtype: DT_INT32
        tensor_shape {
          dim {
            size: 2
          }
        }
        tensor_content: "\003\000\000\000\003\000\000\000"
      }
    }
  }
}
node {
  name: "SpaceToBatchND/paddings"
  op: "Const"
  attr {
    key: "dtype"
    value {
      type: DT_INT32
    }
  }
  attr {
    key: "value"
    value {
      tensor {
        dtype: DT_INT32
        tensor_shape {
          dim {
            size: 2
          }
          dim {
            size: 2
          }
        }
        tensor_content: "\001\000\000\000\000\000\000\000\000\000\000\000\001\000\000\000"
      }
    }
  }
}
node {
  name: "SpaceToBatchND"
  op: "SpaceToBatchND"
  input: "depthwise_conv2d4/BatchToSpaceND"
  input: "SpaceToBatchND/block_shape"
  input: "SpaceToBatchND/paddings"
  attr {
    key: "T"
    value {
      type: DT_FLOAT
    }
  }
  attr {
    key: "Tblock_shape"
    value {
      type: DT_INT32
    }
  }
  attr {
    key: "Tpaddings"
    value {
      type: DT_INT32
    }
  }
}
node {
  name: "Reshape/shape"
  op: "Const"
  attr {
    key: "dtype"
    value {
      type: DT_INT32
    }
  }
  attr {
    key: "value"
    value {
      tensor {
        dtype: DT_INT32
        tensor_shape {
          dim {
            size: 3
          }
        }
        tensor_content: "6\000\000\000\014\000\000\000\014\000\000\000"
      }
    }
  }
}
node {
  name: "Reshape"
  op: "Reshape"
  input: "SpaceToBatchND"
  input: "Reshape/shape"
  attr {
    key: "T"
    value {
      type: DT_FLOAT
    }
  }
  attr {
    key: "Tshape"
    value {
      type: DT_INT32
    }
  }
}
node {
  name: "filterW4"
  op: "Const"
  attr {
    key: "dtype"
    value {
      type: DT_FLOAT
    }
  }
  attr {
    key: "value"
    value {
      tensor {
        dtype: DT_FLOAT
        tensor_shape {
          dim {
            size: 2
          }
          dim {
            size: 12
          }
          dim {
            size: 2
          }
        }
        tensor_content: "…"
      }
    }
  }
}
node {
  name: "filterW4/read"
  op: "Identity"
  input: "filterW4"
  attr {
    key: "T"
    value {
      type: DT_FLOAT
    }
  }
  attr {
    key: "_class"
    value {
      list {
        s: "loc:@filterW4"
      }
    }
  }
}
node {
  name: "conv1d5/ExpandDims/dim"
  op: "Const"
  attr {
    key: "dtype"
    value {
      type: DT_INT32
    }
  }
  attr {
    key: "value"
    value {
      tensor {
        dtype: DT_INT32
        tensor_shape {
        }
        int_val: 1
      }
    }
  }
}
node {
  name: "conv1d5/ExpandDims"
  op: "ExpandDims"
  input: "Reshape"
  input: "conv1d5/ExpandDims/dim"
  attr {
    key: "T"
    value {
      type: DT_FLOAT
    }
  }
  attr {
    key: "Tdim"
    value {
      type: DT_INT32
    }
  }
}
node {
  name: "conv1d5/ExpandDims_1/dim"
  op: "Const"
  attr {
    key: "dtype"
    value {
      type: DT_INT32
    }
  }
  attr {
    key: "value"
    value {
      tensor {
        dtype: DT_INT32
        tensor_shape {
        }
        int_val: 0
      }
    }
  }
}
node {
  name: "conv1d5/ExpandDims_1"
  op: "ExpandDims"
  input: "filterW4/read"
  input: "conv1d5/ExpandDims_1/dim"
  attr {
    key: "T"
    value {
      type: DT_FLOAT
    }
  }
  attr {
    key: "Tdim"
    value {
      type: DT_INT32
    }
  }
}
node {
  name: "conv1d5/Conv2D"
  op: "Conv2D"
  input: "conv1d5/ExpandDims"
  input: "conv1d5/ExpandDims_1"
  attr {
    key: "T"
    value {
      type: DT_FLOAT
    }
  }
  attr {
    key: "data_format"
    value {
      s: "NHWC"
    }
  }
  attr {
    key: "padding"
    value {
      s: "SAME"
    }
  }
  attr {
    key: "strides"
    value {
      list {
        i: 1
        i: 1
        i: 1
        i: 1
      }
    }
  }
  attr {
    key: "use_cudnn_on_gpu"
    value {
      b: true
    }
  }
}
node {
  name: "conv1d5/Squeeze"
  op: "Squeeze"
  input: "conv1d5/Conv2D"
  attr {
    key: "T"
    value {
      type: DT_FLOAT
    }
  }
  attr {
    key: "squeeze_dims"
    value {
      list {
        i: 1
      }
    }
  }
}
node {
  name: "output"
  op: "Identity"
  input: "conv1d5/Squeeze"
  attr {
    key: "T"
    value {
      type: DT_FLOAT
    }
  }
}
library {
}
