node {
  name: "in_0"
  op: "Const"
  attr {
    key: "dtype"
    value {
      type: DT_FLOAT
    }
  }
  attr {
    key: "value"
    value {
      tensor {
        dtype: DT_FLOAT
        tensor_shape {
          dim {
            size: 4
          }
          dim {
            size: 5
          }
        }
        tensor_content: "…"
      }
    }
  }
}
node {
  name: "in_0/read"
  op: "Identity"
  input: "in_0"
  attr {
    key: "T"
    value {
      type: DT_FLOAT
    }
  }
  attr {
    key: "_class"
    value {
      list {
        s: "loc:@in_0"
      }
    }
  }
}
node {
  name: "in_1"
  op: "Const"
  attr {
    key: "dtype"
    value {
      type: DT_FLOAT
    }
  }
  attr {
    key: "value"
    value {
      tensor {
        dtype: DT_FLOAT
        tensor_shape {
          dim {
            size: 3
          }
          dim {
            size: 5
          }
        }
        tensor_content: "…"
      }
    }
  }
}
node {
  name: "in_1/read"
  op: "Identity"
  input: "in_1"
  attr {
    key: "T"
    value {
      type: DT_FLOAT
    }
  }
  attr {
    key: "_class"
    value {
      list {
        s: "loc:@in_1"
      }
    }
  }
}
node {
  name: "in_2"
  op: "Const"
  attr {
    key: "dtype"
    value {
      type: DT_FLOAT
    }
  }
  attr {
    key: "value"
    value {
      tensor {
        dtype: DT_FLOAT
        tensor_shape {
          dim {
            size: 3
          }
          dim {
            size: 5
          }
        }
        tensor_content: "…"
      }
    }
  }
}
node {
  name: "in_2/read"
  op: "Identity"
  input: "in_2"
  attr {
    key: "T"
    value {
      type: DT_FLOAT
    }
  }
  attr {
    key: "_class"
    value {
      list {
        s: "loc:@in_2"
      }
    }
  }
}
node {
  name: "in_3"
  op: "Const"
  attr {
    key: "dtype"
    value {
      type: DT_INT32
    }
  }
  attr {
    key: "value"
    value {
      tensor {
        dtype: DT_INT32
        tensor_shape {
          dim {
            size: 4
          }
        }
        tensor_content: "\002\000\000\000\010\000\000\000\006\000\000\000\000\000\000\000"
      }
    }
  }
}
node {
  name: "in_3/read"
  op: "Identity"
  input: "in_3"
  attr {
    key: "T"
    value {
      type: DT_INT32
    }
  }
  attr {
    key: "_class"
    value {
      list {
        s: "loc:@in_3"
      }
    }
  }
}
node {
  name: "embedding_lookup/Reshape/shape"
  op: "Const"
  attr {
    key: "dtype"
    value {
      type: DT_INT32
    }
  }
  attr {
    key: "value"
    value {
      tensor {
        dtype: DT_INT32
        tensor_shape {
          dim {
            size: 1
          }
        }
        int_val: -1
      }
    }
  }
}
node {
  name: "embedding_lookup/Reshape"
  op: "Reshape"
  input: "in_3/read"
  input: "embedding_lookup/Reshape/shape"
  attr {
    key: "T"
    value {
      type: DT_INT32
    }
  }
  attr {
    key: "Tshape"
    value {
      type: DT_INT32
    }
  }
}
node {
  name: "embedding_lookup/Size"
  op: "Const"
  attr {
    key: "dtype"
    value {
      type: DT_INT32
    }
  }
  attr {
    key: "value"
    value {
      tensor {
        dtype: DT_INT32
        tensor_shape {
        }
        int_val: 4
      }
    }
  }
}
node {
  name: "embedding_lookup/range/start"
  op: "Const"
  attr {
    key: "dtype"
    value {
      type: DT_INT32
    }
  }
  attr {
    key: "value"
    value {
      tensor {
        dtype: DT_INT32
        tensor_shape {
        }
        int_val: 0
      }
    }
  }
}
node {
  name: "embedding_lookup/range/delta"
  op: "Const"
  attr {
    key: "dtype"
    value {
      type: DT_INT32
    }
  }
  attr {
    key: "value"
    value {
      tensor {
        dtype: DT_INT32
        tensor_shape {
        }
        int_val: 1
      }
    }
  }
}
node {
  name: "embedding_lookup/range"
  op: "Range"
  input: "embedding_lookup/range/start"
  input: "embedding_lookup/Size"
  input: "embedding_lookup/range/delta"
  attr {
    key: "Tidx"
    value {
      type: DT_INT32
    }
  }
}
node {
  name: "embedding_lookup/mod/y"
  op: "Const"
  attr {
    key: "dtype"
    value {
      type: DT_INT32
    }
  }
  attr {
    key: "value"
    value {
      tensor {
        dtype: DT_INT32
        tensor_shape {
        }
        int_val: 3
      }
    }
  }
}
node {
  name: "embedding_lookup/mod"
  op: "FloorMod"
  input: "embedding_lookup/Reshape"
  input: "embedding_lookup/mod/y"
  attr {
    key: "T"
    value {
      type: DT_INT32
    }
  }
}
node {
  name: "embedding_lookup/floordiv/y"
  op: "Const"
  attr {
    key: "dtype"
    value {
      type: DT_INT32
    }
  }
  attr {
    key: "value"
    value {
      tensor {
        dtype: DT_INT32
        tensor_shape {
        }
        int_val: 3
      }
    }
  }
}
node {
  name: "embedding_lookup/floordiv"
  op: "FloorDiv"
  input: "embedding_lookup/Reshape"
  input: "embedding_lookup/floordiv/y"
  attr {
    key: "T"
    value {
      type: DT_INT32
    }
  }
}
node {
  name: "embedding_lookup/DynamicPartition"
  op: "DynamicPartition"
  input: "embedding_lookup/floordiv"
  input: "embedding_lookup/mod"
  attr {
    key: "T"
    value {
      type: DT_INT32
    }
  }
  attr {
    key: "num_partitions"
    value {
      i: 3
    }
  }
}
node {
  name: "embedding_lookup/DynamicPartition_1"
  op: "DynamicPartition"
  input: "embedding_lookup/range"
  input: "embedding_lookup/mod"
  attr {
    key: "T"
    value {
      type: DT_INT32
    }
  }
  attr {
    key: "num_partitions"
    value {
      i: 3
    }
  }
}
node {
  name: "embedding_lookup/GatherV2/axis"
  op: "Const"
  attr {
    key: "_class"
    value {
      list {
        s: "loc:@in_0"
      }
    }
  }
  attr {
    key: "dtype"
    value {
      type: DT_INT32
    }
  }
  attr {
    key: "value"
    value {
      tensor {
        dtype: DT_INT32
        tensor_shape {
        }
        int_val: 0
      }
    }
  }
}
node {
  name: "embedding_lookup/GatherV2"
  op: "GatherV2"
  input: "in_0/read"
  input: "embedding_lookup/DynamicPartition"
  input: "embedding_lookup/GatherV2/axis"
  attr {
    key: "Taxis"
    value {
      type: DT_INT32
    }
  }
  attr {
    key: "Tindices"
    value {
      type: DT_INT32
    }
  }
  attr {
    key: "Tparams"
    value {
      type: DT_FLOAT
    }
  }
  attr {
    key: "_class"
    value {
      list {
        s: "loc:@in_0"
      }
    }
  }
}
node {
  name: "embedding_lookup/GatherV2_1/axis"
  op: "Const"
  attr {
    key: "_class"
    value {
      list {
        s: "loc:@in_1"
      }
    }
  }
  attr {
    key: "dtype"
    value {
      type: DT_INT32
    }
  }
  attr {
    key: "value"
    value {
      tensor {
        dtype: DT_INT32
        tensor_shape {
        }
        int_val: 0
      }
    }
  }
}
node {
  name: "embedding_lookup/GatherV2_1"
  op: "GatherV2"
  input: "in_1/read"
  input: "embedding_lookup/DynamicPartition:1"
  input: "embedding_lookup/GatherV2_1/axis"
  attr {
    key: "Taxis"
    value {
      type: DT_INT32
    }
  }
  attr {
    key: "Tindices"
    value {
      type: DT_INT32
    }
  }
  attr {
    key: "Tparams"
    value {
      type: DT_FLOAT
    }
  }
  attr {
    key: "_class"
    value {
      list {
        s: "loc:@in_1"
      }
    }
  }
}
node {
  name: "embedding_lookup/GatherV2_2/axis"
  op: "Const"
  attr {
    key: "_class"
    value {
      list {
        s: "loc:@in_2"
      }
    }
  }
  attr {
    key: "dtype"
    value {
      type: DT_INT32
    }
  }
  attr {
    key: "value"
    value {
      tensor {
        dtype: DT_INT32
        tensor_shape {
        }
        int_val: 0
      }
    }
  }
}
node {
  name: "embedding_lookup/GatherV2_2"
  op: "GatherV2"
  input: "in_2/read"
  input: "embedding_lookup/DynamicPartition:2"
  input: "embedding_lookup/GatherV2_2/axis"
  attr {
    key: "Taxis"
    value {
      type: DT_INT32
    }
  }
  attr {
    key: "Tindices"
    value {
      type: DT_INT32
    }
  }
  attr {
    key: "Tparams"
    value {
      type: DT_FLOAT
    }
  }
  attr {
    key: "_class"
    value {
      list {
        s: "loc:@in_2"
      }
    }
  }
}
node {
  name: "embedding_lookup"
  op: "ParallelDynamicStitch"
  input: "embedding_lookup/DynamicPartition_1"
  input: "embedding_lookup/DynamicPartition_1:1"
  input: "embedding_lookup/DynamicPartition_1:2"
  input: "embedding_lookup/GatherV2"
  input: "embedding_lookup/GatherV2_1"
  input: "embedding_lookup/GatherV2_2"
  attr {
    key: "N"
    value {
      i: 3
    }
  }
  attr {
    key: "T"
    value {
      type: DT_FLOAT
    }
  }
}
node {
  name: "embedding_lookup/Shape"
  op: "Const"
  attr {
    key: "dtype"
    value {
      type: DT_INT32
    }
  }
  attr {
    key: "value"
    value {
      tensor {
        dtype: DT_INT32
        tensor_shape {
          dim {
            size: 1
          }
        }
        int_val: 4
      }
    }
  }
}
node {
  name: "embedding_lookup/concat/values_1"
  op: "Const"
  attr {
    key: "dtype"
    value {
      type: DT_INT32
    }
  }
  attr {
    key: "value"
    value {
      tensor {
        dtype: DT_INT32
        tensor_shape {
          dim {
            size: 1
          }
        }
        int_val: 5
      }
    }
  }
}
node {
  name: "embedding_lookup/concat/axis"
  op: "Const"
  attr {
    key: "dtype"
    value {
      type: DT_INT32
    }
  }
  attr {
    key: "value"
    value {
      tensor {
        dtype: DT_INT32
        tensor_shape {
        }
        int_val: 0
      }
    }
  }
}
node {
  name: "embedding_lookup/concat"
  op: "ConcatV2"
  input: "embedding_lookup/Shape"
  input: "embedding_lookup/concat/values_1"
  input: "embedding_lookup/concat/axis"
  attr {
    key: "N"
    value {
      i: 2
    }
  }
  attr {
    key: "T"
    value {
      type: DT_INT32
    }
  }
  attr {
    key: "Tidx"
    value {
      type: DT_INT32
    }
  }
}
node {
  name: "embedding_lookup/Reshape_1"
  op: "Reshape"
  input: "embedding_lookup"
  input: "embedding_lookup/concat"
  attr {
    key: "T"
    value {
      type: DT_FLOAT
    }
  }
  attr {
    key: "Tshape"
    value {
      type: DT_INT32
    }
  }
}
node {
  name: "embedding_lookup/clip_by_norm/mul"
  op: "Mul"
  input: "embedding_lookup/Reshape_1"
  input: "embedding_lookup/Reshape_1"
  attr {
    key: "T"
    value {
      type: DT_FLOAT
    }
  }
}
node {
  name: "embedding_lookup/clip_by_norm/Sum/reduction_indices"
  op: "Const"
  attr {
    key: "dtype"
    value {
      type: DT_INT32
    }
  }
  attr {
    key: "value"
    value {
      tensor {
        dtype: DT_INT32
        tensor_shape {
          dim {
            size: 1
          }
        }
        int_val: 1
      }
    }
  }
}
node {
  name: "embedding_lookup/clip_by_norm/Sum"
  op: "Sum"
  input: "embedding_lookup/clip_by_norm/mul"
  input: "embedding_lookup/clip_by_norm/Sum/reduction_indices"
  attr {
    key: "T"
    value {
      type: DT_FLOAT
    }
  }
  attr {
    key: "Tidx"
    value {
      type: DT_INT32
    }
  }
  attr {
    key: "keep_dims"
    value {
      b: true
    }
  }
}
node {
  name: "embedding_lookup/clip_by_norm/Sqrt"
  op: "Sqrt"
  input: "embedding_lookup/clip_by_norm/Sum"
  attr {
    key: "T"
    value {
      type: DT_FLOAT
    }
  }
}
node {
  name: "embedding_lookup/clip_by_norm/mul_1/y"
  op: "Const"
  attr {
    key: "dtype"
    value {
      type: DT_FLOAT
    }
  }
  attr {
    key: "value"
    value {
      tensor {
        dtype: DT_FLOAT
        tensor_shape {
        }
        float_val: 1.0
      }
    }
  }
}
node {
  name: "embedding_lookup/clip_by_norm/mul_1"
  op: "Mul"
  input: "embedding_lookup/Reshape_1"
  input: "embedding_lookup/clip_by_norm/mul_1/y"
  attr {
    key: "T"
    value {
      type: DT_FLOAT
    }
  }
}
node {
  name: "embedding_lookup/clip_by_norm/Maximum/y"
  op: "Const"
  attr {
    key: "dtype"
    value {
      type: DT_FLOAT
    }
  }
  attr {
    key: "value"
    value {
      tensor {
        dtype: DT_FLOAT
        tensor_shape {
        }
        float_val: 1.0
      }
    }
  }
}
node {
  name: "embedding_lookup/clip_by_norm/Maximum"
  op: "Maximum"
  input: "embedding_lookup/clip_by_norm/Sqrt"
  input: "embedding_lookup/clip_by_norm/Maximum/y"
  attr {
    key: "T"
    value {
      type: DT_FLOAT
    }
  }
}
node {
  name: "embedding_lookup/clip_by_norm/truediv"
  op: "RealDiv"
  input: "embedding_lookup/clip_by_norm/mul_1"
  input: "embedding_lookup/clip_by_norm/Maximum"
  attr {
    key: "T"
    value {
      type: DT_FLOAT
    }
  }
}
node {
  name: "embedding_lookup/clip_by_norm"
  op: "Identity"
  input: "embedding_lookup/clip_by_norm/truediv"
  attr {
    key: "T"
    value {
      type: DT_FLOAT
    }
  }
}
library {
}
