{"keras_version": "2.2.0", "config": {"layers": [{"name": "input_4", "config": {"batch_input_shape": [null, 10, 19, 19], "name": "input_4", "sparse": false, "dtype": "float32"}, "inbound_nodes": [], "class_name": "InputLayer"}, {"name": "init_conv_block", "config": {"activation": "linear", "name": "init_conv_block", "bias_regularizer": null, "bias_constraint": null, "kernel_regularizer": null, "padding": "same", "kernel_initializer": {"config": {"scale": 2.0, "distribution": "normal", "mode": "fan_in", "seed": null}, "class_name": "VarianceScaling"}, "dilation_rate": [1, 1], "kernel_constraint": null, "use_bias": true, "kernel_size": [3, 3], "trainable": true, "activity_regularizer": null, "data_format": "channels_last", "strides": [1, 1], "filters": 256, "bias_initializer": {"config": {}, "class_name": "Zeros"}}, "inbound_nodes": [[["input_4", 0, 0, {}]]], "class_name": "Conv2D"}, {"name": "init_batch_norm", "config": {"name": "init_batch_norm", "beta_regularizer": null, "axis": -1, "scale": true, "moving_mean_initializer": {"config": {}, "class_name": "Zeros"}, "epsilon": 0.001, "beta_constraint": null, "gamma_initializer": {"config": {}, "class_name": "Ones"}, "beta_initializer": {"config": {}, "class_name": "Zeros"}, "trainable": true, "gamma_regularizer": null, "momentum": 0.99, "moving_variance_initializer": {"config": {}, "class_name": "Ones"}, "center": true, "gamma_constraint": null}, "inbound_nodes": [[["init_conv_block", 0, 0, {}]]], "class_name": "BatchNormalization"}, {"name": "init_relu", "config": {"name": "init_relu", "trainable": true, "activation": "relu"}, "inbound_nodes": [[["init_batch_norm", 0, 0, {}]]], "class_name": "Activation"}, {"name": "0_conv_block", "config": {"activation": "linear", "name": "0_conv_block", "bias_regularizer": null, "bias_constraint": null, "kernel_regularizer": null, "padding": "same", "kernel_initializer": {"config": {"scale": 2.0, "distribution": "normal", "mode": "fan_in", "seed": null}, "class_name": "VarianceScaling"}, "dilation_rate": [1, 1], "kernel_constraint": null, "use_bias": true, "kernel_size": [3, 3], "trainable": true, "activity_regularizer": null, "data_format": "channels_last", "strides": [1, 1], "filters": 256, "bias_initializer": {"config": {}, "class_name": "Zeros"}}, "inbound_nodes": [[["init_relu", 0, 0, {}]]], "class_name": "Conv2D"}, {"name": "0_batch_norm", "config": {"name": "0_batch_norm", "beta_regularizer": null, "axis": -1, "scale": true, "moving_mean_initializer": {"config": {}, "class_name": "Zeros"}, "epsilon": 0.001, "beta_constraint": null, "gamma_initializer": {"config": {}, "class_name": "Ones"}, "beta_initializer": {"config": {}, "class_name": "Zeros"}, "trainable": true, "gamma_regularizer": null, "momentum": 0.99, "moving_variance_initializer": {"config": {}, "class_name": "Ones"}, "center": true, "gamma_constraint": null}, "inbound_nodes": [[["0_conv_block", 0, 0, {}]]], "class_name": "BatchNormalization"}, {"name": "0_relu", "config": {"name": "0_relu", "trainable": true, "activation": "relu"}, "inbound_nodes": [[["0_batch_norm", 0, 0, {}]]], "class_name": "Activation"}, {"name": "1_conv_block", "config": {"activation": "linear", "name": "1_conv_block", "bias_regularizer": null, "bias_constraint": null, "kernel_regularizer": null, "padding": "same", "kernel_initializer": {"config": {"scale": 2.0, "distribution": "normal", "mode": "fan_in", "seed": null}, "class_name": "VarianceScaling"}, "dilation_rate": [1, 1], "kernel_constraint": null, "use_bias": true, "kernel_size": [3, 3], "trainable": true, "activity_regularizer": null, "data_format": "channels_last", "strides": [1, 1], "filters": 256, "bias_initializer": {"config": {}, "class_name": "Zeros"}}, "inbound_nodes": [[["0_relu", 0, 0, {}]]], "class_name": "Conv2D"}, {"name": "1_batch_norm", "config": {"name": "1_batch_norm", "beta_regularizer": null, "axis": -1, "scale": true, "moving_mean_initializer": {"config": {}, "class_name": "Zeros"}, "epsilon": 0.001, "beta_constraint": null, "gamma_initializer": {"config": {}, "class_name": "Ones"}, "beta_initializer": {"config": {}, "class_name": "Zeros"}, "trainable": true, "gamma_regularizer": null, "momentum": 0.99, "moving_variance_initializer": {"config": {}, "class_name": "Ones"}, "center": true, "gamma_constraint": null}, "inbound_nodes": [[["1_conv_block", 0, 0, {}]]], "class_name": "BatchNormalization"}, {"name": "1_relu", "config": {"name": "1_relu", "trainable": true, "activation": "relu"}, "inbound_nodes": [[["1_batch_norm", 0, 0, {}]]], "class_name": "Activation"}, {"name": "2_conv_block", "config": {"activation": "linear", "name": "2_conv_block", "bias_regularizer": null, "bias_constraint": null, "kernel_regularizer": null, "padding": "same", "kernel_initializer": {"config": {"scale": 2.0, "distribution": "normal", "mode": "fan_in", "seed": null}, "class_name": "VarianceScaling"}, "dilation_rate": [1, 1], "kernel_constraint": null, "use_bias": true, "kernel_size": [3, 3], "trainable": true, "activity_regularizer": null, "data_format": "channels_last", "strides": [1, 1], "filters": 256, "bias_initializer": {"config": {}, "class_name": "Zeros"}}, "inbound_nodes": [[["1_relu", 0, 0, {}]]], "class_name": "Conv2D"}, {"name": "2_batch_norm", "config": {"name": "2_batch_norm", "beta_regularizer": null, "axis": -1, "scale": true, "moving_mean_initializer": {"config": {}, "class_name": "Zeros"}, "epsilon": 0.001, "beta_constraint": null, "gamma_initializer": {"config": {}, "class_name": "Ones"}, "beta_initializer": {"config": {}, "class_name": "Zeros"}, "trainable": true, "gamma_regularizer": null, "momentum": 0.99, "moving_variance_initializer": {"config": {}, "class_name": "Ones"}, "center": true, "gamma_constraint": null}, "inbound_nodes": [[["2_conv_block", 0, 0, {}]]], "class_name": "BatchNormalization"}, {"name": "2_relu", "config": {"name": "2_relu", "trainable": true, "activation": "relu"}, "inbound_nodes": [[["2_batch_norm", 0, 0, {}]]], "class_name": "Activation"}, {"name": "3_conv_block", "config": {"activation": "linear", "name": "3_conv_block", "bias_regularizer": null, "bias_constraint": null, "kernel_regularizer": null, "padding": "same", "kernel_initializer": {"config": {"scale": 2.0, "distribution": "normal", "mode": "fan_in", "seed": null}, "class_name": "VarianceScaling"}, "dilation_rate": [1, 1], "kernel_constraint": null, "use_bias": true, "kernel_size": [3, 3], "trainable": true, "activity_regularizer": null, "data_format": "channels_last", "strides": [1, 1], "filters": 256, "bias_initializer": {"config": {}, "class_name": "Zeros"}}, "inbound_nodes": [[["2_relu", 0, 0, {}]]], "class_name": "Conv2D"}, {"name": "3_batch_norm", "config": {"name": "3_batch_norm", "beta_regularizer": null, "axis": -1, "scale": true, "moving_mean_initializer": {"config": {}, "class_name": "Zeros"}, "epsilon": 0.001, "beta_constraint": null, "gamma_initializer": {"config": {}, "class_name": "Ones"}, "beta_initializer": {"config": {}, "class_name": "Zeros"}, "trainable": true, "gamma_regularizer": null, "momentum": 0.99, "moving_variance_initializer": {"config": {}, "class_name": "Ones"}, "center": true, "gamma_constraint": null}, "inbound_nodes": [[["3_conv_block", 0, 0, {}]]], "class_name": "BatchNormalization"}, {"name": "3_relu", "config": {"name": "3_relu", "trainable": true, "activation": "relu"}, "inbound_nodes": [[["3_batch_norm", 0, 0, {}]]], "class_name": "Activation"}, {"name": "4_conv_block", "config": {"activation": "linear", "name": "4_conv_block", "bias_regularizer": null, "bias_constraint": null, "kernel_regularizer": null, "padding": "same", "kernel_initializer": {"config": {"scale": 2.0, "distribution": "normal", "mode": "fan_in", "seed": null}, "class_name": "VarianceScaling"}, "dilation_rate": [1, 1], "kernel_constraint": null, "use_bias": true, "kernel_size": [3, 3], "trainable": true, "activity_regularizer": null, "data_format": "channels_last", "strides": [1, 1], "filters": 256, "bias_initializer": {"config": {}, "class_name": "Zeros"}}, "inbound_nodes": [[["3_relu", 0, 0, {}]]], "class_name": "Conv2D"}, {"name": "4_batch_norm", "config": {"name": "4_batch_norm", "beta_regularizer": null, "axis": -1, "scale": true, "moving_mean_initializer": {"config": {}, "class_name": "Zeros"}, "epsilon": 0.001, "beta_constraint": null, "gamma_initializer": {"config": {}, "class_name": "Ones"}, "beta_initializer": {"config": {}, "class_name": "Zeros"}, "trainable": true, "gamma_regularizer": null, "momentum": 0.99, "moving_variance_initializer": {"config": {}, "class_name": "Ones"}, "center": true, "gamma_constraint": null}, "inbound_nodes": [[["4_conv_block", 0, 0, {}]]], "class_name": "BatchNormalization"}, {"name": "4_relu", "config": {"name": "4_relu", "trainable": true, "activation": "relu"}, "inbound_nodes": [[["4_batch_norm", 0, 0, {}]]], "class_name": "Activation"}, {"name": "5_conv_block", "config": {"activation": "linear", "name": "5_conv_block", "bias_regularizer": null, "bias_constraint": null, "kernel_regularizer": null, "padding": "same", "kernel_initializer": {"config": {"scale": 2.0, "distribution": "normal", "mode": "fan_in", "seed": null}, "class_name": "VarianceScaling"}, "dilation_rate": [1, 1], "kernel_constraint": null, "use_bias": true, "kernel_size": [3, 3], "trainable": true, "activity_regularizer": null, "data_format": "channels_last", "strides": [1, 1], "filters": 256, "bias_initializer": {"config": {}, "class_name": "Zeros"}}, "inbound_nodes": [[["4_relu", 0, 0, {}]]], "class_name": "Conv2D"}, {"name": "5_batch_norm", "config": {"name": "5_batch_norm", "beta_regularizer": null, "axis": -1, "scale": true, "moving_mean_initializer": {"config": {}, "class_name": "Zeros"}, "epsilon": 0.001, "beta_constraint": null, "gamma_initializer": {"config": {}, "class_name": "Ones"}, "beta_initializer": {"config": {}, "class_name": "Zeros"}, "trainable": true, "gamma_regularizer": null, "momentum": 0.99, "moving_variance_initializer": {"config": {}, "class_name": "Ones"}, "center": true, "gamma_constraint": null}, "inbound_nodes": [[["5_conv_block", 0, 0, {}]]], "class_name": "BatchNormalization"}, {"name": "5_relu", "config": {"name": "5_relu", "trainable": true, "activation": "relu"}, "inbound_nodes": [[["5_batch_norm", 0, 0, {}]]], "class_name": "Activation"}, {"name": "6_conv_block", "config": {"activation": "linear", "name": "6_conv_block", "bias_regularizer": null, "bias_constraint": null, "kernel_regularizer": null, "padding": "same", "kernel_initializer": {"config": {"scale": 2.0, "distribution": "normal", "mode": "fan_in", "seed": null}, "class_name": "VarianceScaling"}, "dilation_rate": [1, 1], "kernel_constraint": null, "use_bias": true, "kernel_size": [3, 3], "trainable": true, "activity_regularizer": null, "data_format": "channels_last", "strides": [1, 1], "filters": 256, "bias_initializer": {"config": {}, "class_name": "Zeros"}}, "inbound_nodes": [[["5_relu", 0, 0, {}]]], "class_name": "Conv2D"}, {"name": "6_batch_norm", "config": {"name": "6_batch_norm", "beta_regularizer": null, "axis": -1, "scale": true, "moving_mean_initializer": {"config": {}, "class_name": "Zeros"}, "epsilon": 0.001, "beta_constraint": null, "gamma_initializer": {"config": {}, "class_name": "Ones"}, "beta_initializer": {"config": {}, "class_name": "Zeros"}, "trainable": true, "gamma_regularizer": null, "momentum": 0.99, "moving_variance_initializer": {"config": {}, "class_name": "Ones"}, "center": true, "gamma_constraint": null}, "inbound_nodes": [[["6_conv_block", 0, 0, {}]]], "class_name": "BatchNormalization"}, {"name": "6_relu", "config": {"name": "6_relu", "trainable": true, "activation": "relu"}, "inbound_nodes": [[["6_batch_norm", 0, 0, {}]]], "class_name": "Activation"}, {"name": "7_conv_block", "config": {"activation": "linear", "name": "7_conv_block", "bias_regularizer": null, "bias_constraint": null, "kernel_regularizer": null, "padding": "same", "kernel_initializer": {"config": {"scale": 2.0, "distribution": "normal", "mode": "fan_in", "seed": null}, "class_name": "VarianceScaling"}, "dilation_rate": [1, 1], "kernel_constraint": null, "use_bias": true, "kernel_size": [3, 3], "trainable": true, "activity_regularizer": null, "data_format": "channels_last", "strides": [1, 1], "filters": 256, "bias_initializer": {"config": {}, "class_name": "Zeros"}}, "inbound_nodes": [[["6_relu", 0, 0, {}]]], "class_name": "Conv2D"}, {"name": "7_batch_norm", "config": {"name": "7_batch_norm", "beta_regularizer": null, "axis": -1, "scale": true, "moving_mean_initializer": {"config": {}, "class_name": "Zeros"}, "epsilon": 0.001, "beta_constraint": null, "gamma_initializer": {"config": {}, "class_name": "Ones"}, "beta_initializer": {"config": {}, "class_name": "Zeros"}, "trainable": true, "gamma_regularizer": null, "momentum": 0.99, "moving_variance_initializer": {"config": {}, "class_name": "Ones"}, "center": true, "gamma_constraint": null}, "inbound_nodes": [[["7_conv_block", 0, 0, {}]]], "class_name": "BatchNormalization"}, {"name": "7_relu", "config": {"name": "7_relu", "trainable": true, "activation": "relu"}, "inbound_nodes": [[["7_batch_norm", 0, 0, {}]]], "class_name": "Activation"}, {"name": "8_conv_block", "config": {"activation": "linear", "name": "8_conv_block", "bias_regularizer": null, "bias_constraint": null, "kernel_regularizer": null, "padding": "same", "kernel_initializer": {"config": {"scale": 2.0, "distribution": "normal", "mode": "fan_in", "seed": null}, "class_name": "VarianceScaling"}, "dilation_rate": [1, 1], "kernel_constraint": null, "use_bias": true, "kernel_size": [3, 3], "trainable": true, "activity_regularizer": null, "data_format": "channels_last", "strides": [1, 1], "filters": 256, "bias_initializer": {"config": {}, "class_name": "Zeros"}}, "inbound_nodes": [[["7_relu", 0, 0, {}]]], "class_name": "Conv2D"}, {"name": "8_batch_norm", "config": {"name": "8_batch_norm", "beta_regularizer": null, "axis": -1, "scale": true, "moving_mean_initializer": {"config": {}, "class_name": "Zeros"}, "epsilon": 0.001, "beta_constraint": null, "gamma_initializer": {"config": {}, "class_name": "Ones"}, "beta_initializer": {"config": {}, "class_name": "Zeros"}, "trainable": true, "gamma_regularizer": null, "momentum": 0.99, "moving_variance_initializer": {"config": {}, "class_name": "Ones"}, "center": true, "gamma_constraint": null}, "inbound_nodes": [[["8_conv_block", 0, 0, {}]]], "class_name": "BatchNormalization"}, {"name": "8_relu", "config": {"name": "8_relu", "trainable": true, "activation": "relu"}, "inbound_nodes": [[["8_batch_norm", 0, 0, {}]]], "class_name": "Activation"}, {"name": "9_conv_block", "config": {"activation": "linear", "name": "9_conv_block", "bias_regularizer": null, "bias_constraint": null, "kernel_regularizer": null, "padding": "same", "kernel_initializer": {"config": {"scale": 2.0, "distribution": "normal", "mode": "fan_in", "seed": null}, "class_name": "VarianceScaling"}, "dilation_rate": [1, 1], "kernel_constraint": null, "use_bias": true, "kernel_size": [3, 3], "trainable": true, "activity_regularizer": null, "data_format": "channels_last", "strides": [1, 1], "filters": 256, "bias_initializer": {"config": {}, "class_name": "Zeros"}}, "inbound_nodes": [[["8_relu", 0, 0, {}]]], "class_name": "Conv2D"}, {"name": "9_batch_norm", "config": {"name": "9_batch_norm", "beta_regularizer": null, "axis": -1, "scale": true, "moving_mean_initializer": {"config": {}, "class_name": "Zeros"}, "epsilon": 0.001, "beta_constraint": null, "gamma_initializer": {"config": {}, "class_name": "Ones"}, "beta_initializer": {"config": {}, "class_name": "Zeros"}, "trainable": true, "gamma_regularizer": null, "momentum": 0.99, "moving_variance_initializer": {"config": {}, "class_name": "Ones"}, "center": true, "gamma_constraint": null}, "inbound_nodes": [[["9_conv_block", 0, 0, {}]]], "class_name": "BatchNormalization"}, {"name": "9_relu", "config": {"name": "9_relu", "trainable": true, "activation": "relu"}, "inbound_nodes": [[["9_batch_norm", 0, 0, {}]]], "class_name": "Activation"}, {"name": "10_conv_block", "config": {"activation": "linear", "name": "10_conv_block", "bias_regularizer": null, "bias_constraint": null, "kernel_regularizer": null, "padding": "same", "kernel_initializer": {"config": {"scale": 2.0, "distribution": "normal", "mode": "fan_in", "seed": null}, "class_name": "VarianceScaling"}, "dilation_rate": [1, 1], "kernel_constraint": null, "use_bias": true, "kernel_size": [3, 3], "trainable": true, "activity_regularizer": null, "data_format": "channels_last", "strides": [1, 1], "filters": 256, "bias_initializer": {"config": {}, "class_name": "Zeros"}}, "inbound_nodes": [[["9_relu", 0, 0, {}]]], "class_name": "Conv2D"}, {"name": "10_batch_norm", "config": {"name": "10_batch_norm", "beta_regularizer": null, "axis": -1, "scale": true, "moving_mean_initializer": {"config": {}, "class_name": "Zeros"}, "epsilon": 0.001, "beta_constraint": null, "gamma_initializer": {"config": {}, "class_name": "Ones"}, "beta_initializer": {"config": {}, "class_name": "Zeros"}, "trainable": true, "gamma_regularizer": null, "momentum": 0.99, "moving_variance_initializer": {"config": {}, "class_name": "Ones"}, "center": true, "gamma_constraint": null}, "inbound_nodes": [[["10_conv_block", 0, 0, {}]]], "class_name": "BatchNormalization"}, {"name": "10_relu", "config": {"name": "10_relu", "trainable": true, "activation": "relu"}, "inbound_nodes": [[["10_batch_norm", 0, 0, {}]]], "class_name": "Activation"}, {"name": "11_conv_block", "config": {"activation": "linear", "name": "11_conv_block", "bias_regularizer": null, "bias_constraint": null, "kernel_regularizer": null, "padding": "same", "kernel_initializer": {"config": {"scale": 2.0, "distribution": "normal", "mode": "fan_in", "seed": null}, "class_name": "VarianceScaling"}, "dilation_rate": [1, 1], "kernel_constraint": null, "use_bias": true, "kernel_size": [3, 3], "trainable": true, "activity_regularizer": null, "data_format": "channels_last", "strides": [1, 1], "filters": 256, "bias_initializer": {"config": {}, "class_name": "Zeros"}}, "inbound_nodes": [[["10_relu", 0, 0, {}]]], "class_name": "Conv2D"}, {"name": "11_batch_norm", "config": {"name": "11_batch_norm", "beta_regularizer": null, "axis": -1, "scale": true, "moving_mean_initializer": {"config": {}, "class_name": "Zeros"}, "epsilon": 0.001, "beta_constraint": null, "gamma_initializer": {"config": {}, "class_name": "Ones"}, "beta_initializer": {"config": {}, "class_name": "Zeros"}, "trainable": true, "gamma_regularizer": null, "momentum": 0.99, "moving_variance_initializer": {"config": {}, "class_name": "Ones"}, "center": true, "gamma_constraint": null}, "inbound_nodes": [[["11_conv_block", 0, 0, {}]]], "class_name": "BatchNormalization"}, {"name": "11_relu", "config": {"name": "11_relu", "trainable": true, "activation": "relu"}, "inbound_nodes": [[["11_batch_norm", 0, 0, {}]]], "class_name": "Activation"}, {"name": "value_head_conv_block", "config": {"activation": "linear", "name": "value_head_conv_block", "bias_regularizer": null, "bias_constraint": null, "kernel_regularizer": null, "padding": "same", "kernel_initializer": {"config": {"scale": 1.0, "distribution": "uniform", "mode": "fan_avg", "seed": null}, "class_name": "VarianceScaling"}, "dilation_rate": [1, 1], "kernel_constraint": null, "use_bias": true, "kernel_size": [1, 1], "trainable": true, "activity_regularizer": null, "data_format": "channels_last", "strides": [1, 1], "filters": 1, "bias_initializer": {"config": {}, "class_name": "Zeros"}}, "inbound_nodes": [[["11_relu", 0, 0, {}]]], "class_name": "Conv2D"}, {"name": "policy_head_conv_block", "config": {"activation": "linear", "name": "policy_head_conv_block", "bias_regularizer": null, "bias_constraint": null, "kernel_regularizer": null, "padding": "same", "kernel_initializer": {"config": {"scale": 1.0, "distribution": "uniform", "mode": "fan_avg", "seed": null}, "class_name": "VarianceScaling"}, "dilation_rate": [1, 1], "kernel_constraint": null, "use_bias": true, "kernel_size": [3, 3], "trainable": true, "activity_regularizer": null, "data_format": "channels_last", "strides": [1, 1], "filters": 2, "bias_initializer": {"config": {}, "class_name": "Zeros"}}, "inbound_nodes": [[["11_relu", 0, 0, {}]]], "class_name": "Conv2D"}, {"name": "value_head_batch_norm", "config": {"name": "value_head_batch_norm", "beta_regularizer": null, "axis": -1, "scale": true, "moving_mean_initializer": {"config": {}, "class_name": "Zeros"}, "epsilon": 0.001, "beta_constraint": null, "gamma_initializer": {"config": {}, "class_name": "Ones"}, "beta_initializer": {"config": {}, "class_name": "Zeros"}, "trainable": true, "gamma_regularizer": null, "momentum": 0.99, "moving_variance_initializer": {"config": {}, "class_name": "Ones"}, "center": true, "gamma_constraint": null}, "inbound_nodes": [[["value_head_conv_block", 0, 0, {}]]], "class_name": "BatchNormalization"}, {"name": "policy_head_batch_norm", "config": {"name": "policy_head_batch_norm", "beta_regularizer": null, "axis": -1, "scale": true, "moving_mean_initializer": {"config": {}, "class_name": "Zeros"}, "epsilon": 0.001, "beta_constraint": null, "gamma_initializer": {"config": {}, "class_name": "Ones"}, "beta_initializer": {"config": {}, "class_name": "Zeros"}, "trainable": true, "gamma_regularizer": null, "momentum": 0.99, "moving_variance_initializer": {"config": {}, "class_name": "Ones"}, "center": true, "gamma_constraint": null}, "inbound_nodes": [[["policy_head_conv_block", 0, 0, {}]]], "class_name": "BatchNormalization"}, {"name": "value_head_relu", "config": {"name": "value_head_relu", "trainable": true, "activation": "relu"}, "inbound_nodes": [[["value_head_batch_norm", 0, 0, {}]]], "class_name": "Activation"}, {"name": "policy_head_relu", "config": {"name": "policy_head_relu", "trainable": true, "activation": "relu"}, "inbound_nodes": [[["policy_head_batch_norm", 0, 0, {}]]], "class_name": "Activation"}, {"name": "flatten_6", "config": {"name": "flatten_6", "trainable": true, "data_format": "channels_last"}, "inbound_nodes": [[["value_head_relu", 0, 0, {}]]], "class_name": "Flatten"}, {"name": "flatten_5", "config": {"name": "flatten_5", "trainable": true, "data_format": "channels_last"}, "inbound_nodes": [[["policy_head_relu", 0, 0, {}]]], "class_name": "Flatten"}, {"name": "value_head_dense", "config": {"name": "value_head_dense", "bias_regularizer": null, "kernel_initializer": {"config": {"scale": 1.0, "distribution": "uniform", "mode": "fan_avg", "seed": null}, "class_name": "VarianceScaling"}, "kernel_regularizer": null, "activity_regularizer": null, "kernel_constraint": null, "use_bias": true, "units": 256, "bias_constraint": null, "activation": "relu", "bias_initializer": {"config": {}, "class_name": "Zeros"}, "trainable": true}, "inbound_nodes": [[["flatten_6", 0, 0, {}]]], "class_name": "Dense"}, {"name": "policy_head_dense", "config": {"name": "policy_head_dense", "bias_regularizer": null, "kernel_initializer": {"config": {"scale": 1.0, "distribution": "uniform", "mode": "fan_avg", "seed": null}, "class_name": "VarianceScaling"}, "kernel_regularizer": null, "activity_regularizer": null, "kernel_constraint": null, "use_bias": true, "units": 362, "bias_constraint": null, "activation": "linear", "bias_initializer": {"config": {}, "class_name": "Zeros"}, "trainable": true}, "inbound_nodes": [[["flatten_5", 0, 0, {}]]], "class_name": "Dense"}, {"name": "value_head_output", "config": {"name": "value_head_output", "bias_regularizer": null, "kernel_initializer": {"config": {"scale": 1.0, "distribution": "uniform", "mode": "fan_avg", "seed": null}, "class_name": "VarianceScaling"}, "kernel_regularizer": null, "activity_regularizer": null, "kernel_constraint": null, "use_bias": true, "units": 1, "bias_constraint": null, "activation": "tanh", "bias_initializer": {"config": {}, "class_name": "Zeros"}, "trainable": true}, "inbound_nodes": [[["value_head_dense", 0, 0, {}]]], "class_name": "Dense"}], "name": "model_4", "input_layers": [["input_4", 0, 0]], "output_layers": [["policy_head_dense", 0, 0], ["value_head_output", 0, 0]]}, "backend": "tensorflow", "class_name": "Model"}