{"backend": "tensorflow", "class_name": "Model", "keras_version": "2.2.0", "config": {"output_layers": [["policy_head_dense", 0, 0], ["value_head_output", 0, 0]], "name": "model_1", "input_layers": [["input_1", 0, 0]], "layers": [{"class_name": "InputLayer", "name": "input_1", "inbound_nodes": [], "config": {"sparse": false, "dtype": "float32", "batch_input_shape": [null, 10, 19, 19], "name": "input_1"}}, {"class_name": "Conv2D", "name": "init_conv_block", "inbound_nodes": [[["input_1", 0, 0, {}]]], "config": {"dilation_rate": [1, 1], "strides": [1, 1], "filters": 256, "use_bias": true, "kernel_constraint": null, "activity_regularizer": null, "data_format": "channels_last", "kernel_size": [3, 3], "bias_initializer": {"class_name": "Zeros", "config": {}}, "bias_constraint": null, "bias_regularizer": null, "activation": "linear", "kernel_initializer": {"class_name": "VarianceScaling", "config": {"seed": null, "mode": "fan_in", "scale": 2.0, "distribution": "normal"}}, "name": "init_conv_block", "padding": "same", "kernel_regularizer": null, "trainable": true}}, {"class_name": "BatchNormalization", "name": "init_batch_norm", "inbound_nodes": [[["init_conv_block", 0, 0, {}]]], "config": {"beta_initializer": {"class_name": "Zeros", "config": {}}, "moving_variance_initializer": {"class_name": "Ones", "config": {}}, "scale": true, "gamma_regularizer": null, "beta_regularizer": null, "gamma_constraint": null, "gamma_initializer": {"class_name": "Ones", "config": {}}, "axis": 1, "moving_mean_initializer": {"class_name": "Zeros", "config": {}}, "name": "init_batch_norm", "epsilon": 0.001, "momentum": 0.99, "beta_constraint": null, "trainable": true, "center": true}}, {"class_name": "Activation", "name": "init_relu", "inbound_nodes": [[["init_batch_norm", 0, 0, {}]]], "config": {"activation": "relu", "name": "init_relu", "trainable": true}}, {"class_name": "Conv2D", "name": "residual_1_0_conv_block", "inbound_nodes": [[["init_relu", 0, 0, {}]]], "config": {"dilation_rate": [1, 1], "strides": [1, 1], "filters": 256, "use_bias": true, "kernel_constraint": null, "activity_regularizer": null, "data_format": "channels_last", "kernel_size": [3, 3], "bias_initializer": {"class_name": "Zeros", "config": {}}, "bias_constraint": null, "bias_regularizer": null, "activation": "linear", "kernel_initializer": {"class_name": "VarianceScaling", "config": {"seed": null, "mode": "fan_in", "scale": 2.0, "distribution": "normal"}}, "name": "residual_1_0_conv_block", "padding": "same", "kernel_regularizer": null, "trainable": true}}, {"class_name": "BatchNormalization", "name": "residual_1_0_batch_norm", "inbound_nodes": [[["residual_1_0_conv_block", 0, 0, {}]]], "config": {"beta_initializer": {"class_name": "Zeros", "config": {}}, "moving_variance_initializer": {"class_name": "Ones", "config": {}}, "scale": true, "gamma_regularizer": null, "beta_regularizer": null, "gamma_constraint": null, "gamma_initializer": {"class_name": "Ones", "config": {}}, "axis": 1, "moving_mean_initializer": {"class_name": "Zeros", "config": {}}, "name": "residual_1_0_batch_norm", "epsilon": 0.001, "momentum": 0.99, "beta_constraint": null, "trainable": true, "center": true}}, {"class_name": "Activation", "name": "residual_1_0_relu", "inbound_nodes": [[["residual_1_0_batch_norm", 0, 0, {}]]], "config": {"activation": "relu", "name": "residual_1_0_relu", "trainable": true}}, {"class_name": "Conv2D", "name": "residual_2_0_conv_block", "inbound_nodes": [[["residual_1_0_relu", 0, 0, {}]]], "config": {"dilation_rate": [1, 1], "strides": [1, 1], "filters": 256, "use_bias": true, "kernel_constraint": null, "activity_regularizer": null, "data_format": "channels_last", "kernel_size": [3, 3], "bias_initializer": {"class_name": "Zeros", "config": {}}, "bias_constraint": null, "bias_regularizer": null, "activation": "linear", "kernel_initializer": {"class_name": "VarianceScaling", "config": {"seed": null, "mode": "fan_in", "scale": 2.0, "distribution": "normal"}}, "name": "residual_2_0_conv_block", "padding": "same", "kernel_regularizer": null, "trainable": true}}, {"class_name": "BatchNormalization", "name": "residual_2_0_batch_norm", "inbound_nodes": [[["residual_2_0_conv_block", 0, 0, {}]]], "config": {"beta_initializer": {"class_name": "Zeros", "config": {}}, "moving_variance_initializer": {"class_name": "Ones", "config": {}}, "scale": true, "gamma_regularizer": null, "beta_regularizer": null, "gamma_constraint": null, "gamma_initializer": {"class_name": "Ones", "config": {}}, "axis": 1, "moving_mean_initializer": {"class_name": "Zeros", "config": {}}, "name": "residual_2_0_batch_norm", "epsilon": 0.001, "momentum": 0.99, "beta_constraint": null, "trainable": true, "center": true}}, {"class_name": "Add", "name": "add_0", "inbound_nodes": [[["init_relu", 0, 0, {}], ["residual_2_0_batch_norm", 0, 0, {}]]], "config": {"name": "add_0", "trainable": true}}, {"class_name": "Activation", "name": "0_relu", "inbound_nodes": [[["add_0", 0, 0, {}]]], "config": {"activation": "relu", "name": "0_relu", "trainable": true}}, {"class_name": "Conv2D", "name": "residual_1_1_conv_block", "inbound_nodes": [[["0_relu", 0, 0, {}]]], "config": {"dilation_rate": [1, 1], "strides": [1, 1], "filters": 256, "use_bias": true, "kernel_constraint": null, "activity_regularizer": null, "data_format": "channels_last", "kernel_size": [3, 3], "bias_initializer": {"class_name": "Zeros", "config": {}}, "bias_constraint": null, "bias_regularizer": null, "activation": "linear", "kernel_initializer": {"class_name": "VarianceScaling", "config": {"seed": null, "mode": "fan_in", "scale": 2.0, "distribution": "normal"}}, "name": "residual_1_1_conv_block", "padding": "same", "kernel_regularizer": null, "trainable": true}}, {"class_name": "BatchNormalization", "name": "residual_1_1_batch_norm", "inbound_nodes": [[["residual_1_1_conv_block", 0, 0, {}]]], "config": {"beta_initializer": {"class_name": "Zeros", "config": {}}, "moving_variance_initializer": {"class_name": "Ones", "config": {}}, "scale": true, "gamma_regularizer": null, "beta_regularizer": null, "gamma_constraint": null, "gamma_initializer": {"class_name": "Ones", "config": {}}, "axis": 1, "moving_mean_initializer": {"class_name": "Zeros", "config": {}}, "name": "residual_1_1_batch_norm", "epsilon": 0.001, "momentum": 0.99, "beta_constraint": null, "trainable": true, "center": true}}, {"class_name": "Activation", "name": "residual_1_1_relu", "inbound_nodes": [[["residual_1_1_batch_norm", 0, 0, {}]]], "config": {"activation": "relu", "name": "residual_1_1_relu", "trainable": true}}, {"class_name": "Conv2D", "name": "residual_2_1_conv_block", "inbound_nodes": [[["residual_1_1_relu", 0, 0, {}]]], "config": {"dilation_rate": [1, 1], "strides": [1, 1], "filters": 256, "use_bias": true, "kernel_constraint": null, "activity_regularizer": null, "data_format": "channels_last", "kernel_size": [3, 3], "bias_initializer": {"class_name": "Zeros", "config": {}}, "bias_constraint": null, "bias_regularizer": null, "activation": "linear", "kernel_initializer": {"class_name": "VarianceScaling", "config": {"seed": null, "mode": "fan_in", "scale": 2.0, "distribution": "normal"}}, "name": "residual_2_1_conv_block", "padding": "same", "kernel_regularizer": null, "trainable": true}}, {"class_name": "BatchNormalization", "name": "residual_2_1_batch_norm", "inbound_nodes": [[["residual_2_1_conv_block", 0, 0, {}]]], "config": {"beta_initializer": {"class_name": "Zeros", "config": {}}, "moving_variance_initializer": {"class_name": "Ones", "config": {}}, "scale": true, "gamma_regularizer": null, "beta_regularizer": null, "gamma_constraint": null, "gamma_initializer": {"class_name": "Ones", "config": {}}, "axis": 1, "moving_mean_initializer": {"class_name": "Zeros", "config": {}}, "name": "residual_2_1_batch_norm", "epsilon": 0.001, "momentum": 0.99, "beta_constraint": null, "trainable": true, "center": true}}, {"class_name": "Add", "name": "add_1", "inbound_nodes": [[["0_relu", 0, 0, {}], ["residual_2_1_batch_norm", 0, 0, {}]]], "config": {"name": "add_1", "trainable": true}}, {"class_name": "Activation", "name": "1_relu", "inbound_nodes": [[["add_1", 0, 0, {}]]], "config": {"activation": "relu", "name": "1_relu", "trainable": true}}, {"class_name": "Conv2D", "name": "residual_1_2_conv_block", "inbound_nodes": [[["1_relu", 0, 0, {}]]], "config": {"dilation_rate": [1, 1], "strides": [1, 1], "filters": 256, "use_bias": true, "kernel_constraint": null, "activity_regularizer": null, "data_format": "channels_last", "kernel_size": [3, 3], "bias_initializer": {"class_name": "Zeros", "config": {}}, "bias_constraint": null, "bias_regularizer": null, "activation": "linear", "kernel_initializer": {"class_name": "VarianceScaling", "config": {"seed": null, "mode": "fan_in", "scale": 2.0, "distribution": "normal"}}, "name": "residual_1_2_conv_block", "padding": "same", "kernel_regularizer": null, "trainable": true}}, {"class_name": "BatchNormalization", "name": "residual_1_2_batch_norm", "inbound_nodes": [[["residual_1_2_conv_block", 0, 0, {}]]], "config": {"beta_initializer": {"class_name": "Zeros", "config": {}}, "moving_variance_initializer": {"class_name": "Ones", "config": {}}, "scale": true, "gamma_regularizer": null, "beta_regularizer": null, "gamma_constraint": null, "gamma_initializer": {"class_name": "Ones", "config": {}}, "axis": 1, "moving_mean_initializer": {"class_name": "Zeros", "config": {}}, "name": "residual_1_2_batch_norm", "epsilon": 0.001, "momentum": 0.99, "beta_constraint": null, "trainable": true, "center": true}}, {"class_name": "Activation", "name": "residual_1_2_relu", "inbound_nodes": [[["residual_1_2_batch_norm", 0, 0, {}]]], "config": {"activation": "relu", "name": "residual_1_2_relu", "trainable": true}}, {"class_name": "Conv2D", "name": "residual_2_2_conv_block", "inbound_nodes": [[["residual_1_2_relu", 0, 0, {}]]], "config": {"dilation_rate": [1, 1], "strides": [1, 1], "filters": 256, "use_bias": true, "kernel_constraint": null, "activity_regularizer": null, "data_format": "channels_last", "kernel_size": [3, 3], "bias_initializer": {"class_name": "Zeros", "config": {}}, "bias_constraint": null, "bias_regularizer": null, "activation": "linear", "kernel_initializer": {"class_name": "VarianceScaling", "config": {"seed": null, "mode": "fan_in", "scale": 2.0, "distribution": "normal"}}, "name": "residual_2_2_conv_block", "padding": "same", "kernel_regularizer": null, "trainable": true}}, {"class_name": "BatchNormalization", "name": "residual_2_2_batch_norm", "inbound_nodes": [[["residual_2_2_conv_block", 0, 0, {}]]], "config": {"beta_initializer": {"class_name": "Zeros", "config": {}}, "moving_variance_initializer": {"class_name": "Ones", "config": {}}, "scale": true, "gamma_regularizer": null, "beta_regularizer": null, "gamma_constraint": null, "gamma_initializer": {"class_name": "Ones", "config": {}}, "axis": 1, "moving_mean_initializer": {"class_name": "Zeros", "config": {}}, "name": "residual_2_2_batch_norm", "epsilon": 0.001, "momentum": 0.99, "beta_constraint": null, "trainable": true, "center": true}}, {"class_name": "Add", "name": "add_2", "inbound_nodes": [[["1_relu", 0, 0, {}], ["residual_2_2_batch_norm", 0, 0, {}]]], "config": {"name": "add_2", "trainable": true}}, {"class_name": "Activation", "name": "2_relu", "inbound_nodes": [[["add_2", 0, 0, {}]]], "config": {"activation": "relu", "name": "2_relu", "trainable": true}}, {"class_name": "Conv2D", "name": "residual_1_3_conv_block", "inbound_nodes": [[["2_relu", 0, 0, {}]]], "config": {"dilation_rate": [1, 1], "strides": [1, 1], "filters": 256, "use_bias": true, "kernel_constraint": null, "activity_regularizer": null, "data_format": "channels_last", "kernel_size": [3, 3], "bias_initializer": {"class_name": "Zeros", "config": {}}, "bias_constraint": null, "bias_regularizer": null, "activation": "linear", "kernel_initializer": {"class_name": "VarianceScaling", "config": {"seed": null, "mode": "fan_in", "scale": 2.0, "distribution": "normal"}}, "name": "residual_1_3_conv_block", "padding": "same", "kernel_regularizer": null, "trainable": true}}, {"class_name": "BatchNormalization", "name": "residual_1_3_batch_norm", "inbound_nodes": [[["residual_1_3_conv_block", 0, 0, {}]]], "config": {"beta_initializer": {"class_name": "Zeros", "config": {}}, "moving_variance_initializer": {"class_name": "Ones", "config": {}}, "scale": true, "gamma_regularizer": null, "beta_regularizer": null, "gamma_constraint": null, "gamma_initializer": {"class_name": "Ones", "config": {}}, "axis": 1, "moving_mean_initializer": {"class_name": "Zeros", "config": {}}, "name": "residual_1_3_batch_norm", "epsilon": 0.001, "momentum": 0.99, "beta_constraint": null, "trainable": true, "center": true}}, {"class_name": "Activation", "name": "residual_1_3_relu", "inbound_nodes": [[["residual_1_3_batch_norm", 0, 0, {}]]], "config": {"activation": "relu", "name": "residual_1_3_relu", "trainable": true}}, {"class_name": "Conv2D", "name": "residual_2_3_conv_block", "inbound_nodes": [[["residual_1_3_relu", 0, 0, {}]]], "config": {"dilation_rate": [1, 1], "strides": [1, 1], "filters": 256, "use_bias": true, "kernel_constraint": null, "activity_regularizer": null, "data_format": "channels_last", "kernel_size": [3, 3], "bias_initializer": {"class_name": "Zeros", "config": {}}, "bias_constraint": null, "bias_regularizer": null, "activation": "linear", "kernel_initializer": {"class_name": "VarianceScaling", "config": {"seed": null, "mode": "fan_in", "scale": 2.0, "distribution": "normal"}}, "name": "residual_2_3_conv_block", "padding": "same", "kernel_regularizer": null, "trainable": true}}, {"class_name": "BatchNormalization", "name": "residual_2_3_batch_norm", "inbound_nodes": [[["residual_2_3_conv_block", 0, 0, {}]]], "config": {"beta_initializer": {"class_name": "Zeros", "config": {}}, "moving_variance_initializer": {"class_name": "Ones", "config": {}}, "scale": true, "gamma_regularizer": null, "beta_regularizer": null, "gamma_constraint": null, "gamma_initializer": {"class_name": "Ones", "config": {}}, "axis": 1, "moving_mean_initializer": {"class_name": "Zeros", "config": {}}, "name": "residual_2_3_batch_norm", "epsilon": 0.001, "momentum": 0.99, "beta_constraint": null, "trainable": true, "center": true}}, {"class_name": "Add", "name": "add_3", "inbound_nodes": [[["2_relu", 0, 0, {}], ["residual_2_3_batch_norm", 0, 0, {}]]], "config": {"name": "add_3", "trainable": true}}, {"class_name": "Activation", "name": "3_relu", "inbound_nodes": [[["add_3", 0, 0, {}]]], "config": {"activation": "relu", "name": "3_relu", "trainable": true}}, {"class_name": "Conv2D", "name": "residual_1_4_conv_block", "inbound_nodes": [[["3_relu", 0, 0, {}]]], "config": {"dilation_rate": [1, 1], "strides": [1, 1], "filters": 256, "use_bias": true, "kernel_constraint": null, "activity_regularizer": null, "data_format": "channels_last", "kernel_size": [3, 3], "bias_initializer": {"class_name": "Zeros", "config": {}}, "bias_constraint": null, "bias_regularizer": null, "activation": "linear", "kernel_initializer": {"class_name": "VarianceScaling", "config": {"seed": null, "mode": "fan_in", "scale": 2.0, "distribution": "normal"}}, "name": "residual_1_4_conv_block", "padding": "same", "kernel_regularizer": null, "trainable": true}}, {"class_name": "BatchNormalization", "name": "residual_1_4_batch_norm", "inbound_nodes": [[["residual_1_4_conv_block", 0, 0, {}]]], "config": {"beta_initializer": {"class_name": "Zeros", "config": {}}, "moving_variance_initializer": {"class_name": "Ones", "config": {}}, "scale": true, "gamma_regularizer": null, "beta_regularizer": null, "gamma_constraint": null, "gamma_initializer": {"class_name": "Ones", "config": {}}, "axis": 1, "moving_mean_initializer": {"class_name": "Zeros", "config": {}}, "name": "residual_1_4_batch_norm", "epsilon": 0.001, "momentum": 0.99, "beta_constraint": null, "trainable": true, "center": true}}, {"class_name": "Activation", "name": "residual_1_4_relu", "inbound_nodes": [[["residual_1_4_batch_norm", 0, 0, {}]]], "config": {"activation": "relu", "name": "residual_1_4_relu", "trainable": true}}, {"class_name": "Conv2D", "name": "residual_2_4_conv_block", "inbound_nodes": [[["residual_1_4_relu", 0, 0, {}]]], "config": {"dilation_rate": [1, 1], "strides": [1, 1], "filters": 256, "use_bias": true, "kernel_constraint": null, "activity_regularizer": null, "data_format": "channels_last", "kernel_size": [3, 3], "bias_initializer": {"class_name": "Zeros", "config": {}}, "bias_constraint": null, "bias_regularizer": null, "activation": "linear", "kernel_initializer": {"class_name": "VarianceScaling", "config": {"seed": null, "mode": "fan_in", "scale": 2.0, "distribution": "normal"}}, "name": "residual_2_4_conv_block", "padding": "same", "kernel_regularizer": null, "trainable": true}}, {"class_name": "BatchNormalization", "name": "residual_2_4_batch_norm", "inbound_nodes": [[["residual_2_4_conv_block", 0, 0, {}]]], "config": {"beta_initializer": {"class_name": "Zeros", "config": {}}, "moving_variance_initializer": {"class_name": "Ones", "config": {}}, "scale": true, "gamma_regularizer": null, "beta_regularizer": null, "gamma_constraint": null, "gamma_initializer": {"class_name": "Ones", "config": {}}, "axis": 1, "moving_mean_initializer": {"class_name": "Zeros", "config": {}}, "name": "residual_2_4_batch_norm", "epsilon": 0.001, "momentum": 0.99, "beta_constraint": null, "trainable": true, "center": true}}, {"class_name": "Add", "name": "add_4", "inbound_nodes": [[["3_relu", 0, 0, {}], ["residual_2_4_batch_norm", 0, 0, {}]]], "config": {"name": "add_4", "trainable": true}}, {"class_name": "Activation", "name": "4_relu", "inbound_nodes": [[["add_4", 0, 0, {}]]], "config": {"activation": "relu", "name": "4_relu", "trainable": true}}, {"class_name": "Conv2D", "name": "residual_1_5_conv_block", "inbound_nodes": [[["4_relu", 0, 0, {}]]], "config": {"dilation_rate": [1, 1], "strides": [1, 1], "filters": 256, "use_bias": true, "kernel_constraint": null, "activity_regularizer": null, "data_format": "channels_last", "kernel_size": [3, 3], "bias_initializer": {"class_name": "Zeros", "config": {}}, "bias_constraint": null, "bias_regularizer": null, "activation": "linear", "kernel_initializer": {"class_name": "VarianceScaling", "config": {"seed": null, "mode": "fan_in", "scale": 2.0, "distribution": "normal"}}, "name": "residual_1_5_conv_block", "padding": "same", "kernel_regularizer": null, "trainable": true}}, {"class_name": "BatchNormalization", "name": "residual_1_5_batch_norm", "inbound_nodes": [[["residual_1_5_conv_block", 0, 0, {}]]], "config": {"beta_initializer": {"class_name": "Zeros", "config": {}}, "moving_variance_initializer": {"class_name": "Ones", "config": {}}, "scale": true, "gamma_regularizer": null, "beta_regularizer": null, "gamma_constraint": null, "gamma_initializer": {"class_name": "Ones", "config": {}}, "axis": 1, "moving_mean_initializer": {"class_name": "Zeros", "config": {}}, "name": "residual_1_5_batch_norm", "epsilon": 0.001, "momentum": 0.99, "beta_constraint": null, "trainable": true, "center": true}}, {"class_name": "Activation", "name": "residual_1_5_relu", "inbound_nodes": [[["residual_1_5_batch_norm", 0, 0, {}]]], "config": {"activation": "relu", "name": "residual_1_5_relu", "trainable": true}}, {"class_name": "Conv2D", "name": "residual_2_5_conv_block", "inbound_nodes": [[["residual_1_5_relu", 0, 0, {}]]], "config": {"dilation_rate": [1, 1], "strides": [1, 1], "filters": 256, "use_bias": true, "kernel_constraint": null, "activity_regularizer": null, "data_format": "channels_last", "kernel_size": [3, 3], "bias_initializer": {"class_name": "Zeros", "config": {}}, "bias_constraint": null, "bias_regularizer": null, "activation": "linear", "kernel_initializer": {"class_name": "VarianceScaling", "config": {"seed": null, "mode": "fan_in", "scale": 2.0, "distribution": "normal"}}, "name": "residual_2_5_conv_block", "padding": "same", "kernel_regularizer": null, "trainable": true}}, {"class_name": "BatchNormalization", "name": "residual_2_5_batch_norm", "inbound_nodes": [[["residual_2_5_conv_block", 0, 0, {}]]], "config": {"beta_initializer": {"class_name": "Zeros", "config": {}}, "moving_variance_initializer": {"class_name": "Ones", "config": {}}, "scale": true, "gamma_regularizer": null, "beta_regularizer": null, "gamma_constraint": null, "gamma_initializer": {"class_name": "Ones", "config": {}}, "axis": 1, "moving_mean_initializer": {"class_name": "Zeros", "config": {}}, "name": "residual_2_5_batch_norm", "epsilon": 0.001, "momentum": 0.99, "beta_constraint": null, "trainable": true, "center": true}}, {"class_name": "Add", "name": "add_5", "inbound_nodes": [[["4_relu", 0, 0, {}], ["residual_2_5_batch_norm", 0, 0, {}]]], "config": {"name": "add_5", "trainable": true}}, {"class_name": "Activation", "name": "5_relu", "inbound_nodes": [[["add_5", 0, 0, {}]]], "config": {"activation": "relu", "name": "5_relu", "trainable": true}}, {"class_name": "Conv2D", "name": "residual_1_6_conv_block", "inbound_nodes": [[["5_relu", 0, 0, {}]]], "config": {"dilation_rate": [1, 1], "strides": [1, 1], "filters": 256, "use_bias": true, "kernel_constraint": null, "activity_regularizer": null, "data_format": "channels_last", "kernel_size": [3, 3], "bias_initializer": {"class_name": "Zeros", "config": {}}, "bias_constraint": null, "bias_regularizer": null, "activation": "linear", "kernel_initializer": {"class_name": "VarianceScaling", "config": {"seed": null, "mode": "fan_in", "scale": 2.0, "distribution": "normal"}}, "name": "residual_1_6_conv_block", "padding": "same", "kernel_regularizer": null, "trainable": true}}, {"class_name": "BatchNormalization", "name": "residual_1_6_batch_norm", "inbound_nodes": [[["residual_1_6_conv_block", 0, 0, {}]]], "config": {"beta_initializer": {"class_name": "Zeros", "config": {}}, "moving_variance_initializer": {"class_name": "Ones", "config": {}}, "scale": true, "gamma_regularizer": null, "beta_regularizer": null, "gamma_constraint": null, "gamma_initializer": {"class_name": "Ones", "config": {}}, "axis": 1, "moving_mean_initializer": {"class_name": "Zeros", "config": {}}, "name": "residual_1_6_batch_norm", "epsilon": 0.001, "momentum": 0.99, "beta_constraint": null, "trainable": true, "center": true}}, {"class_name": "Activation", "name": "residual_1_6_relu", "inbound_nodes": [[["residual_1_6_batch_norm", 0, 0, {}]]], "config": {"activation": "relu", "name": "residual_1_6_relu", "trainable": true}}, {"class_name": "Conv2D", "name": "residual_2_6_conv_block", "inbound_nodes": [[["residual_1_6_relu", 0, 0, {}]]], "config": {"dilation_rate": [1, 1], "strides": [1, 1], "filters": 256, "use_bias": true, "kernel_constraint": null, "activity_regularizer": null, "data_format": "channels_last", "kernel_size": [3, 3], "bias_initializer": {"class_name": "Zeros", "config": {}}, "bias_constraint": null, "bias_regularizer": null, "activation": "linear", "kernel_initializer": {"class_name": "VarianceScaling", "config": {"seed": null, "mode": "fan_in", "scale": 2.0, "distribution": "normal"}}, "name": "residual_2_6_conv_block", "padding": "same", "kernel_regularizer": null, "trainable": true}}, {"class_name": "BatchNormalization", "name": "residual_2_6_batch_norm", "inbound_nodes": [[["residual_2_6_conv_block", 0, 0, {}]]], "config": {"beta_initializer": {"class_name": "Zeros", "config": {}}, "moving_variance_initializer": {"class_name": "Ones", "config": {}}, "scale": true, "gamma_regularizer": null, "beta_regularizer": null, "gamma_constraint": null, "gamma_initializer": {"class_name": "Ones", "config": {}}, "axis": 1, "moving_mean_initializer": {"class_name": "Zeros", "config": {}}, "name": "residual_2_6_batch_norm", "epsilon": 0.001, "momentum": 0.99, "beta_constraint": null, "trainable": true, "center": true}}, {"class_name": "Add", "name": "add_6", "inbound_nodes": [[["5_relu", 0, 0, {}], ["residual_2_6_batch_norm", 0, 0, {}]]], "config": {"name": "add_6", "trainable": true}}, {"class_name": "Activation", "name": "6_relu", "inbound_nodes": [[["add_6", 0, 0, {}]]], "config": {"activation": "relu", "name": "6_relu", "trainable": true}}, {"class_name": "Conv2D", "name": "residual_1_7_conv_block", "inbound_nodes": [[["6_relu", 0, 0, {}]]], "config": {"dilation_rate": [1, 1], "strides": [1, 1], "filters": 256, "use_bias": true, "kernel_constraint": null, "activity_regularizer": null, "data_format": "channels_last", "kernel_size": [3, 3], "bias_initializer": {"class_name": "Zeros", "config": {}}, "bias_constraint": null, "bias_regularizer": null, "activation": "linear", "kernel_initializer": {"class_name": "VarianceScaling", "config": {"seed": null, "mode": "fan_in", "scale": 2.0, "distribution": "normal"}}, "name": "residual_1_7_conv_block", "padding": "same", "kernel_regularizer": null, "trainable": true}}, {"class_name": "BatchNormalization", "name": "residual_1_7_batch_norm", "inbound_nodes": [[["residual_1_7_conv_block", 0, 0, {}]]], "config": {"beta_initializer": {"class_name": "Zeros", "config": {}}, "moving_variance_initializer": {"class_name": "Ones", "config": {}}, "scale": true, "gamma_regularizer": null, "beta_regularizer": null, "gamma_constraint": null, "gamma_initializer": {"class_name": "Ones", "config": {}}, "axis": 1, "moving_mean_initializer": {"class_name": "Zeros", "config": {}}, "name": "residual_1_7_batch_norm", "epsilon": 0.001, "momentum": 0.99, "beta_constraint": null, "trainable": true, "center": true}}, {"class_name": "Activation", "name": "residual_1_7_relu", "inbound_nodes": [[["residual_1_7_batch_norm", 0, 0, {}]]], "config": {"activation": "relu", "name": "residual_1_7_relu", "trainable": true}}, {"class_name": "Conv2D", "name": "residual_2_7_conv_block", "inbound_nodes": [[["residual_1_7_relu", 0, 0, {}]]], "config": {"dilation_rate": [1, 1], "strides": [1, 1], "filters": 256, "use_bias": true, "kernel_constraint": null, "activity_regularizer": null, "data_format": "channels_last", "kernel_size": [3, 3], "bias_initializer": {"class_name": "Zeros", "config": {}}, "bias_constraint": null, "bias_regularizer": null, "activation": "linear", "kernel_initializer": {"class_name": "VarianceScaling", "config": {"seed": null, "mode": "fan_in", "scale": 2.0, "distribution": "normal"}}, "name": "residual_2_7_conv_block", "padding": "same", "kernel_regularizer": null, "trainable": true}}, {"class_name": "BatchNormalization", "name": "residual_2_7_batch_norm", "inbound_nodes": [[["residual_2_7_conv_block", 0, 0, {}]]], "config": {"beta_initializer": {"class_name": "Zeros", "config": {}}, "moving_variance_initializer": {"class_name": "Ones", "config": {}}, "scale": true, "gamma_regularizer": null, "beta_regularizer": null, "gamma_constraint": null, "gamma_initializer": {"class_name": "Ones", "config": {}}, "axis": 1, "moving_mean_initializer": {"class_name": "Zeros", "config": {}}, "name": "residual_2_7_batch_norm", "epsilon": 0.001, "momentum": 0.99, "beta_constraint": null, "trainable": true, "center": true}}, {"class_name": "Add", "name": "add_7", "inbound_nodes": [[["6_relu", 0, 0, {}], ["residual_2_7_batch_norm", 0, 0, {}]]], "config": {"name": "add_7", "trainable": true}}, {"class_name": "Activation", "name": "7_relu", "inbound_nodes": [[["add_7", 0, 0, {}]]], "config": {"activation": "relu", "name": "7_relu", "trainable": true}}, {"class_name": "Conv2D", "name": "residual_1_8_conv_block", "inbound_nodes": [[["7_relu", 0, 0, {}]]], "config": {"dilation_rate": [1, 1], "strides": [1, 1], "filters": 256, "use_bias": true, "kernel_constraint": null, "activity_regularizer": null, "data_format": "channels_last", "kernel_size": [3, 3], "bias_initializer": {"class_name": "Zeros", "config": {}}, "bias_constraint": null, "bias_regularizer": null, "activation": "linear", "kernel_initializer": {"class_name": "VarianceScaling", "config": {"seed": null, "mode": "fan_in", "scale": 2.0, "distribution": "normal"}}, "name": "residual_1_8_conv_block", "padding": "same", "kernel_regularizer": null, "trainable": true}}, {"class_name": "BatchNormalization", "name": "residual_1_8_batch_norm", "inbound_nodes": [[["residual_1_8_conv_block", 0, 0, {}]]], "config": {"beta_initializer": {"class_name": "Zeros", "config": {}}, "moving_variance_initializer": {"class_name": "Ones", "config": {}}, "scale": true, "gamma_regularizer": null, "beta_regularizer": null, "gamma_constraint": null, "gamma_initializer": {"class_name": "Ones", "config": {}}, "axis": 1, "moving_mean_initializer": {"class_name": "Zeros", "config": {}}, "name": "residual_1_8_batch_norm", "epsilon": 0.001, "momentum": 0.99, "beta_constraint": null, "trainable": true, "center": true}}, {"class_name": "Activation", "name": "residual_1_8_relu", "inbound_nodes": [[["residual_1_8_batch_norm", 0, 0, {}]]], "config": {"activation": "relu", "name": "residual_1_8_relu", "trainable": true}}, {"class_name": "Conv2D", "name": "residual_2_8_conv_block", "inbound_nodes": [[["residual_1_8_relu", 0, 0, {}]]], "config": {"dilation_rate": [1, 1], "strides": [1, 1], "filters": 256, "use_bias": true, "kernel_constraint": null, "activity_regularizer": null, "data_format": "channels_last", "kernel_size": [3, 3], "bias_initializer": {"class_name": "Zeros", "config": {}}, "bias_constraint": null, "bias_regularizer": null, "activation": "linear", "kernel_initializer": {"class_name": "VarianceScaling", "config": {"seed": null, "mode": "fan_in", "scale": 2.0, "distribution": "normal"}}, "name": "residual_2_8_conv_block", "padding": "same", "kernel_regularizer": null, "trainable": true}}, {"class_name": "BatchNormalization", "name": "residual_2_8_batch_norm", "inbound_nodes": [[["residual_2_8_conv_block", 0, 0, {}]]], "config": {"beta_initializer": {"class_name": "Zeros", "config": {}}, "moving_variance_initializer": {"class_name": "Ones", "config": {}}, "scale": true, "gamma_regularizer": null, "beta_regularizer": null, "gamma_constraint": null, "gamma_initializer": {"class_name": "Ones", "config": {}}, "axis": 1, "moving_mean_initializer": {"class_name": "Zeros", "config": {}}, "name": "residual_2_8_batch_norm", "epsilon": 0.001, "momentum": 0.99, "beta_constraint": null, "trainable": true, "center": true}}, {"class_name": "Add", "name": "add_8", "inbound_nodes": [[["7_relu", 0, 0, {}], ["residual_2_8_batch_norm", 0, 0, {}]]], "config": {"name": "add_8", "trainable": true}}, {"class_name": "Activation", "name": "8_relu", "inbound_nodes": [[["add_8", 0, 0, {}]]], "config": {"activation": "relu", "name": "8_relu", "trainable": true}}, {"class_name": "Conv2D", "name": "residual_1_9_conv_block", "inbound_nodes": [[["8_relu", 0, 0, {}]]], "config": {"dilation_rate": [1, 1], "strides": [1, 1], "filters": 256, "use_bias": true, "kernel_constraint": null, "activity_regularizer": null, "data_format": "channels_last", "kernel_size": [3, 3], "bias_initializer": {"class_name": "Zeros", "config": {}}, "bias_constraint": null, "bias_regularizer": null, "activation": "linear", "kernel_initializer": {"class_name": "VarianceScaling", "config": {"seed": null, "mode": "fan_in", "scale": 2.0, "distribution": "normal"}}, "name": "residual_1_9_conv_block", "padding": "same", "kernel_regularizer": null, "trainable": true}}, {"class_name": "BatchNormalization", "name": "residual_1_9_batch_norm", "inbound_nodes": [[["residual_1_9_conv_block", 0, 0, {}]]], "config": {"beta_initializer": {"class_name": "Zeros", "config": {}}, "moving_variance_initializer": {"class_name": "Ones", "config": {}}, "scale": true, "gamma_regularizer": null, "beta_regularizer": null, "gamma_constraint": null, "gamma_initializer": {"class_name": "Ones", "config": {}}, "axis": 1, "moving_mean_initializer": {"class_name": "Zeros", "config": {}}, "name": "residual_1_9_batch_norm", "epsilon": 0.001, "momentum": 0.99, "beta_constraint": null, "trainable": true, "center": true}}, {"class_name": "Activation", "name": "residual_1_9_relu", "inbound_nodes": [[["residual_1_9_batch_norm", 0, 0, {}]]], "config": {"activation": "relu", "name": "residual_1_9_relu", "trainable": true}}, {"class_name": "Conv2D", "name": "residual_2_9_conv_block", "inbound_nodes": [[["residual_1_9_relu", 0, 0, {}]]], "config": {"dilation_rate": [1, 1], "strides": [1, 1], "filters": 256, "use_bias": true, "kernel_constraint": null, "activity_regularizer": null, "data_format": "channels_last", "kernel_size": [3, 3], "bias_initializer": {"class_name": "Zeros", "config": {}}, "bias_constraint": null, "bias_regularizer": null, "activation": "linear", "kernel_initializer": {"class_name": "VarianceScaling", "config": {"seed": null, "mode": "fan_in", "scale": 2.0, "distribution": "normal"}}, "name": "residual_2_9_conv_block", "padding": "same", "kernel_regularizer": null, "trainable": true}}, {"class_name": "BatchNormalization", "name": "residual_2_9_batch_norm", "inbound_nodes": [[["residual_2_9_conv_block", 0, 0, {}]]], "config": {"beta_initializer": {"class_name": "Zeros", "config": {}}, "moving_variance_initializer": {"class_name": "Ones", "config": {}}, "scale": true, "gamma_regularizer": null, "beta_regularizer": null, "gamma_constraint": null, "gamma_initializer": {"class_name": "Ones", "config": {}}, "axis": 1, "moving_mean_initializer": {"class_name": "Zeros", "config": {}}, "name": "residual_2_9_batch_norm", "epsilon": 0.001, "momentum": 0.99, "beta_constraint": null, "trainable": true, "center": true}}, {"class_name": "Add", "name": "add_9", "inbound_nodes": [[["8_relu", 0, 0, {}], ["residual_2_9_batch_norm", 0, 0, {}]]], "config": {"name": "add_9", "trainable": true}}, {"class_name": "Activation", "name": "9_relu", "inbound_nodes": [[["add_9", 0, 0, {}]]], "config": {"activation": "relu", "name": "9_relu", "trainable": true}}, {"class_name": "Conv2D", "name": "residual_1_10_conv_block", "inbound_nodes": [[["9_relu", 0, 0, {}]]], "config": {"dilation_rate": [1, 1], "strides": [1, 1], "filters": 256, "use_bias": true, "kernel_constraint": null, "activity_regularizer": null, "data_format": "channels_last", "kernel_size": [3, 3], "bias_initializer": {"class_name": "Zeros", "config": {}}, "bias_constraint": null, "bias_regularizer": null, "activation": "linear", "kernel_initializer": {"class_name": "VarianceScaling", "config": {"seed": null, "mode": "fan_in", "scale": 2.0, "distribution": "normal"}}, "name": "residual_1_10_conv_block", "padding": "same", "kernel_regularizer": null, "trainable": true}}, {"class_name": "BatchNormalization", "name": "residual_1_10_batch_norm", "inbound_nodes": [[["residual_1_10_conv_block", 0, 0, {}]]], "config": {"beta_initializer": {"class_name": "Zeros", "config": {}}, "moving_variance_initializer": {"class_name": "Ones", "config": {}}, "scale": true, "gamma_regularizer": null, "beta_regularizer": null, "gamma_constraint": null, "gamma_initializer": {"class_name": "Ones", "config": {}}, "axis": 1, "moving_mean_initializer": {"class_name": "Zeros", "config": {}}, "name": "residual_1_10_batch_norm", "epsilon": 0.001, "momentum": 0.99, "beta_constraint": null, "trainable": true, "center": true}}, {"class_name": "Activation", "name": "residual_1_10_relu", "inbound_nodes": [[["residual_1_10_batch_norm", 0, 0, {}]]], "config": {"activation": "relu", "name": "residual_1_10_relu", "trainable": true}}, {"class_name": "Conv2D", "name": "residual_2_10_conv_block", "inbound_nodes": [[["residual_1_10_relu", 0, 0, {}]]], "config": {"dilation_rate": [1, 1], "strides": [1, 1], "filters": 256, "use_bias": true, "kernel_constraint": null, "activity_regularizer": null, "data_format": "channels_last", "kernel_size": [3, 3], "bias_initializer": {"class_name": "Zeros", "config": {}}, "bias_constraint": null, "bias_regularizer": null, "activation": "linear", "kernel_initializer": {"class_name": "VarianceScaling", "config": {"seed": null, "mode": "fan_in", "scale": 2.0, "distribution": "normal"}}, "name": "residual_2_10_conv_block", "padding": "same", "kernel_regularizer": null, "trainable": true}}, {"class_name": "BatchNormalization", "name": "residual_2_10_batch_norm", "inbound_nodes": [[["residual_2_10_conv_block", 0, 0, {}]]], "config": {"beta_initializer": {"class_name": "Zeros", "config": {}}, "moving_variance_initializer": {"class_name": "Ones", "config": {}}, "scale": true, "gamma_regularizer": null, "beta_regularizer": null, "gamma_constraint": null, "gamma_initializer": {"class_name": "Ones", "config": {}}, "axis": 1, "moving_mean_initializer": {"class_name": "Zeros", "config": {}}, "name": "residual_2_10_batch_norm", "epsilon": 0.001, "momentum": 0.99, "beta_constraint": null, "trainable": true, "center": true}}, {"class_name": "Add", "name": "add_10", "inbound_nodes": [[["9_relu", 0, 0, {}], ["residual_2_10_batch_norm", 0, 0, {}]]], "config": {"name": "add_10", "trainable": true}}, {"class_name": "Activation", "name": "10_relu", "inbound_nodes": [[["add_10", 0, 0, {}]]], "config": {"activation": "relu", "name": "10_relu", "trainable": true}}, {"class_name": "Conv2D", "name": "residual_1_11_conv_block", "inbound_nodes": [[["10_relu", 0, 0, {}]]], "config": {"dilation_rate": [1, 1], "strides": [1, 1], "filters": 256, "use_bias": true, "kernel_constraint": null, "activity_regularizer": null, "data_format": "channels_last", "kernel_size": [3, 3], "bias_initializer": {"class_name": "Zeros", "config": {}}, "bias_constraint": null, "bias_regularizer": null, "activation": "linear", "kernel_initializer": {"class_name": "VarianceScaling", "config": {"seed": null, "mode": "fan_in", "scale": 2.0, "distribution": "normal"}}, "name": "residual_1_11_conv_block", "padding": "same", "kernel_regularizer": null, "trainable": true}}, {"class_name": "BatchNormalization", "name": "residual_1_11_batch_norm", "inbound_nodes": [[["residual_1_11_conv_block", 0, 0, {}]]], "config": {"beta_initializer": {"class_name": "Zeros", "config": {}}, "moving_variance_initializer": {"class_name": "Ones", "config": {}}, "scale": true, "gamma_regularizer": null, "beta_regularizer": null, "gamma_constraint": null, "gamma_initializer": {"class_name": "Ones", "config": {}}, "axis": 1, "moving_mean_initializer": {"class_name": "Zeros", "config": {}}, "name": "residual_1_11_batch_norm", "epsilon": 0.001, "momentum": 0.99, "beta_constraint": null, "trainable": true, "center": true}}, {"class_name": "Activation", "name": "residual_1_11_relu", "inbound_nodes": [[["residual_1_11_batch_norm", 0, 0, {}]]], "config": {"activation": "relu", "name": "residual_1_11_relu", "trainable": true}}, {"class_name": "Conv2D", "name": "residual_2_11_conv_block", "inbound_nodes": [[["residual_1_11_relu", 0, 0, {}]]], "config": {"dilation_rate": [1, 1], "strides": [1, 1], "filters": 256, "use_bias": true, "kernel_constraint": null, "activity_regularizer": null, "data_format": "channels_last", "kernel_size": [3, 3], "bias_initializer": {"class_name": "Zeros", "config": {}}, "bias_constraint": null, "bias_regularizer": null, "activation": "linear", "kernel_initializer": {"class_name": "VarianceScaling", "config": {"seed": null, "mode": "fan_in", "scale": 2.0, "distribution": "normal"}}, "name": "residual_2_11_conv_block", "padding": "same", "kernel_regularizer": null, "trainable": true}}, {"class_name": "BatchNormalization", "name": "residual_2_11_batch_norm", "inbound_nodes": [[["residual_2_11_conv_block", 0, 0, {}]]], "config": {"beta_initializer": {"class_name": "Zeros", "config": {}}, "moving_variance_initializer": {"class_name": "Ones", "config": {}}, "scale": true, "gamma_regularizer": null, "beta_regularizer": null, "gamma_constraint": null, "gamma_initializer": {"class_name": "Ones", "config": {}}, "axis": 1, "moving_mean_initializer": {"class_name": "Zeros", "config": {}}, "name": "residual_2_11_batch_norm", "epsilon": 0.001, "momentum": 0.99, "beta_constraint": null, "trainable": true, "center": true}}, {"class_name": "Add", "name": "add_11", "inbound_nodes": [[["10_relu", 0, 0, {}], ["residual_2_11_batch_norm", 0, 0, {}]]], "config": {"name": "add_11", "trainable": true}}, {"class_name": "Activation", "name": "11_relu", "inbound_nodes": [[["add_11", 0, 0, {}]]], "config": {"activation": "relu", "name": "11_relu", "trainable": true}}, {"class_name": "Conv2D", "name": "residual_1_12_conv_block", "inbound_nodes": [[["11_relu", 0, 0, {}]]], "config": {"dilation_rate": [1, 1], "strides": [1, 1], "filters": 256, "use_bias": true, "kernel_constraint": null, "activity_regularizer": null, "data_format": "channels_last", "kernel_size": [3, 3], "bias_initializer": {"class_name": "Zeros", "config": {}}, "bias_constraint": null, "bias_regularizer": null, "activation": "linear", "kernel_initializer": {"class_name": "VarianceScaling", "config": {"seed": null, "mode": "fan_in", "scale": 2.0, "distribution": "normal"}}, "name": "residual_1_12_conv_block", "padding": "same", "kernel_regularizer": null, "trainable": true}}, {"class_name": "BatchNormalization", "name": "residual_1_12_batch_norm", "inbound_nodes": [[["residual_1_12_conv_block", 0, 0, {}]]], "config": {"beta_initializer": {"class_name": "Zeros", "config": {}}, "moving_variance_initializer": {"class_name": "Ones", "config": {}}, "scale": true, "gamma_regularizer": null, "beta_regularizer": null, "gamma_constraint": null, "gamma_initializer": {"class_name": "Ones", "config": {}}, "axis": 1, "moving_mean_initializer": {"class_name": "Zeros", "config": {}}, "name": "residual_1_12_batch_norm", "epsilon": 0.001, "momentum": 0.99, "beta_constraint": null, "trainable": true, "center": true}}, {"class_name": "Activation", "name": "residual_1_12_relu", "inbound_nodes": [[["residual_1_12_batch_norm", 0, 0, {}]]], "config": {"activation": "relu", "name": "residual_1_12_relu", "trainable": true}}, {"class_name": "Conv2D", "name": "residual_2_12_conv_block", "inbound_nodes": [[["residual_1_12_relu", 0, 0, {}]]], "config": {"dilation_rate": [1, 1], "strides": [1, 1], "filters": 256, "use_bias": true, "kernel_constraint": null, "activity_regularizer": null, "data_format": "channels_last", "kernel_size": [3, 3], "bias_initializer": {"class_name": "Zeros", "config": {}}, "bias_constraint": null, "bias_regularizer": null, "activation": "linear", "kernel_initializer": {"class_name": "VarianceScaling", "config": {"seed": null, "mode": "fan_in", "scale": 2.0, "distribution": "normal"}}, "name": "residual_2_12_conv_block", "padding": "same", "kernel_regularizer": null, "trainable": true}}, {"class_name": "BatchNormalization", "name": "residual_2_12_batch_norm", "inbound_nodes": [[["residual_2_12_conv_block", 0, 0, {}]]], "config": {"beta_initializer": {"class_name": "Zeros", "config": {}}, "moving_variance_initializer": {"class_name": "Ones", "config": {}}, "scale": true, "gamma_regularizer": null, "beta_regularizer": null, "gamma_constraint": null, "gamma_initializer": {"class_name": "Ones", "config": {}}, "axis": 1, "moving_mean_initializer": {"class_name": "Zeros", "config": {}}, "name": "residual_2_12_batch_norm", "epsilon": 0.001, "momentum": 0.99, "beta_constraint": null, "trainable": true, "center": true}}, {"class_name": "Add", "name": "add_12", "inbound_nodes": [[["11_relu", 0, 0, {}], ["residual_2_12_batch_norm", 0, 0, {}]]], "config": {"name": "add_12", "trainable": true}}, {"class_name": "Activation", "name": "12_relu", "inbound_nodes": [[["add_12", 0, 0, {}]]], "config": {"activation": "relu", "name": "12_relu", "trainable": true}}, {"class_name": "Conv2D", "name": "residual_1_13_conv_block", "inbound_nodes": [[["12_relu", 0, 0, {}]]], "config": {"dilation_rate": [1, 1], "strides": [1, 1], "filters": 256, "use_bias": true, "kernel_constraint": null, "activity_regularizer": null, "data_format": "channels_last", "kernel_size": [3, 3], "bias_initializer": {"class_name": "Zeros", "config": {}}, "bias_constraint": null, "bias_regularizer": null, "activation": "linear", "kernel_initializer": {"class_name": "VarianceScaling", "config": {"seed": null, "mode": "fan_in", "scale": 2.0, "distribution": "normal"}}, "name": "residual_1_13_conv_block", "padding": "same", "kernel_regularizer": null, "trainable": true}}, {"class_name": "BatchNormalization", "name": "residual_1_13_batch_norm", "inbound_nodes": [[["residual_1_13_conv_block", 0, 0, {}]]], "config": {"beta_initializer": {"class_name": "Zeros", "config": {}}, "moving_variance_initializer": {"class_name": "Ones", "config": {}}, "scale": true, "gamma_regularizer": null, "beta_regularizer": null, "gamma_constraint": null, "gamma_initializer": {"class_name": "Ones", "config": {}}, "axis": 1, "moving_mean_initializer": {"class_name": "Zeros", "config": {}}, "name": "residual_1_13_batch_norm", "epsilon": 0.001, "momentum": 0.99, "beta_constraint": null, "trainable": true, "center": true}}, {"class_name": "Activation", "name": "residual_1_13_relu", "inbound_nodes": [[["residual_1_13_batch_norm", 0, 0, {}]]], "config": {"activation": "relu", "name": "residual_1_13_relu", "trainable": true}}, {"class_name": "Conv2D", "name": "residual_2_13_conv_block", "inbound_nodes": [[["residual_1_13_relu", 0, 0, {}]]], "config": {"dilation_rate": [1, 1], "strides": [1, 1], "filters": 256, "use_bias": true, "kernel_constraint": null, "activity_regularizer": null, "data_format": "channels_last", "kernel_size": [3, 3], "bias_initializer": {"class_name": "Zeros", "config": {}}, "bias_constraint": null, "bias_regularizer": null, "activation": "linear", "kernel_initializer": {"class_name": "VarianceScaling", "config": {"seed": null, "mode": "fan_in", "scale": 2.0, "distribution": "normal"}}, "name": "residual_2_13_conv_block", "padding": "same", "kernel_regularizer": null, "trainable": true}}, {"class_name": "BatchNormalization", "name": "residual_2_13_batch_norm", "inbound_nodes": [[["residual_2_13_conv_block", 0, 0, {}]]], "config": {"beta_initializer": {"class_name": "Zeros", "config": {}}, "moving_variance_initializer": {"class_name": "Ones", "config": {}}, "scale": true, "gamma_regularizer": null, "beta_regularizer": null, "gamma_constraint": null, "gamma_initializer": {"class_name": "Ones", "config": {}}, "axis": 1, "moving_mean_initializer": {"class_name": "Zeros", "config": {}}, "name": "residual_2_13_batch_norm", "epsilon": 0.001, "momentum": 0.99, "beta_constraint": null, "trainable": true, "center": true}}, {"class_name": "Add", "name": "add_13", "inbound_nodes": [[["12_relu", 0, 0, {}], ["residual_2_13_batch_norm", 0, 0, {}]]], "config": {"name": "add_13", "trainable": true}}, {"class_name": "Activation", "name": "13_relu", "inbound_nodes": [[["add_13", 0, 0, {}]]], "config": {"activation": "relu", "name": "13_relu", "trainable": true}}, {"class_name": "Conv2D", "name": "residual_1_14_conv_block", "inbound_nodes": [[["13_relu", 0, 0, {}]]], "config": {"dilation_rate": [1, 1], "strides": [1, 1], "filters": 256, "use_bias": true, "kernel_constraint": null, "activity_regularizer": null, "data_format": "channels_last", "kernel_size": [3, 3], "bias_initializer": {"class_name": "Zeros", "config": {}}, "bias_constraint": null, "bias_regularizer": null, "activation": "linear", "kernel_initializer": {"class_name": "VarianceScaling", "config": {"seed": null, "mode": "fan_in", "scale": 2.0, "distribution": "normal"}}, "name": "residual_1_14_conv_block", "padding": "same", "kernel_regularizer": null, "trainable": true}}, {"class_name": "BatchNormalization", "name": "residual_1_14_batch_norm", "inbound_nodes": [[["residual_1_14_conv_block", 0, 0, {}]]], "config": {"beta_initializer": {"class_name": "Zeros", "config": {}}, "moving_variance_initializer": {"class_name": "Ones", "config": {}}, "scale": true, "gamma_regularizer": null, "beta_regularizer": null, "gamma_constraint": null, "gamma_initializer": {"class_name": "Ones", "config": {}}, "axis": 1, "moving_mean_initializer": {"class_name": "Zeros", "config": {}}, "name": "residual_1_14_batch_norm", "epsilon": 0.001, "momentum": 0.99, "beta_constraint": null, "trainable": true, "center": true}}, {"class_name": "Activation", "name": "residual_1_14_relu", "inbound_nodes": [[["residual_1_14_batch_norm", 0, 0, {}]]], "config": {"activation": "relu", "name": "residual_1_14_relu", "trainable": true}}, {"class_name": "Conv2D", "name": "residual_2_14_conv_block", "inbound_nodes": [[["residual_1_14_relu", 0, 0, {}]]], "config": {"dilation_rate": [1, 1], "strides": [1, 1], "filters": 256, "use_bias": true, "kernel_constraint": null, "activity_regularizer": null, "data_format": "channels_last", "kernel_size": [3, 3], "bias_initializer": {"class_name": "Zeros", "config": {}}, "bias_constraint": null, "bias_regularizer": null, "activation": "linear", "kernel_initializer": {"class_name": "VarianceScaling", "config": {"seed": null, "mode": "fan_in", "scale": 2.0, "distribution": "normal"}}, "name": "residual_2_14_conv_block", "padding": "same", "kernel_regularizer": null, "trainable": true}}, {"class_name": "BatchNormalization", "name": "residual_2_14_batch_norm", "inbound_nodes": [[["residual_2_14_conv_block", 0, 0, {}]]], "config": {"beta_initializer": {"class_name": "Zeros", "config": {}}, "moving_variance_initializer": {"class_name": "Ones", "config": {}}, "scale": true, "gamma_regularizer": null, "beta_regularizer": null, "gamma_constraint": null, "gamma_initializer": {"class_name": "Ones", "config": {}}, "axis": 1, "moving_mean_initializer": {"class_name": "Zeros", "config": {}}, "name": "residual_2_14_batch_norm", "epsilon": 0.001, "momentum": 0.99, "beta_constraint": null, "trainable": true, "center": true}}, {"class_name": "Add", "name": "add_14", "inbound_nodes": [[["13_relu", 0, 0, {}], ["residual_2_14_batch_norm", 0, 0, {}]]], "config": {"name": "add_14", "trainable": true}}, {"class_name": "Activation", "name": "14_relu", "inbound_nodes": [[["add_14", 0, 0, {}]]], "config": {"activation": "relu", "name": "14_relu", "trainable": true}}, {"class_name": "Conv2D", "name": "residual_1_15_conv_block", "inbound_nodes": [[["14_relu", 0, 0, {}]]], "config": {"dilation_rate": [1, 1], "strides": [1, 1], "filters": 256, "use_bias": true, "kernel_constraint": null, "activity_regularizer": null, "data_format": "channels_last", "kernel_size": [3, 3], "bias_initializer": {"class_name": "Zeros", "config": {}}, "bias_constraint": null, "bias_regularizer": null, "activation": "linear", "kernel_initializer": {"class_name": "VarianceScaling", "config": {"seed": null, "mode": "fan_in", "scale": 2.0, "distribution": "normal"}}, "name": "residual_1_15_conv_block", "padding": "same", "kernel_regularizer": null, "trainable": true}}, {"class_name": "BatchNormalization", "name": "residual_1_15_batch_norm", "inbound_nodes": [[["residual_1_15_conv_block", 0, 0, {}]]], "config": {"beta_initializer": {"class_name": "Zeros", "config": {}}, "moving_variance_initializer": {"class_name": "Ones", "config": {}}, "scale": true, "gamma_regularizer": null, "beta_regularizer": null, "gamma_constraint": null, "gamma_initializer": {"class_name": "Ones", "config": {}}, "axis": 1, "moving_mean_initializer": {"class_name": "Zeros", "config": {}}, "name": "residual_1_15_batch_norm", "epsilon": 0.001, "momentum": 0.99, "beta_constraint": null, "trainable": true, "center": true}}, {"class_name": "Activation", "name": "residual_1_15_relu", "inbound_nodes": [[["residual_1_15_batch_norm", 0, 0, {}]]], "config": {"activation": "relu", "name": "residual_1_15_relu", "trainable": true}}, {"class_name": "Conv2D", "name": "residual_2_15_conv_block", "inbound_nodes": [[["residual_1_15_relu", 0, 0, {}]]], "config": {"dilation_rate": [1, 1], "strides": [1, 1], "filters": 256, "use_bias": true, "kernel_constraint": null, "activity_regularizer": null, "data_format": "channels_last", "kernel_size": [3, 3], "bias_initializer": {"class_name": "Zeros", "config": {}}, "bias_constraint": null, "bias_regularizer": null, "activation": "linear", "kernel_initializer": {"class_name": "VarianceScaling", "config": {"seed": null, "mode": "fan_in", "scale": 2.0, "distribution": "normal"}}, "name": "residual_2_15_conv_block", "padding": "same", "kernel_regularizer": null, "trainable": true}}, {"class_name": "BatchNormalization", "name": "residual_2_15_batch_norm", "inbound_nodes": [[["residual_2_15_conv_block", 0, 0, {}]]], "config": {"beta_initializer": {"class_name": "Zeros", "config": {}}, "moving_variance_initializer": {"class_name": "Ones", "config": {}}, "scale": true, "gamma_regularizer": null, "beta_regularizer": null, "gamma_constraint": null, "gamma_initializer": {"class_name": "Ones", "config": {}}, "axis": 1, "moving_mean_initializer": {"class_name": "Zeros", "config": {}}, "name": "residual_2_15_batch_norm", "epsilon": 0.001, "momentum": 0.99, "beta_constraint": null, "trainable": true, "center": true}}, {"class_name": "Add", "name": "add_15", "inbound_nodes": [[["14_relu", 0, 0, {}], ["residual_2_15_batch_norm", 0, 0, {}]]], "config": {"name": "add_15", "trainable": true}}, {"class_name": "Activation", "name": "15_relu", "inbound_nodes": [[["add_15", 0, 0, {}]]], "config": {"activation": "relu", "name": "15_relu", "trainable": true}}, {"class_name": "Conv2D", "name": "residual_1_16_conv_block", "inbound_nodes": [[["15_relu", 0, 0, {}]]], "config": {"dilation_rate": [1, 1], "strides": [1, 1], "filters": 256, "use_bias": true, "kernel_constraint": null, "activity_regularizer": null, "data_format": "channels_last", "kernel_size": [3, 3], "bias_initializer": {"class_name": "Zeros", "config": {}}, "bias_constraint": null, "bias_regularizer": null, "activation": "linear", "kernel_initializer": {"class_name": "VarianceScaling", "config": {"seed": null, "mode": "fan_in", "scale": 2.0, "distribution": "normal"}}, "name": "residual_1_16_conv_block", "padding": "same", "kernel_regularizer": null, "trainable": true}}, {"class_name": "BatchNormalization", "name": "residual_1_16_batch_norm", "inbound_nodes": [[["residual_1_16_conv_block", 0, 0, {}]]], "config": {"beta_initializer": {"class_name": "Zeros", "config": {}}, "moving_variance_initializer": {"class_name": "Ones", "config": {}}, "scale": true, "gamma_regularizer": null, "beta_regularizer": null, "gamma_constraint": null, "gamma_initializer": {"class_name": "Ones", "config": {}}, "axis": 1, "moving_mean_initializer": {"class_name": "Zeros", "config": {}}, "name": "residual_1_16_batch_norm", "epsilon": 0.001, "momentum": 0.99, "beta_constraint": null, "trainable": true, "center": true}}, {"class_name": "Activation", "name": "residual_1_16_relu", "inbound_nodes": [[["residual_1_16_batch_norm", 0, 0, {}]]], "config": {"activation": "relu", "name": "residual_1_16_relu", "trainable": true}}, {"class_name": "Conv2D", "name": "residual_2_16_conv_block", "inbound_nodes": [[["residual_1_16_relu", 0, 0, {}]]], "config": {"dilation_rate": [1, 1], "strides": [1, 1], "filters": 256, "use_bias": true, "kernel_constraint": null, "activity_regularizer": null, "data_format": "channels_last", "kernel_size": [3, 3], "bias_initializer": {"class_name": "Zeros", "config": {}}, "bias_constraint": null, "bias_regularizer": null, "activation": "linear", "kernel_initializer": {"class_name": "VarianceScaling", "config": {"seed": null, "mode": "fan_in", "scale": 2.0, "distribution": "normal"}}, "name": "residual_2_16_conv_block", "padding": "same", "kernel_regularizer": null, "trainable": true}}, {"class_name": "BatchNormalization", "name": "residual_2_16_batch_norm", "inbound_nodes": [[["residual_2_16_conv_block", 0, 0, {}]]], "config": {"beta_initializer": {"class_name": "Zeros", "config": {}}, "moving_variance_initializer": {"class_name": "Ones", "config": {}}, "scale": true, "gamma_regularizer": null, "beta_regularizer": null, "gamma_constraint": null, "gamma_initializer": {"class_name": "Ones", "config": {}}, "axis": 1, "moving_mean_initializer": {"class_name": "Zeros", "config": {}}, "name": "residual_2_16_batch_norm", "epsilon": 0.001, "momentum": 0.99, "beta_constraint": null, "trainable": true, "center": true}}, {"class_name": "Add", "name": "add_16", "inbound_nodes": [[["15_relu", 0, 0, {}], ["residual_2_16_batch_norm", 0, 0, {}]]], "config": {"name": "add_16", "trainable": true}}, {"class_name": "Activation", "name": "16_relu", "inbound_nodes": [[["add_16", 0, 0, {}]]], "config": {"activation": "relu", "name": "16_relu", "trainable": true}}, {"class_name": "Conv2D", "name": "residual_1_17_conv_block", "inbound_nodes": [[["16_relu", 0, 0, {}]]], "config": {"dilation_rate": [1, 1], "strides": [1, 1], "filters": 256, "use_bias": true, "kernel_constraint": null, "activity_regularizer": null, "data_format": "channels_last", "kernel_size": [3, 3], "bias_initializer": {"class_name": "Zeros", "config": {}}, "bias_constraint": null, "bias_regularizer": null, "activation": "linear", "kernel_initializer": {"class_name": "VarianceScaling", "config": {"seed": null, "mode": "fan_in", "scale": 2.0, "distribution": "normal"}}, "name": "residual_1_17_conv_block", "padding": "same", "kernel_regularizer": null, "trainable": true}}, {"class_name": "BatchNormalization", "name": "residual_1_17_batch_norm", "inbound_nodes": [[["residual_1_17_conv_block", 0, 0, {}]]], "config": {"beta_initializer": {"class_name": "Zeros", "config": {}}, "moving_variance_initializer": {"class_name": "Ones", "config": {}}, "scale": true, "gamma_regularizer": null, "beta_regularizer": null, "gamma_constraint": null, "gamma_initializer": {"class_name": "Ones", "config": {}}, "axis": 1, "moving_mean_initializer": {"class_name": "Zeros", "config": {}}, "name": "residual_1_17_batch_norm", "epsilon": 0.001, "momentum": 0.99, "beta_constraint": null, "trainable": true, "center": true}}, {"class_name": "Activation", "name": "residual_1_17_relu", "inbound_nodes": [[["residual_1_17_batch_norm", 0, 0, {}]]], "config": {"activation": "relu", "name": "residual_1_17_relu", "trainable": true}}, {"class_name": "Conv2D", "name": "residual_2_17_conv_block", "inbound_nodes": [[["residual_1_17_relu", 0, 0, {}]]], "config": {"dilation_rate": [1, 1], "strides": [1, 1], "filters": 256, "use_bias": true, "kernel_constraint": null, "activity_regularizer": null, "data_format": "channels_last", "kernel_size": [3, 3], "bias_initializer": {"class_name": "Zeros", "config": {}}, "bias_constraint": null, "bias_regularizer": null, "activation": "linear", "kernel_initializer": {"class_name": "VarianceScaling", "config": {"seed": null, "mode": "fan_in", "scale": 2.0, "distribution": "normal"}}, "name": "residual_2_17_conv_block", "padding": "same", "kernel_regularizer": null, "trainable": true}}, {"class_name": "BatchNormalization", "name": "residual_2_17_batch_norm", "inbound_nodes": [[["residual_2_17_conv_block", 0, 0, {}]]], "config": {"beta_initializer": {"class_name": "Zeros", "config": {}}, "moving_variance_initializer": {"class_name": "Ones", "config": {}}, "scale": true, "gamma_regularizer": null, "beta_regularizer": null, "gamma_constraint": null, "gamma_initializer": {"class_name": "Ones", "config": {}}, "axis": 1, "moving_mean_initializer": {"class_name": "Zeros", "config": {}}, "name": "residual_2_17_batch_norm", "epsilon": 0.001, "momentum": 0.99, "beta_constraint": null, "trainable": true, "center": true}}, {"class_name": "Add", "name": "add_17", "inbound_nodes": [[["16_relu", 0, 0, {}], ["residual_2_17_batch_norm", 0, 0, {}]]], "config": {"name": "add_17", "trainable": true}}, {"class_name": "Activation", "name": "17_relu", "inbound_nodes": [[["add_17", 0, 0, {}]]], "config": {"activation": "relu", "name": "17_relu", "trainable": true}}, {"class_name": "Conv2D", "name": "residual_1_18_conv_block", "inbound_nodes": [[["17_relu", 0, 0, {}]]], "config": {"dilation_rate": [1, 1], "strides": [1, 1], "filters": 256, "use_bias": true, "kernel_constraint": null, "activity_regularizer": null, "data_format": "channels_last", "kernel_size": [3, 3], "bias_initializer": {"class_name": "Zeros", "config": {}}, "bias_constraint": null, "bias_regularizer": null, "activation": "linear", "kernel_initializer": {"class_name": "VarianceScaling", "config": {"seed": null, "mode": "fan_in", "scale": 2.0, "distribution": "normal"}}, "name": "residual_1_18_conv_block", "padding": "same", "kernel_regularizer": null, "trainable": true}}, {"class_name": "BatchNormalization", "name": "residual_1_18_batch_norm", "inbound_nodes": [[["residual_1_18_conv_block", 0, 0, {}]]], "config": {"beta_initializer": {"class_name": "Zeros", "config": {}}, "moving_variance_initializer": {"class_name": "Ones", "config": {}}, "scale": true, "gamma_regularizer": null, "beta_regularizer": null, "gamma_constraint": null, "gamma_initializer": {"class_name": "Ones", "config": {}}, "axis": 1, "moving_mean_initializer": {"class_name": "Zeros", "config": {}}, "name": "residual_1_18_batch_norm", "epsilon": 0.001, "momentum": 0.99, "beta_constraint": null, "trainable": true, "center": true}}, {"class_name": "Activation", "name": "residual_1_18_relu", "inbound_nodes": [[["residual_1_18_batch_norm", 0, 0, {}]]], "config": {"activation": "relu", "name": "residual_1_18_relu", "trainable": true}}, {"class_name": "Conv2D", "name": "residual_2_18_conv_block", "inbound_nodes": [[["residual_1_18_relu", 0, 0, {}]]], "config": {"dilation_rate": [1, 1], "strides": [1, 1], "filters": 256, "use_bias": true, "kernel_constraint": null, "activity_regularizer": null, "data_format": "channels_last", "kernel_size": [3, 3], "bias_initializer": {"class_name": "Zeros", "config": {}}, "bias_constraint": null, "bias_regularizer": null, "activation": "linear", "kernel_initializer": {"class_name": "VarianceScaling", "config": {"seed": null, "mode": "fan_in", "scale": 2.0, "distribution": "normal"}}, "name": "residual_2_18_conv_block", "padding": "same", "kernel_regularizer": null, "trainable": true}}, {"class_name": "BatchNormalization", "name": "residual_2_18_batch_norm", "inbound_nodes": [[["residual_2_18_conv_block", 0, 0, {}]]], "config": {"beta_initializer": {"class_name": "Zeros", "config": {}}, "moving_variance_initializer": {"class_name": "Ones", "config": {}}, "scale": true, "gamma_regularizer": null, "beta_regularizer": null, "gamma_constraint": null, "gamma_initializer": {"class_name": "Ones", "config": {}}, "axis": 1, "moving_mean_initializer": {"class_name": "Zeros", "config": {}}, "name": "residual_2_18_batch_norm", "epsilon": 0.001, "momentum": 0.99, "beta_constraint": null, "trainable": true, "center": true}}, {"class_name": "Add", "name": "add_18", "inbound_nodes": [[["17_relu", 0, 0, {}], ["residual_2_18_batch_norm", 0, 0, {}]]], "config": {"name": "add_18", "trainable": true}}, {"class_name": "Activation", "name": "18_relu", "inbound_nodes": [[["add_18", 0, 0, {}]]], "config": {"activation": "relu", "name": "18_relu", "trainable": true}}, {"class_name": "Conv2D", "name": "residual_1_19_conv_block", "inbound_nodes": [[["18_relu", 0, 0, {}]]], "config": {"dilation_rate": [1, 1], "strides": [1, 1], "filters": 256, "use_bias": true, "kernel_constraint": null, "activity_regularizer": null, "data_format": "channels_last", "kernel_size": [3, 3], "bias_initializer": {"class_name": "Zeros", "config": {}}, "bias_constraint": null, "bias_regularizer": null, "activation": "linear", "kernel_initializer": {"class_name": "VarianceScaling", "config": {"seed": null, "mode": "fan_in", "scale": 2.0, "distribution": "normal"}}, "name": "residual_1_19_conv_block", "padding": "same", "kernel_regularizer": null, "trainable": true}}, {"class_name": "BatchNormalization", "name": "residual_1_19_batch_norm", "inbound_nodes": [[["residual_1_19_conv_block", 0, 0, {}]]], "config": {"beta_initializer": {"class_name": "Zeros", "config": {}}, "moving_variance_initializer": {"class_name": "Ones", "config": {}}, "scale": true, "gamma_regularizer": null, "beta_regularizer": null, "gamma_constraint": null, "gamma_initializer": {"class_name": "Ones", "config": {}}, "axis": 1, "moving_mean_initializer": {"class_name": "Zeros", "config": {}}, "name": "residual_1_19_batch_norm", "epsilon": 0.001, "momentum": 0.99, "beta_constraint": null, "trainable": true, "center": true}}, {"class_name": "Activation", "name": "residual_1_19_relu", "inbound_nodes": [[["residual_1_19_batch_norm", 0, 0, {}]]], "config": {"activation": "relu", "name": "residual_1_19_relu", "trainable": true}}, {"class_name": "Conv2D", "name": "residual_2_19_conv_block", "inbound_nodes": [[["residual_1_19_relu", 0, 0, {}]]], "config": {"dilation_rate": [1, 1], "strides": [1, 1], "filters": 256, "use_bias": true, "kernel_constraint": null, "activity_regularizer": null, "data_format": "channels_last", "kernel_size": [3, 3], "bias_initializer": {"class_name": "Zeros", "config": {}}, "bias_constraint": null, "bias_regularizer": null, "activation": "linear", "kernel_initializer": {"class_name": "VarianceScaling", "config": {"seed": null, "mode": "fan_in", "scale": 2.0, "distribution": "normal"}}, "name": "residual_2_19_conv_block", "padding": "same", "kernel_regularizer": null, "trainable": true}}, {"class_name": "BatchNormalization", "name": "residual_2_19_batch_norm", "inbound_nodes": [[["residual_2_19_conv_block", 0, 0, {}]]], "config": {"beta_initializer": {"class_name": "Zeros", "config": {}}, "moving_variance_initializer": {"class_name": "Ones", "config": {}}, "scale": true, "gamma_regularizer": null, "beta_regularizer": null, "gamma_constraint": null, "gamma_initializer": {"class_name": "Ones", "config": {}}, "axis": 1, "moving_mean_initializer": {"class_name": "Zeros", "config": {}}, "name": "residual_2_19_batch_norm", "epsilon": 0.001, "momentum": 0.99, "beta_constraint": null, "trainable": true, "center": true}}, {"class_name": "Add", "name": "add_19", "inbound_nodes": [[["18_relu", 0, 0, {}], ["residual_2_19_batch_norm", 0, 0, {}]]], "config": {"name": "add_19", "trainable": true}}, {"class_name": "Activation", "name": "19_relu", "inbound_nodes": [[["add_19", 0, 0, {}]]], "config": {"activation": "relu", "name": "19_relu", "trainable": true}}, {"class_name": "Conv2D", "name": "value_head_conv_block", "inbound_nodes": [[["19_relu", 0, 0, {}]]], "config": {"dilation_rate": [1, 1], "strides": [1, 1], "filters": 1, "use_bias": true, "kernel_constraint": null, "activity_regularizer": null, "data_format": "channels_last", "kernel_size": [1, 1], "bias_initializer": {"class_name": "Zeros", "config": {}}, "bias_constraint": null, "bias_regularizer": null, "activation": "linear", "kernel_initializer": {"class_name": "VarianceScaling", "config": {"seed": null, "mode": "fan_avg", "scale": 1.0, "distribution": "uniform"}}, "name": "value_head_conv_block", "padding": "same", "kernel_regularizer": null, "trainable": true}}, {"class_name": "Conv2D", "name": "policy_head_conv_block", "inbound_nodes": [[["19_relu", 0, 0, {}]]], "config": {"dilation_rate": [1, 1], "strides": [1, 1], "filters": 2, "use_bias": true, "kernel_constraint": null, "activity_regularizer": null, "data_format": "channels_last", "kernel_size": [3, 3], "bias_initializer": {"class_name": "Zeros", "config": {}}, "bias_constraint": null, "bias_regularizer": null, "activation": "linear", "kernel_initializer": {"class_name": "VarianceScaling", "config": {"seed": null, "mode": "fan_avg", "scale": 1.0, "distribution": "uniform"}}, "name": "policy_head_conv_block", "padding": "same", "kernel_regularizer": null, "trainable": true}}, {"class_name": "BatchNormalization", "name": "value_head_batch_norm", "inbound_nodes": [[["value_head_conv_block", 0, 0, {}]]], "config": {"beta_initializer": {"class_name": "Zeros", "config": {}}, "moving_variance_initializer": {"class_name": "Ones", "config": {}}, "scale": true, "gamma_regularizer": null, "beta_regularizer": null, "gamma_constraint": null, "gamma_initializer": {"class_name": "Ones", "config": {}}, "axis": 1, "moving_mean_initializer": {"class_name": "Zeros", "config": {}}, "name": "value_head_batch_norm", "epsilon": 0.001, "momentum": 0.99, "beta_constraint": null, "trainable": true, "center": true}}, {"class_name": "BatchNormalization", "name": "policy_head_batch_norm", "inbound_nodes": [[["policy_head_conv_block", 0, 0, {}]]], "config": {"beta_initializer": {"class_name": "Zeros", "config": {}}, "moving_variance_initializer": {"class_name": "Ones", "config": {}}, "scale": true, "gamma_regularizer": null, "beta_regularizer": null, "gamma_constraint": null, "gamma_initializer": {"class_name": "Ones", "config": {}}, "axis": 1, "moving_mean_initializer": {"class_name": "Zeros", "config": {}}, "name": "policy_head_batch_norm", "epsilon": 0.001, "momentum": 0.99, "beta_constraint": null, "trainable": true, "center": true}}, {"class_name": "Activation", "name": "value_head_relu", "inbound_nodes": [[["value_head_batch_norm", 0, 0, {}]]], "config": {"activation": "relu", "name": "value_head_relu", "trainable": true}}, {"class_name": "Activation", "name": "policy_head_relu", "inbound_nodes": [[["policy_head_batch_norm", 0, 0, {}]]], "config": {"activation": "relu", "name": "policy_head_relu", "trainable": true}}, {"class_name": "Flatten", "name": "flatten_2", "inbound_nodes": [[["value_head_relu", 0, 0, {}]]], "config": {"data_format": "channels_last", "name": "flatten_2", "trainable": true}}, {"class_name": "Flatten", "name": "flatten_1", "inbound_nodes": [[["policy_head_relu", 0, 0, {}]]], "config": {"data_format": "channels_last", "name": "flatten_1", "trainable": true}}, {"class_name": "Dense", "name": "value_head_dense", "inbound_nodes": [[["flatten_2", 0, 0, {}]]], "config": {"kernel_initializer": {"class_name": "VarianceScaling", "config": {"seed": null, "mode": "fan_avg", "scale": 1.0, "distribution": "uniform"}}, "use_bias": true, "kernel_constraint": null, "activity_regularizer": null, "bias_initializer": {"class_name": "Zeros", "config": {}}, "kernel_regularizer": null, "bias_regularizer": null, "activation": "relu", "units": 256, "name": "value_head_dense", "bias_constraint": null, "trainable": true}}, {"class_name": "Dense", "name": "policy_head_dense", "inbound_nodes": [[["flatten_1", 0, 0, {}]]], "config": {"kernel_initializer": {"class_name": "VarianceScaling", "config": {"seed": null, "mode": "fan_avg", "scale": 1.0, "distribution": "uniform"}}, "use_bias": true, "kernel_constraint": null, "activity_regularizer": null, "bias_initializer": {"class_name": "Zeros", "config": {}}, "kernel_regularizer": null, "bias_regularizer": null, "activation": "linear", "units": 362, "name": "policy_head_dense", "bias_constraint": null, "trainable": true}}, {"class_name": "Dense", "name": "value_head_output", "inbound_nodes": [[["value_head_dense", 0, 0, {}]]], "config": {"kernel_initializer": {"class_name": "VarianceScaling", "config": {"seed": null, "mode": "fan_avg", "scale": 1.0, "distribution": "uniform"}}, "use_bias": true, "kernel_constraint": null, "activity_regularizer": null, "bias_initializer": {"class_name": "Zeros", "config": {}}, "kernel_regularizer": null, "bias_regularizer": null, "activation": "tanh", "units": 1, "name": "value_head_output", "bias_constraint": null, "trainable": true}}]}}