{"keras_version": "2.2.0", "config": {"layers": [{"name": "input_5", "config": {"batch_input_shape": [null, 10, 19, 19], "name": "input_5", "sparse": false, "dtype": "float32"}, "inbound_nodes": [], "class_name": "InputLayer"}, {"name": "init_conv_block", "config": {"activation": "linear", "name": "init_conv_block", "bias_regularizer": null, "bias_constraint": null, "kernel_regularizer": null, "padding": "same", "kernel_initializer": {"config": {"scale": 2.0, "distribution": "normal", "mode": "fan_in", "seed": null}, "class_name": "VarianceScaling"}, "dilation_rate": [1, 1], "kernel_constraint": null, "use_bias": true, "kernel_size": [3, 3], "trainable": true, "activity_regularizer": null, "data_format": "channels_last", "strides": [1, 1], "filters": 256, "bias_initializer": {"config": {}, "class_name": "Zeros"}}, "inbound_nodes": [[["input_5", 0, 0, {}]]], "class_name": "Conv2D"}, {"name": "init_batch_norm", "config": {"name": "init_batch_norm", "beta_regularizer": null, "axis": -1, "scale": true, "moving_mean_initializer": {"config": {}, "class_name": "Zeros"}, "epsilon": 0.001, "beta_constraint": null, "gamma_initializer": {"config": {}, "class_name": "Ones"}, "beta_initializer": {"config": {}, "class_name": "Zeros"}, "trainable": true, "gamma_regularizer": null, "momentum": 0.99, "moving_variance_initializer": {"config": {}, "class_name": "Ones"}, "center": true, "gamma_constraint": null}, "inbound_nodes": [[["init_conv_block", 0, 0, {}]]], "class_name": "BatchNormalization"}, {"name": "init_relu", "config": {"name": "init_relu", "trainable": true, "activation": "relu"}, "inbound_nodes": [[["init_batch_norm", 0, 0, {}]]], "class_name": "Activation"}, {"name": "0_conv_block", "config": {"activation": "linear", "name": "0_conv_block", "bias_regularizer": null, "bias_constraint": null, "kernel_regularizer": null, "padding": "same", "kernel_initializer": {"config": {"scale": 2.0, "distribution": "normal", "mode": "fan_in", "seed": null}, "class_name": "VarianceScaling"}, "dilation_rate": [1, 1], "kernel_constraint": null, "use_bias": true, "kernel_size": [3, 3], "trainable": true, "activity_regularizer": null, "data_format": "channels_last", "strides": [1, 1], "filters": 256, "bias_initializer": {"config": {}, "class_name": "Zeros"}}, "inbound_nodes": [[["init_relu", 0, 0, {}]]], "class_name": "Conv2D"}, {"name": "0_batch_norm", "config": {"name": "0_batch_norm", "beta_regularizer": null, "axis": -1, "scale": true, "moving_mean_initializer": {"config": {}, "class_name": "Zeros"}, "epsilon": 0.001, "beta_constraint": null, "gamma_initializer": {"config": {}, "class_name": "Ones"}, "beta_initializer": {"config": {}, "class_name": "Zeros"}, "trainable": true, "gamma_regularizer": null, "momentum": 0.99, "moving_variance_initializer": {"config": {}, "class_name": "Ones"}, "center": true, "gamma_constraint": null}, "inbound_nodes": [[["0_conv_block", 0, 0, {}]]], "class_name": "BatchNormalization"}, {"name": "0_relu", "config": {"name": "0_relu", "trainable": true, "activation": "relu"}, "inbound_nodes": [[["0_batch_norm", 0, 0, {}]]], "class_name": "Activation"}, {"name": "1_conv_block", "config": {"activation": "linear", "name": "1_conv_block", "bias_regularizer": null, "bias_constraint": null, "kernel_regularizer": null, "padding": "same", "kernel_initializer": {"config": {"scale": 2.0, "distribution": "normal", "mode": "fan_in", "seed": null}, "class_name": "VarianceScaling"}, "dilation_rate": [1, 1], "kernel_constraint": null, "use_bias": true, "kernel_size": [3, 3], "trainable": true, "activity_regularizer": null, "data_format": "channels_last", "strides": [1, 1], "filters": 256, "bias_initializer": {"config": {}, "class_name": "Zeros"}}, "inbound_nodes": [[["0_relu", 0, 0, {}]]], "class_name": "Conv2D"}, {"name": "1_batch_norm", "config": {"name": "1_batch_norm", "beta_regularizer": null, "axis": -1, "scale": true, "moving_mean_initializer": {"config": {}, "class_name": "Zeros"}, "epsilon": 0.001, "beta_constraint": null, "gamma_initializer": {"config": {}, "class_name": "Ones"}, "beta_initializer": {"config": {}, "class_name": "Zeros"}, "trainable": true, "gamma_regularizer": null, "momentum": 0.99, "moving_variance_initializer": {"config": {}, "class_name": "Ones"}, "center": true, "gamma_constraint": null}, "inbound_nodes": [[["1_conv_block", 0, 0, {}]]], "class_name": "BatchNormalization"}, {"name": "1_relu", "config": {"name": "1_relu", "trainable": true, "activation": "relu"}, "inbound_nodes": [[["1_batch_norm", 0, 0, {}]]], "class_name": "Activation"}, {"name": "2_conv_block", "config": {"activation": "linear", "name": "2_conv_block", "bias_regularizer": null, "bias_constraint": null, "kernel_regularizer": null, "padding": "same", "kernel_initializer": {"config": {"scale": 2.0, "distribution": "normal", "mode": "fan_in", "seed": null}, "class_name": "VarianceScaling"}, "dilation_rate": [1, 1], "kernel_constraint": null, "use_bias": true, "kernel_size": [3, 3], "trainable": true, "activity_regularizer": null, "data_format": "channels_last", "strides": [1, 1], "filters": 256, "bias_initializer": {"config": {}, "class_name": "Zeros"}}, "inbound_nodes": [[["1_relu", 0, 0, {}]]], "class_name": "Conv2D"}, {"name": "2_batch_norm", "config": {"name": "2_batch_norm", "beta_regularizer": null, "axis": -1, "scale": true, "moving_mean_initializer": {"config": {}, "class_name": "Zeros"}, "epsilon": 0.001, "beta_constraint": null, "gamma_initializer": {"config": {}, "class_name": "Ones"}, "beta_initializer": {"config": {}, "class_name": "Zeros"}, "trainable": true, "gamma_regularizer": null, "momentum": 0.99, "moving_variance_initializer": {"config": {}, "class_name": "Ones"}, "center": true, "gamma_constraint": null}, "inbound_nodes": [[["2_conv_block", 0, 0, {}]]], "class_name": "BatchNormalization"}, {"name": "2_relu", "config": {"name": "2_relu", "trainable": true, "activation": "relu"}, "inbound_nodes": [[["2_batch_norm", 0, 0, {}]]], "class_name": "Activation"}, {"name": "3_conv_block", "config": {"activation": "linear", "name": "3_conv_block", "bias_regularizer": null, "bias_constraint": null, "kernel_regularizer": null, "padding": "same", "kernel_initializer": {"config": {"scale": 2.0, "distribution": "normal", "mode": "fan_in", "seed": null}, "class_name": "VarianceScaling"}, "dilation_rate": [1, 1], "kernel_constraint": null, "use_bias": true, "kernel_size": [3, 3], "trainable": true, "activity_regularizer": null, "data_format": "channels_last", "strides": [1, 1], "filters": 256, "bias_initializer": {"config": {}, "class_name": "Zeros"}}, "inbound_nodes": [[["2_relu", 0, 0, {}]]], "class_name": "Conv2D"}, {"name": "3_batch_norm", "config": {"name": "3_batch_norm", "beta_regularizer": null, "axis": -1, "scale": true, "moving_mean_initializer": {"config": {}, "class_name": "Zeros"}, "epsilon": 0.001, "beta_constraint": null, "gamma_initializer": {"config": {}, "class_name": "Ones"}, "beta_initializer": {"config": {}, "class_name": "Zeros"}, "trainable": true, "gamma_regularizer": null, "momentum": 0.99, "moving_variance_initializer": {"config": {}, "class_name": "Ones"}, "center": true, "gamma_constraint": null}, "inbound_nodes": [[["3_conv_block", 0, 0, {}]]], "class_name": "BatchNormalization"}, {"name": "3_relu", "config": {"name": "3_relu", "trainable": true, "activation": "relu"}, "inbound_nodes": [[["3_batch_norm", 0, 0, {}]]], "class_name": "Activation"}, {"name": "4_conv_block", "config": {"activation": "linear", "name": "4_conv_block", "bias_regularizer": null, "bias_constraint": null, "kernel_regularizer": null, "padding": "same", "kernel_initializer": {"config": {"scale": 2.0, "distribution": "normal", "mode": "fan_in", "seed": null}, "class_name": "VarianceScaling"}, "dilation_rate": [1, 1], "kernel_constraint": null, "use_bias": true, "kernel_size": [3, 3], "trainable": true, "activity_regularizer": null, "data_format": "channels_last", "strides": [1, 1], "filters": 256, "bias_initializer": {"config": {}, "class_name": "Zeros"}}, "inbound_nodes": [[["3_relu", 0, 0, {}]]], "class_name": "Conv2D"}, {"name": "4_batch_norm", "config": {"name": "4_batch_norm", "beta_regularizer": null, "axis": -1, "scale": true, "moving_mean_initializer": {"config": {}, "class_name": "Zeros"}, "epsilon": 0.001, "beta_constraint": null, "gamma_initializer": {"config": {}, "class_name": "Ones"}, "beta_initializer": {"config": {}, "class_name": "Zeros"}, "trainable": true, "gamma_regularizer": null, "momentum": 0.99, "moving_variance_initializer": {"config": {}, "class_name": "Ones"}, "center": true, "gamma_constraint": null}, "inbound_nodes": [[["4_conv_block", 0, 0, {}]]], "class_name": "BatchNormalization"}, {"name": "4_relu", "config": {"name": "4_relu", "trainable": true, "activation": "relu"}, "inbound_nodes": [[["4_batch_norm", 0, 0, {}]]], "class_name": "Activation"}, {"name": "5_conv_block", "config": {"activation": "linear", "name": "5_conv_block", "bias_regularizer": null, "bias_constraint": null, "kernel_regularizer": null, "padding": "same", "kernel_initializer": {"config": {"scale": 2.0, "distribution": "normal", "mode": "fan_in", "seed": null}, "class_name": "VarianceScaling"}, "dilation_rate": [1, 1], "kernel_constraint": null, "use_bias": true, "kernel_size": [3, 3], "trainable": true, "activity_regularizer": null, "data_format": "channels_last", "strides": [1, 1], "filters": 256, "bias_initializer": {"config": {}, "class_name": "Zeros"}}, "inbound_nodes": [[["4_relu", 0, 0, {}]]], "class_name": "Conv2D"}, {"name": "5_batch_norm", "config": {"name": "5_batch_norm", "beta_regularizer": null, "axis": -1, "scale": true, "moving_mean_initializer": {"config": {}, "class_name": "Zeros"}, "epsilon": 0.001, "beta_constraint": null, "gamma_initializer": {"config": {}, "class_name": "Ones"}, "beta_initializer": {"config": {}, "class_name": "Zeros"}, "trainable": true, "gamma_regularizer": null, "momentum": 0.99, "moving_variance_initializer": {"config": {}, "class_name": "Ones"}, "center": true, "gamma_constraint": null}, "inbound_nodes": [[["5_conv_block", 0, 0, {}]]], "class_name": "BatchNormalization"}, {"name": "5_relu", "config": {"name": "5_relu", "trainable": true, "activation": "relu"}, "inbound_nodes": [[["5_batch_norm", 0, 0, {}]]], "class_name": "Activation"}, {"name": "6_conv_block", "config": {"activation": "linear", "name": "6_conv_block", "bias_regularizer": null, "bias_constraint": null, "kernel_regularizer": null, "padding": "same", "kernel_initializer": {"config": {"scale": 2.0, "distribution": "normal", "mode": "fan_in", "seed": null}, "class_name": "VarianceScaling"}, "dilation_rate": [1, 1], "kernel_constraint": null, "use_bias": true, "kernel_size": [3, 3], "trainable": true, "activity_regularizer": null, "data_format": "channels_last", "strides": [1, 1], "filters": 256, "bias_initializer": {"config": {}, "class_name": "Zeros"}}, "inbound_nodes": [[["5_relu", 0, 0, {}]]], "class_name": "Conv2D"}, {"name": "6_batch_norm", "config": {"name": "6_batch_norm", "beta_regularizer": null, "axis": -1, "scale": true, "moving_mean_initializer": {"config": {}, "class_name": "Zeros"}, "epsilon": 0.001, "beta_constraint": null, "gamma_initializer": {"config": {}, "class_name": "Ones"}, "beta_initializer": {"config": {}, "class_name": "Zeros"}, "trainable": true, "gamma_regularizer": null, "momentum": 0.99, "moving_variance_initializer": {"config": {}, "class_name": "Ones"}, "center": true, "gamma_constraint": null}, "inbound_nodes": [[["6_conv_block", 0, 0, {}]]], "class_name": "BatchNormalization"}, {"name": "6_relu", "config": {"name": "6_relu", "trainable": true, "activation": "relu"}, "inbound_nodes": [[["6_batch_norm", 0, 0, {}]]], "class_name": "Activation"}, {"name": "7_conv_block", "config": {"activation": "linear", "name": "7_conv_block", "bias_regularizer": null, "bias_constraint": null, "kernel_regularizer": null, "padding": "same", "kernel_initializer": {"config": {"scale": 2.0, "distribution": "normal", "mode": "fan_in", "seed": null}, "class_name": "VarianceScaling"}, "dilation_rate": [1, 1], "kernel_constraint": null, "use_bias": true, "kernel_size": [3, 3], "trainable": true, "activity_regularizer": null, "data_format": "channels_last", "strides": [1, 1], "filters": 256, "bias_initializer": {"config": {}, "class_name": "Zeros"}}, "inbound_nodes": [[["6_relu", 0, 0, {}]]], "class_name": "Conv2D"}, {"name": "7_batch_norm", "config": {"name": "7_batch_norm", "beta_regularizer": null, "axis": -1, "scale": true, "moving_mean_initializer": {"config": {}, "class_name": "Zeros"}, "epsilon": 0.001, "beta_constraint": null, "gamma_initializer": {"config": {}, "class_name": "Ones"}, "beta_initializer": {"config": {}, "class_name": "Zeros"}, "trainable": true, "gamma_regularizer": null, "momentum": 0.99, "moving_variance_initializer": {"config": {}, "class_name": "Ones"}, "center": true, "gamma_constraint": null}, "inbound_nodes": [[["7_conv_block", 0, 0, {}]]], "class_name": "BatchNormalization"}, {"name": "7_relu", "config": {"name": "7_relu", "trainable": true, "activation": "relu"}, "inbound_nodes": [[["7_batch_norm", 0, 0, {}]]], "class_name": "Activation"}, {"name": "8_conv_block", "config": {"activation": "linear", "name": "8_conv_block", "bias_regularizer": null, "bias_constraint": null, "kernel_regularizer": null, "padding": "same", "kernel_initializer": {"config": {"scale": 2.0, "distribution": "normal", "mode": "fan_in", "seed": null}, "class_name": "VarianceScaling"}, "dilation_rate": [1, 1], "kernel_constraint": null, "use_bias": true, "kernel_size": [3, 3], "trainable": true, "activity_regularizer": null, "data_format": "channels_last", "strides": [1, 1], "filters": 256, "bias_initializer": {"config": {}, "class_name": "Zeros"}}, "inbound_nodes": [[["7_relu", 0, 0, {}]]], "class_name": "Conv2D"}, {"name": "8_batch_norm", "config": {"name": "8_batch_norm", "beta_regularizer": null, "axis": -1, "scale": true, "moving_mean_initializer": {"config": {}, "class_name": "Zeros"}, "epsilon": 0.001, "beta_constraint": null, "gamma_initializer": {"config": {}, "class_name": "Ones"}, "beta_initializer": {"config": {}, "class_name": "Zeros"}, "trainable": true, "gamma_regularizer": null, "momentum": 0.99, "moving_variance_initializer": {"config": {}, "class_name": "Ones"}, "center": true, "gamma_constraint": null}, "inbound_nodes": [[["8_conv_block", 0, 0, {}]]], "class_name": "BatchNormalization"}, {"name": "8_relu", "config": {"name": "8_relu", "trainable": true, "activation": "relu"}, "inbound_nodes": [[["8_batch_norm", 0, 0, {}]]], "class_name": "Activation"}, {"name": "9_conv_block", "config": {"activation": "linear", "name": "9_conv_block", "bias_regularizer": null, "bias_constraint": null, "kernel_regularizer": null, "padding": "same", "kernel_initializer": {"config": {"scale": 2.0, "distribution": "normal", "mode": "fan_in", "seed": null}, "class_name": "VarianceScaling"}, "dilation_rate": [1, 1], "kernel_constraint": null, "use_bias": true, "kernel_size": [3, 3], "trainable": true, "activity_regularizer": null, "data_format": "channels_last", "strides": [1, 1], "filters": 256, "bias_initializer": {"config": {}, "class_name": "Zeros"}}, "inbound_nodes": [[["8_relu", 0, 0, {}]]], "class_name": "Conv2D"}, {"name": "9_batch_norm", "config": {"name": "9_batch_norm", "beta_regularizer": null, "axis": -1, "scale": true, "moving_mean_initializer": {"config": {}, "class_name": "Zeros"}, "epsilon": 0.001, "beta_constraint": null, "gamma_initializer": {"config": {}, "class_name": "Ones"}, "beta_initializer": {"config": {}, "class_name": "Zeros"}, "trainable": true, "gamma_regularizer": null, "momentum": 0.99, "moving_variance_initializer": {"config": {}, "class_name": "Ones"}, "center": true, "gamma_constraint": null}, "inbound_nodes": [[["9_conv_block", 0, 0, {}]]], "class_name": "BatchNormalization"}, {"name": "9_relu", "config": {"name": "9_relu", "trainable": true, "activation": "relu"}, "inbound_nodes": [[["9_batch_norm", 0, 0, {}]]], "class_name": "Activation"}, {"name": "10_conv_block", "config": {"activation": "linear", "name": "10_conv_block", "bias_regularizer": null, "bias_constraint": null, "kernel_regularizer": null, "padding": "same", "kernel_initializer": {"config": {"scale": 2.0, "distribution": "normal", "mode": "fan_in", "seed": null}, "class_name": "VarianceScaling"}, "dilation_rate": [1, 1], "kernel_constraint": null, "use_bias": true, "kernel_size": [3, 3], "trainable": true, "activity_regularizer": null, "data_format": "channels_last", "strides": [1, 1], "filters": 256, "bias_initializer": {"config": {}, "class_name": "Zeros"}}, "inbound_nodes": [[["9_relu", 0, 0, {}]]], "class_name": "Conv2D"}, {"name": "10_batch_norm", "config": {"name": "10_batch_norm", "beta_regularizer": null, "axis": -1, "scale": true, "moving_mean_initializer": {"config": {}, "class_name": "Zeros"}, "epsilon": 0.001, "beta_constraint": null, "gamma_initializer": {"config": {}, "class_name": "Ones"}, "beta_initializer": {"config": {}, "class_name": "Zeros"}, "trainable": true, "gamma_regularizer": null, "momentum": 0.99, "moving_variance_initializer": {"config": {}, "class_name": "Ones"}, "center": true, "gamma_constraint": null}, "inbound_nodes": [[["10_conv_block", 0, 0, {}]]], "class_name": "BatchNormalization"}, {"name": "10_relu", "config": {"name": "10_relu", "trainable": true, "activation": "relu"}, "inbound_nodes": [[["10_batch_norm", 0, 0, {}]]], "class_name": "Activation"}, {"name": "11_conv_block", "config": {"activation": "linear", "name": "11_conv_block", "bias_regularizer": null, "bias_constraint": null, "kernel_regularizer": null, "padding": "same", "kernel_initializer": {"config": {"scale": 2.0, "distribution": "normal", "mode": "fan_in", "seed": null}, "class_name": "VarianceScaling"}, "dilation_rate": [1, 1], "kernel_constraint": null, "use_bias": true, "kernel_size": [3, 3], "trainable": true, "activity_regularizer": null, "data_format": "channels_last", "strides": [1, 1], "filters": 256, "bias_initializer": {"config": {}, "class_name": "Zeros"}}, "inbound_nodes": [[["10_relu", 0, 0, {}]]], "class_name": "Conv2D"}, {"name": "11_batch_norm", "config": {"name": "11_batch_norm", "beta_regularizer": null, "axis": -1, "scale": true, "moving_mean_initializer": {"config": {}, "class_name": "Zeros"}, "epsilon": 0.001, "beta_constraint": null, "gamma_initializer": {"config": {}, "class_name": "Ones"}, "beta_initializer": {"config": {}, "class_name": "Zeros"}, "trainable": true, "gamma_regularizer": null, "momentum": 0.99, "moving_variance_initializer": {"config": {}, "class_name": "Ones"}, "center": true, "gamma_constraint": null}, "inbound_nodes": [[["11_conv_block", 0, 0, {}]]], "class_name": "BatchNormalization"}, {"name": "11_relu", "config": {"name": "11_relu", "trainable": true, "activation": "relu"}, "inbound_nodes": [[["11_batch_norm", 0, 0, {}]]], "class_name": "Activation"}, {"name": "12_conv_block", "config": {"activation": "linear", "name": "12_conv_block", "bias_regularizer": null, "bias_constraint": null, "kernel_regularizer": null, "padding": "same", "kernel_initializer": {"config": {"scale": 2.0, "distribution": "normal", "mode": "fan_in", "seed": null}, "class_name": "VarianceScaling"}, "dilation_rate": [1, 1], "kernel_constraint": null, "use_bias": true, "kernel_size": [3, 3], "trainable": true, "activity_regularizer": null, "data_format": "channels_last", "strides": [1, 1], "filters": 256, "bias_initializer": {"config": {}, "class_name": "Zeros"}}, "inbound_nodes": [[["11_relu", 0, 0, {}]]], "class_name": "Conv2D"}, {"name": "12_batch_norm", "config": {"name": "12_batch_norm", "beta_regularizer": null, "axis": -1, "scale": true, "moving_mean_initializer": {"config": {}, "class_name": "Zeros"}, "epsilon": 0.001, "beta_constraint": null, "gamma_initializer": {"config": {}, "class_name": "Ones"}, "beta_initializer": {"config": {}, "class_name": "Zeros"}, "trainable": true, "gamma_regularizer": null, "momentum": 0.99, "moving_variance_initializer": {"config": {}, "class_name": "Ones"}, "center": true, "gamma_constraint": null}, "inbound_nodes": [[["12_conv_block", 0, 0, {}]]], "class_name": "BatchNormalization"}, {"name": "12_relu", "config": {"name": "12_relu", "trainable": true, "activation": "relu"}, "inbound_nodes": [[["12_batch_norm", 0, 0, {}]]], "class_name": "Activation"}, {"name": "13_conv_block", "config": {"activation": "linear", "name": "13_conv_block", "bias_regularizer": null, "bias_constraint": null, "kernel_regularizer": null, "padding": "same", "kernel_initializer": {"config": {"scale": 2.0, "distribution": "normal", "mode": "fan_in", "seed": null}, "class_name": "VarianceScaling"}, "dilation_rate": [1, 1], "kernel_constraint": null, "use_bias": true, "kernel_size": [3, 3], "trainable": true, "activity_regularizer": null, "data_format": "channels_last", "strides": [1, 1], "filters": 256, "bias_initializer": {"config": {}, "class_name": "Zeros"}}, "inbound_nodes": [[["12_relu", 0, 0, {}]]], "class_name": "Conv2D"}, {"name": "13_batch_norm", "config": {"name": "13_batch_norm", "beta_regularizer": null, "axis": -1, "scale": true, "moving_mean_initializer": {"config": {}, "class_name": "Zeros"}, "epsilon": 0.001, "beta_constraint": null, "gamma_initializer": {"config": {}, "class_name": "Ones"}, "beta_initializer": {"config": {}, "class_name": "Zeros"}, "trainable": true, "gamma_regularizer": null, "momentum": 0.99, "moving_variance_initializer": {"config": {}, "class_name": "Ones"}, "center": true, "gamma_constraint": null}, "inbound_nodes": [[["13_conv_block", 0, 0, {}]]], "class_name": "BatchNormalization"}, {"name": "13_relu", "config": {"name": "13_relu", "trainable": true, "activation": "relu"}, "inbound_nodes": [[["13_batch_norm", 0, 0, {}]]], "class_name": "Activation"}, {"name": "14_conv_block", "config": {"activation": "linear", "name": "14_conv_block", "bias_regularizer": null, "bias_constraint": null, "kernel_regularizer": null, "padding": "same", "kernel_initializer": {"config": {"scale": 2.0, "distribution": "normal", "mode": "fan_in", "seed": null}, "class_name": "VarianceScaling"}, "dilation_rate": [1, 1], "kernel_constraint": null, "use_bias": true, "kernel_size": [3, 3], "trainable": true, "activity_regularizer": null, "data_format": "channels_last", "strides": [1, 1], "filters": 256, "bias_initializer": {"config": {}, "class_name": "Zeros"}}, "inbound_nodes": [[["13_relu", 0, 0, {}]]], "class_name": "Conv2D"}, {"name": "14_batch_norm", "config": {"name": "14_batch_norm", "beta_regularizer": null, "axis": -1, "scale": true, "moving_mean_initializer": {"config": {}, "class_name": "Zeros"}, "epsilon": 0.001, "beta_constraint": null, "gamma_initializer": {"config": {}, "class_name": "Ones"}, "beta_initializer": {"config": {}, "class_name": "Zeros"}, "trainable": true, "gamma_regularizer": null, "momentum": 0.99, "moving_variance_initializer": {"config": {}, "class_name": "Ones"}, "center": true, "gamma_constraint": null}, "inbound_nodes": [[["14_conv_block", 0, 0, {}]]], "class_name": "BatchNormalization"}, {"name": "14_relu", "config": {"name": "14_relu", "trainable": true, "activation": "relu"}, "inbound_nodes": [[["14_batch_norm", 0, 0, {}]]], "class_name": "Activation"}, {"name": "15_conv_block", "config": {"activation": "linear", "name": "15_conv_block", "bias_regularizer": null, "bias_constraint": null, "kernel_regularizer": null, "padding": "same", "kernel_initializer": {"config": {"scale": 2.0, "distribution": "normal", "mode": "fan_in", "seed": null}, "class_name": "VarianceScaling"}, "dilation_rate": [1, 1], "kernel_constraint": null, "use_bias": true, "kernel_size": [3, 3], "trainable": true, "activity_regularizer": null, "data_format": "channels_last", "strides": [1, 1], "filters": 256, "bias_initializer": {"config": {}, "class_name": "Zeros"}}, "inbound_nodes": [[["14_relu", 0, 0, {}]]], "class_name": "Conv2D"}, {"name": "15_batch_norm", "config": {"name": "15_batch_norm", "beta_regularizer": null, "axis": -1, "scale": true, "moving_mean_initializer": {"config": {}, "class_name": "Zeros"}, "epsilon": 0.001, "beta_constraint": null, "gamma_initializer": {"config": {}, "class_name": "Ones"}, "beta_initializer": {"config": {}, "class_name": "Zeros"}, "trainable": true, "gamma_regularizer": null, "momentum": 0.99, "moving_variance_initializer": {"config": {}, "class_name": "Ones"}, "center": true, "gamma_constraint": null}, "inbound_nodes": [[["15_conv_block", 0, 0, {}]]], "class_name": "BatchNormalization"}, {"name": "15_relu", "config": {"name": "15_relu", "trainable": true, "activation": "relu"}, "inbound_nodes": [[["15_batch_norm", 0, 0, {}]]], "class_name": "Activation"}, {"name": "16_conv_block", "config": {"activation": "linear", "name": "16_conv_block", "bias_regularizer": null, "bias_constraint": null, "kernel_regularizer": null, "padding": "same", "kernel_initializer": {"config": {"scale": 2.0, "distribution": "normal", "mode": "fan_in", "seed": null}, "class_name": "VarianceScaling"}, "dilation_rate": [1, 1], "kernel_constraint": null, "use_bias": true, "kernel_size": [3, 3], "trainable": true, "activity_regularizer": null, "data_format": "channels_last", "strides": [1, 1], "filters": 256, "bias_initializer": {"config": {}, "class_name": "Zeros"}}, "inbound_nodes": [[["15_relu", 0, 0, {}]]], "class_name": "Conv2D"}, {"name": "16_batch_norm", "config": {"name": "16_batch_norm", "beta_regularizer": null, "axis": -1, "scale": true, "moving_mean_initializer": {"config": {}, "class_name": "Zeros"}, "epsilon": 0.001, "beta_constraint": null, "gamma_initializer": {"config": {}, "class_name": "Ones"}, "beta_initializer": {"config": {}, "class_name": "Zeros"}, "trainable": true, "gamma_regularizer": null, "momentum": 0.99, "moving_variance_initializer": {"config": {}, "class_name": "Ones"}, "center": true, "gamma_constraint": null}, "inbound_nodes": [[["16_conv_block", 0, 0, {}]]], "class_name": "BatchNormalization"}, {"name": "16_relu", "config": {"name": "16_relu", "trainable": true, "activation": "relu"}, "inbound_nodes": [[["16_batch_norm", 0, 0, {}]]], "class_name": "Activation"}, {"name": "17_conv_block", "config": {"activation": "linear", "name": "17_conv_block", "bias_regularizer": null, "bias_constraint": null, "kernel_regularizer": null, "padding": "same", "kernel_initializer": {"config": {"scale": 2.0, "distribution": "normal", "mode": "fan_in", "seed": null}, "class_name": "VarianceScaling"}, "dilation_rate": [1, 1], "kernel_constraint": null, "use_bias": true, "kernel_size": [3, 3], "trainable": true, "activity_regularizer": null, "data_format": "channels_last", "strides": [1, 1], "filters": 256, "bias_initializer": {"config": {}, "class_name": "Zeros"}}, "inbound_nodes": [[["16_relu", 0, 0, {}]]], "class_name": "Conv2D"}, {"name": "17_batch_norm", "config": {"name": "17_batch_norm", "beta_regularizer": null, "axis": -1, "scale": true, "moving_mean_initializer": {"config": {}, "class_name": "Zeros"}, "epsilon": 0.001, "beta_constraint": null, "gamma_initializer": {"config": {}, "class_name": "Ones"}, "beta_initializer": {"config": {}, "class_name": "Zeros"}, "trainable": true, "gamma_regularizer": null, "momentum": 0.99, "moving_variance_initializer": {"config": {}, "class_name": "Ones"}, "center": true, "gamma_constraint": null}, "inbound_nodes": [[["17_conv_block", 0, 0, {}]]], "class_name": "BatchNormalization"}, {"name": "17_relu", "config": {"name": "17_relu", "trainable": true, "activation": "relu"}, "inbound_nodes": [[["17_batch_norm", 0, 0, {}]]], "class_name": "Activation"}, {"name": "18_conv_block", "config": {"activation": "linear", "name": "18_conv_block", "bias_regularizer": null, "bias_constraint": null, "kernel_regularizer": null, "padding": "same", "kernel_initializer": {"config": {"scale": 2.0, "distribution": "normal", "mode": "fan_in", "seed": null}, "class_name": "VarianceScaling"}, "dilation_rate": [1, 1], "kernel_constraint": null, "use_bias": true, "kernel_size": [3, 3], "trainable": true, "activity_regularizer": null, "data_format": "channels_last", "strides": [1, 1], "filters": 256, "bias_initializer": {"config": {}, "class_name": "Zeros"}}, "inbound_nodes": [[["17_relu", 0, 0, {}]]], "class_name": "Conv2D"}, {"name": "18_batch_norm", "config": {"name": "18_batch_norm", "beta_regularizer": null, "axis": -1, "scale": true, "moving_mean_initializer": {"config": {}, "class_name": "Zeros"}, "epsilon": 0.001, "beta_constraint": null, "gamma_initializer": {"config": {}, "class_name": "Ones"}, "beta_initializer": {"config": {}, "class_name": "Zeros"}, "trainable": true, "gamma_regularizer": null, "momentum": 0.99, "moving_variance_initializer": {"config": {}, "class_name": "Ones"}, "center": true, "gamma_constraint": null}, "inbound_nodes": [[["18_conv_block", 0, 0, {}]]], "class_name": "BatchNormalization"}, {"name": "18_relu", "config": {"name": "18_relu", "trainable": true, "activation": "relu"}, "inbound_nodes": [[["18_batch_norm", 0, 0, {}]]], "class_name": "Activation"}, {"name": "19_conv_block", "config": {"activation": "linear", "name": "19_conv_block", "bias_regularizer": null, "bias_constraint": null, "kernel_regularizer": null, "padding": "same", "kernel_initializer": {"config": {"scale": 2.0, "distribution": "normal", "mode": "fan_in", "seed": null}, "class_name": "VarianceScaling"}, "dilation_rate": [1, 1], "kernel_constraint": null, "use_bias": true, "kernel_size": [3, 3], "trainable": true, "activity_regularizer": null, "data_format": "channels_last", "strides": [1, 1], "filters": 256, "bias_initializer": {"config": {}, "class_name": "Zeros"}}, "inbound_nodes": [[["18_relu", 0, 0, {}]]], "class_name": "Conv2D"}, {"name": "19_batch_norm", "config": {"name": "19_batch_norm", "beta_regularizer": null, "axis": -1, "scale": true, "moving_mean_initializer": {"config": {}, "class_name": "Zeros"}, "epsilon": 0.001, "beta_constraint": null, "gamma_initializer": {"config": {}, "class_name": "Ones"}, "beta_initializer": {"config": {}, "class_name": "Zeros"}, "trainable": true, "gamma_regularizer": null, "momentum": 0.99, "moving_variance_initializer": {"config": {}, "class_name": "Ones"}, "center": true, "gamma_constraint": null}, "inbound_nodes": [[["19_conv_block", 0, 0, {}]]], "class_name": "BatchNormalization"}, {"name": "19_relu", "config": {"name": "19_relu", "trainable": true, "activation": "relu"}, "inbound_nodes": [[["19_batch_norm", 0, 0, {}]]], "class_name": "Activation"}, {"name": "policy_head_conv_block", "config": {"activation": "linear", "name": "policy_head_conv_block", "bias_regularizer": null, "bias_constraint": null, "kernel_regularizer": null, "padding": "same", "kernel_initializer": {"config": {"scale": 1.0, "distribution": "uniform", "mode": "fan_avg", "seed": null}, "class_name": "VarianceScaling"}, "dilation_rate": [1, 1], "kernel_constraint": null, "use_bias": true, "kernel_size": [3, 3], "trainable": true, "activity_regularizer": null, "data_format": "channels_last", "strides": [1, 1], "filters": 2, "bias_initializer": {"config": {}, "class_name": "Zeros"}}, "inbound_nodes": [[["19_relu", 0, 0, {}]]], "class_name": "Conv2D"}, {"name": "policy_head_batch_norm", "config": {"name": "policy_head_batch_norm", "beta_regularizer": null, "axis": -1, "scale": true, "moving_mean_initializer": {"config": {}, "class_name": "Zeros"}, "epsilon": 0.001, "beta_constraint": null, "gamma_initializer": {"config": {}, "class_name": "Ones"}, "beta_initializer": {"config": {}, "class_name": "Zeros"}, "trainable": true, "gamma_regularizer": null, "momentum": 0.99, "moving_variance_initializer": {"config": {}, "class_name": "Ones"}, "center": true, "gamma_constraint": null}, "inbound_nodes": [[["policy_head_conv_block", 0, 0, {}]]], "class_name": "BatchNormalization"}, {"name": "policy_head_relu", "config": {"name": "policy_head_relu", "trainable": true, "activation": "relu"}, "inbound_nodes": [[["policy_head_batch_norm", 0, 0, {}]]], "class_name": "Activation"}, {"name": "flatten_7", "config": {"name": "flatten_7", "trainable": true, "data_format": "channels_last"}, "inbound_nodes": [[["policy_head_relu", 0, 0, {}]]], "class_name": "Flatten"}, {"name": "policy_head_dense", "config": {"name": "policy_head_dense", "bias_regularizer": null, "kernel_initializer": {"config": {"scale": 1.0, "distribution": "uniform", "mode": "fan_avg", "seed": null}, "class_name": "VarianceScaling"}, "kernel_regularizer": null, "activity_regularizer": null, "kernel_constraint": null, "use_bias": true, "units": 362, "bias_constraint": null, "activation": "linear", "bias_initializer": {"config": {}, "class_name": "Zeros"}, "trainable": true}, "inbound_nodes": [[["flatten_7", 0, 0, {}]]], "class_name": "Dense"}], "name": "model_5", "input_layers": [["input_5", 0, 0]], "output_layers": [["policy_head_dense", 0, 0]]}, "backend": "tensorflow", "class_name": "Model"}