{"keras_version": "2.2.0", "config": {"layers": [{"name": "input_2", "config": {"batch_input_shape": [null, 10, 19, 19], "name": "input_2", "sparse": false, "dtype": "float32"}, "inbound_nodes": [], "class_name": "InputLayer"}, {"name": "init_conv_block", "config": {"activation": "linear", "name": "init_conv_block", "bias_regularizer": null, "bias_constraint": null, "kernel_regularizer": null, "padding": "same", "kernel_initializer": {"config": {"scale": 2.0, "distribution": "normal", "mode": "fan_in", "seed": null}, "class_name": "VarianceScaling"}, "dilation_rate": [1, 1], "kernel_constraint": null, "use_bias": true, "kernel_size": [3, 3], "trainable": true, "activity_regularizer": null, "data_format": "channels_last", "strides": [1, 1], "filters": 256, "bias_initializer": {"config": {}, "class_name": "Zeros"}}, "inbound_nodes": [[["input_2", 0, 0, {}]]], "class_name": "Conv2D"}, {"name": "init_batch_norm", "config": {"name": "init_batch_norm", "beta_regularizer": null, "axis": -1, "scale": true, "moving_mean_initializer": {"config": {}, "class_name": "Zeros"}, "epsilon": 0.001, "beta_constraint": null, "gamma_initializer": {"config": {}, "class_name": "Ones"}, "beta_initializer": {"config": {}, "class_name": "Zeros"}, "trainable": true, "gamma_regularizer": null, "momentum": 0.99, "moving_variance_initializer": {"config": {}, "class_name": "Ones"}, "center": true, "gamma_constraint": null}, "inbound_nodes": [[["init_conv_block", 0, 0, {}]]], "class_name": "BatchNormalization"}, {"name": "init_relu", "config": {"name": "init_relu", "trainable": true, "activation": "relu"}, "inbound_nodes": [[["init_batch_norm", 0, 0, {}]]], "class_name": "Activation"}, {"name": "residual_1_0_conv_block", "config": {"activation": "linear", "name": "residual_1_0_conv_block", "bias_regularizer": null, "bias_constraint": null, "kernel_regularizer": null, "padding": "same", "kernel_initializer": {"config": {"scale": 2.0, "distribution": "normal", "mode": "fan_in", "seed": null}, "class_name": "VarianceScaling"}, "dilation_rate": [1, 1], "kernel_constraint": null, "use_bias": true, "kernel_size": [3, 3], "trainable": true, "activity_regularizer": null, "data_format": "channels_last", "strides": [1, 1], "filters": 256, "bias_initializer": {"config": {}, "class_name": "Zeros"}}, "inbound_nodes": [[["init_relu", 0, 0, {}]]], "class_name": "Conv2D"}, {"name": "residual_1_0_batch_norm", "config": {"name": "residual_1_0_batch_norm", "beta_regularizer": null, "axis": -1, "scale": true, "moving_mean_initializer": {"config": {}, "class_name": "Zeros"}, "epsilon": 0.001, "beta_constraint": null, "gamma_initializer": {"config": {}, "class_name": "Ones"}, "beta_initializer": {"config": {}, "class_name": "Zeros"}, "trainable": true, "gamma_regularizer": null, "momentum": 0.99, "moving_variance_initializer": {"config": {}, "class_name": "Ones"}, "center": true, "gamma_constraint": null}, "inbound_nodes": [[["residual_1_0_conv_block", 0, 0, {}]]], "class_name": "BatchNormalization"}, {"name": "residual_1_0_relu", "config": {"name": "residual_1_0_relu", "trainable": true, "activation": "relu"}, "inbound_nodes": [[["residual_1_0_batch_norm", 0, 0, {}]]], "class_name": "Activation"}, {"name": "residual_2_0_conv_block", "config": {"activation": "linear", "name": "residual_2_0_conv_block", "bias_regularizer": null, "bias_constraint": null, "kernel_regularizer": null, "padding": "same", "kernel_initializer": {"config": {"scale": 2.0, "distribution": "normal", "mode": "fan_in", "seed": null}, "class_name": "VarianceScaling"}, "dilation_rate": [1, 1], "kernel_constraint": null, "use_bias": true, "kernel_size": [3, 3], "trainable": true, "activity_regularizer": null, "data_format": "channels_last", "strides": [1, 1], "filters": 256, "bias_initializer": {"config": {}, "class_name": "Zeros"}}, "inbound_nodes": [[["residual_1_0_relu", 0, 0, {}]]], "class_name": "Conv2D"}, {"name": "residual_2_0_batch_norm", "config": {"name": "residual_2_0_batch_norm", "beta_regularizer": null, "axis": -1, "scale": true, "moving_mean_initializer": {"config": {}, "class_name": "Zeros"}, "epsilon": 0.001, "beta_constraint": null, "gamma_initializer": {"config": {}, "class_name": "Ones"}, "beta_initializer": {"config": {}, "class_name": "Zeros"}, "trainable": true, "gamma_regularizer": null, "momentum": 0.99, "moving_variance_initializer": {"config": {}, "class_name": "Ones"}, "center": true, "gamma_constraint": null}, "inbound_nodes": [[["residual_2_0_conv_block", 0, 0, {}]]], "class_name": "BatchNormalization"}, {"name": "add_0", "config": {"name": "add_0", "trainable": true}, "inbound_nodes": [[["init_relu", 0, 0, {}], ["residual_2_0_batch_norm", 0, 0, {}]]], "class_name": "Add"}, {"name": "0_relu", "config": {"name": "0_relu", "trainable": true, "activation": "relu"}, "inbound_nodes": [[["add_0", 0, 0, {}]]], "class_name": "Activation"}, {"name": "residual_1_1_conv_block", "config": {"activation": "linear", "name": "residual_1_1_conv_block", "bias_regularizer": null, "bias_constraint": null, "kernel_regularizer": null, "padding": "same", "kernel_initializer": {"config": {"scale": 2.0, "distribution": "normal", "mode": "fan_in", "seed": null}, "class_name": "VarianceScaling"}, "dilation_rate": [1, 1], "kernel_constraint": null, "use_bias": true, "kernel_size": [3, 3], "trainable": true, "activity_regularizer": null, "data_format": "channels_last", "strides": [1, 1], "filters": 256, "bias_initializer": {"config": {}, "class_name": "Zeros"}}, "inbound_nodes": [[["0_relu", 0, 0, {}]]], "class_name": "Conv2D"}, {"name": "residual_1_1_batch_norm", "config": {"name": "residual_1_1_batch_norm", "beta_regularizer": null, "axis": -1, "scale": true, "moving_mean_initializer": {"config": {}, "class_name": "Zeros"}, "epsilon": 0.001, "beta_constraint": null, "gamma_initializer": {"config": {}, "class_name": "Ones"}, "beta_initializer": {"config": {}, "class_name": "Zeros"}, "trainable": true, "gamma_regularizer": null, "momentum": 0.99, "moving_variance_initializer": {"config": {}, "class_name": "Ones"}, "center": true, "gamma_constraint": null}, "inbound_nodes": [[["residual_1_1_conv_block", 0, 0, {}]]], "class_name": "BatchNormalization"}, {"name": "residual_1_1_relu", "config": {"name": "residual_1_1_relu", "trainable": true, "activation": "relu"}, "inbound_nodes": [[["residual_1_1_batch_norm", 0, 0, {}]]], "class_name": "Activation"}, {"name": "residual_2_1_conv_block", "config": {"activation": "linear", "name": "residual_2_1_conv_block", "bias_regularizer": null, "bias_constraint": null, "kernel_regularizer": null, "padding": "same", "kernel_initializer": {"config": {"scale": 2.0, "distribution": "normal", "mode": "fan_in", "seed": null}, "class_name": "VarianceScaling"}, "dilation_rate": [1, 1], "kernel_constraint": null, "use_bias": true, "kernel_size": [3, 3], "trainable": true, "activity_regularizer": null, "data_format": "channels_last", "strides": [1, 1], "filters": 256, "bias_initializer": {"config": {}, "class_name": "Zeros"}}, "inbound_nodes": [[["residual_1_1_relu", 0, 0, {}]]], "class_name": "Conv2D"}, {"name": "residual_2_1_batch_norm", "config": {"name": "residual_2_1_batch_norm", "beta_regularizer": null, "axis": -1, "scale": true, "moving_mean_initializer": {"config": {}, "class_name": "Zeros"}, "epsilon": 0.001, "beta_constraint": null, "gamma_initializer": {"config": {}, "class_name": "Ones"}, "beta_initializer": {"config": {}, "class_name": "Zeros"}, "trainable": true, "gamma_regularizer": null, "momentum": 0.99, "moving_variance_initializer": {"config": {}, "class_name": "Ones"}, "center": true, "gamma_constraint": null}, "inbound_nodes": [[["residual_2_1_conv_block", 0, 0, {}]]], "class_name": "BatchNormalization"}, {"name": "add_1", "config": {"name": "add_1", "trainable": true}, "inbound_nodes": [[["0_relu", 0, 0, {}], ["residual_2_1_batch_norm", 0, 0, {}]]], "class_name": "Add"}, {"name": "1_relu", "config": {"name": "1_relu", "trainable": true, "activation": "relu"}, "inbound_nodes": [[["add_1", 0, 0, {}]]], "class_name": "Activation"}, {"name": "residual_1_2_conv_block", "config": {"activation": "linear", "name": "residual_1_2_conv_block", "bias_regularizer": null, "bias_constraint": null, "kernel_regularizer": null, "padding": "same", "kernel_initializer": {"config": {"scale": 2.0, "distribution": "normal", "mode": "fan_in", "seed": null}, "class_name": "VarianceScaling"}, "dilation_rate": [1, 1], "kernel_constraint": null, "use_bias": true, "kernel_size": [3, 3], "trainable": true, "activity_regularizer": null, "data_format": "channels_last", "strides": [1, 1], "filters": 256, "bias_initializer": {"config": {}, "class_name": "Zeros"}}, "inbound_nodes": [[["1_relu", 0, 0, {}]]], "class_name": "Conv2D"}, {"name": "residual_1_2_batch_norm", "config": {"name": "residual_1_2_batch_norm", "beta_regularizer": null, "axis": -1, "scale": true, "moving_mean_initializer": {"config": {}, "class_name": "Zeros"}, "epsilon": 0.001, "beta_constraint": null, "gamma_initializer": {"config": {}, "class_name": "Ones"}, "beta_initializer": {"config": {}, "class_name": "Zeros"}, "trainable": true, "gamma_regularizer": null, "momentum": 0.99, "moving_variance_initializer": {"config": {}, "class_name": "Ones"}, "center": true, "gamma_constraint": null}, "inbound_nodes": [[["residual_1_2_conv_block", 0, 0, {}]]], "class_name": "BatchNormalization"}, {"name": "residual_1_2_relu", "config": {"name": "residual_1_2_relu", "trainable": true, "activation": "relu"}, "inbound_nodes": [[["residual_1_2_batch_norm", 0, 0, {}]]], "class_name": "Activation"}, {"name": "residual_2_2_conv_block", "config": {"activation": "linear", "name": "residual_2_2_conv_block", "bias_regularizer": null, "bias_constraint": null, "kernel_regularizer": null, "padding": "same", "kernel_initializer": {"config": {"scale": 2.0, "distribution": "normal", "mode": "fan_in", "seed": null}, "class_name": "VarianceScaling"}, "dilation_rate": [1, 1], "kernel_constraint": null, "use_bias": true, "kernel_size": [3, 3], "trainable": true, "activity_regularizer": null, "data_format": "channels_last", "strides": [1, 1], "filters": 256, "bias_initializer": {"config": {}, "class_name": "Zeros"}}, "inbound_nodes": [[["residual_1_2_relu", 0, 0, {}]]], "class_name": "Conv2D"}, {"name": "residual_2_2_batch_norm", "config": {"name": "residual_2_2_batch_norm", "beta_regularizer": null, "axis": -1, "scale": true, "moving_mean_initializer": {"config": {}, "class_name": "Zeros"}, "epsilon": 0.001, "beta_constraint": null, "gamma_initializer": {"config": {}, "class_name": "Ones"}, "beta_initializer": {"config": {}, "class_name": "Zeros"}, "trainable": true, "gamma_regularizer": null, "momentum": 0.99, "moving_variance_initializer": {"config": {}, "class_name": "Ones"}, "center": true, "gamma_constraint": null}, "inbound_nodes": [[["residual_2_2_conv_block", 0, 0, {}]]], "class_name": "BatchNormalization"}, {"name": "add_2", "config": {"name": "add_2", "trainable": true}, "inbound_nodes": [[["1_relu", 0, 0, {}], ["residual_2_2_batch_norm", 0, 0, {}]]], "class_name": "Add"}, {"name": "2_relu", "config": {"name": "2_relu", "trainable": true, "activation": "relu"}, "inbound_nodes": [[["add_2", 0, 0, {}]]], "class_name": "Activation"}, {"name": "residual_1_3_conv_block", "config": {"activation": "linear", "name": "residual_1_3_conv_block", "bias_regularizer": null, "bias_constraint": null, "kernel_regularizer": null, "padding": "same", "kernel_initializer": {"config": {"scale": 2.0, "distribution": "normal", "mode": "fan_in", "seed": null}, "class_name": "VarianceScaling"}, "dilation_rate": [1, 1], "kernel_constraint": null, "use_bias": true, "kernel_size": [3, 3], "trainable": true, "activity_regularizer": null, "data_format": "channels_last", "strides": [1, 1], "filters": 256, "bias_initializer": {"config": {}, "class_name": "Zeros"}}, "inbound_nodes": [[["2_relu", 0, 0, {}]]], "class_name": "Conv2D"}, {"name": "residual_1_3_batch_norm", "config": {"name": "residual_1_3_batch_norm", "beta_regularizer": null, "axis": -1, "scale": true, "moving_mean_initializer": {"config": {}, "class_name": "Zeros"}, "epsilon": 0.001, "beta_constraint": null, "gamma_initializer": {"config": {}, "class_name": "Ones"}, "beta_initializer": {"config": {}, "class_name": "Zeros"}, "trainable": true, "gamma_regularizer": null, "momentum": 0.99, "moving_variance_initializer": {"config": {}, "class_name": "Ones"}, "center": true, "gamma_constraint": null}, "inbound_nodes": [[["residual_1_3_conv_block", 0, 0, {}]]], "class_name": "BatchNormalization"}, {"name": "residual_1_3_relu", "config": {"name": "residual_1_3_relu", "trainable": true, "activation": "relu"}, "inbound_nodes": [[["residual_1_3_batch_norm", 0, 0, {}]]], "class_name": "Activation"}, {"name": "residual_2_3_conv_block", "config": {"activation": "linear", "name": "residual_2_3_conv_block", "bias_regularizer": null, "bias_constraint": null, "kernel_regularizer": null, "padding": "same", "kernel_initializer": {"config": {"scale": 2.0, "distribution": "normal", "mode": "fan_in", "seed": null}, "class_name": "VarianceScaling"}, "dilation_rate": [1, 1], "kernel_constraint": null, "use_bias": true, "kernel_size": [3, 3], "trainable": true, "activity_regularizer": null, "data_format": "channels_last", "strides": [1, 1], "filters": 256, "bias_initializer": {"config": {}, "class_name": "Zeros"}}, "inbound_nodes": [[["residual_1_3_relu", 0, 0, {}]]], "class_name": "Conv2D"}, {"name": "residual_2_3_batch_norm", "config": {"name": "residual_2_3_batch_norm", "beta_regularizer": null, "axis": -1, "scale": true, "moving_mean_initializer": {"config": {}, "class_name": "Zeros"}, "epsilon": 0.001, "beta_constraint": null, "gamma_initializer": {"config": {}, "class_name": "Ones"}, "beta_initializer": {"config": {}, "class_name": "Zeros"}, "trainable": true, "gamma_regularizer": null, "momentum": 0.99, "moving_variance_initializer": {"config": {}, "class_name": "Ones"}, "center": true, "gamma_constraint": null}, "inbound_nodes": [[["residual_2_3_conv_block", 0, 0, {}]]], "class_name": "BatchNormalization"}, {"name": "add_3", "config": {"name": "add_3", "trainable": true}, "inbound_nodes": [[["2_relu", 0, 0, {}], ["residual_2_3_batch_norm", 0, 0, {}]]], "class_name": "Add"}, {"name": "3_relu", "config": {"name": "3_relu", "trainable": true, "activation": "relu"}, "inbound_nodes": [[["add_3", 0, 0, {}]]], "class_name": "Activation"}, {"name": "residual_1_4_conv_block", "config": {"activation": "linear", "name": "residual_1_4_conv_block", "bias_regularizer": null, "bias_constraint": null, "kernel_regularizer": null, "padding": "same", "kernel_initializer": {"config": {"scale": 2.0, "distribution": "normal", "mode": "fan_in", "seed": null}, "class_name": "VarianceScaling"}, "dilation_rate": [1, 1], "kernel_constraint": null, "use_bias": true, "kernel_size": [3, 3], "trainable": true, "activity_regularizer": null, "data_format": "channels_last", "strides": [1, 1], "filters": 256, "bias_initializer": {"config": {}, "class_name": "Zeros"}}, "inbound_nodes": [[["3_relu", 0, 0, {}]]], "class_name": "Conv2D"}, {"name": "residual_1_4_batch_norm", "config": {"name": "residual_1_4_batch_norm", "beta_regularizer": null, "axis": -1, "scale": true, "moving_mean_initializer": {"config": {}, "class_name": "Zeros"}, "epsilon": 0.001, "beta_constraint": null, "gamma_initializer": {"config": {}, "class_name": "Ones"}, "beta_initializer": {"config": {}, "class_name": "Zeros"}, "trainable": true, "gamma_regularizer": null, "momentum": 0.99, "moving_variance_initializer": {"config": {}, "class_name": "Ones"}, "center": true, "gamma_constraint": null}, "inbound_nodes": [[["residual_1_4_conv_block", 0, 0, {}]]], "class_name": "BatchNormalization"}, {"name": "residual_1_4_relu", "config": {"name": "residual_1_4_relu", "trainable": true, "activation": "relu"}, "inbound_nodes": [[["residual_1_4_batch_norm", 0, 0, {}]]], "class_name": "Activation"}, {"name": "residual_2_4_conv_block", "config": {"activation": "linear", "name": "residual_2_4_conv_block", "bias_regularizer": null, "bias_constraint": null, "kernel_regularizer": null, "padding": "same", "kernel_initializer": {"config": {"scale": 2.0, "distribution": "normal", "mode": "fan_in", "seed": null}, "class_name": "VarianceScaling"}, "dilation_rate": [1, 1], "kernel_constraint": null, "use_bias": true, "kernel_size": [3, 3], "trainable": true, "activity_regularizer": null, "data_format": "channels_last", "strides": [1, 1], "filters": 256, "bias_initializer": {"config": {}, "class_name": "Zeros"}}, "inbound_nodes": [[["residual_1_4_relu", 0, 0, {}]]], "class_name": "Conv2D"}, {"name": "residual_2_4_batch_norm", "config": {"name": "residual_2_4_batch_norm", "beta_regularizer": null, "axis": -1, "scale": true, "moving_mean_initializer": {"config": {}, "class_name": "Zeros"}, "epsilon": 0.001, "beta_constraint": null, "gamma_initializer": {"config": {}, "class_name": "Ones"}, "beta_initializer": {"config": {}, "class_name": "Zeros"}, "trainable": true, "gamma_regularizer": null, "momentum": 0.99, "moving_variance_initializer": {"config": {}, "class_name": "Ones"}, "center": true, "gamma_constraint": null}, "inbound_nodes": [[["residual_2_4_conv_block", 0, 0, {}]]], "class_name": "BatchNormalization"}, {"name": "add_4", "config": {"name": "add_4", "trainable": true}, "inbound_nodes": [[["3_relu", 0, 0, {}], ["residual_2_4_batch_norm", 0, 0, {}]]], "class_name": "Add"}, {"name": "4_relu", "config": {"name": "4_relu", "trainable": true, "activation": "relu"}, "inbound_nodes": [[["add_4", 0, 0, {}]]], "class_name": "Activation"}, {"name": "residual_1_5_conv_block", "config": {"activation": "linear", "name": "residual_1_5_conv_block", "bias_regularizer": null, "bias_constraint": null, "kernel_regularizer": null, "padding": "same", "kernel_initializer": {"config": {"scale": 2.0, "distribution": "normal", "mode": "fan_in", "seed": null}, "class_name": "VarianceScaling"}, "dilation_rate": [1, 1], "kernel_constraint": null, "use_bias": true, "kernel_size": [3, 3], "trainable": true, "activity_regularizer": null, "data_format": "channels_last", "strides": [1, 1], "filters": 256, "bias_initializer": {"config": {}, "class_name": "Zeros"}}, "inbound_nodes": [[["4_relu", 0, 0, {}]]], "class_name": "Conv2D"}, {"name": "residual_1_5_batch_norm", "config": {"name": "residual_1_5_batch_norm", "beta_regularizer": null, "axis": -1, "scale": true, "moving_mean_initializer": {"config": {}, "class_name": "Zeros"}, "epsilon": 0.001, "beta_constraint": null, "gamma_initializer": {"config": {}, "class_name": "Ones"}, "beta_initializer": {"config": {}, "class_name": "Zeros"}, "trainable": true, "gamma_regularizer": null, "momentum": 0.99, "moving_variance_initializer": {"config": {}, "class_name": "Ones"}, "center": true, "gamma_constraint": null}, "inbound_nodes": [[["residual_1_5_conv_block", 0, 0, {}]]], "class_name": "BatchNormalization"}, {"name": "residual_1_5_relu", "config": {"name": "residual_1_5_relu", "trainable": true, "activation": "relu"}, "inbound_nodes": [[["residual_1_5_batch_norm", 0, 0, {}]]], "class_name": "Activation"}, {"name": "residual_2_5_conv_block", "config": {"activation": "linear", "name": "residual_2_5_conv_block", "bias_regularizer": null, "bias_constraint": null, "kernel_regularizer": null, "padding": "same", "kernel_initializer": {"config": {"scale": 2.0, "distribution": "normal", "mode": "fan_in", "seed": null}, "class_name": "VarianceScaling"}, "dilation_rate": [1, 1], "kernel_constraint": null, "use_bias": true, "kernel_size": [3, 3], "trainable": true, "activity_regularizer": null, "data_format": "channels_last", "strides": [1, 1], "filters": 256, "bias_initializer": {"config": {}, "class_name": "Zeros"}}, "inbound_nodes": [[["residual_1_5_relu", 0, 0, {}]]], "class_name": "Conv2D"}, {"name": "residual_2_5_batch_norm", "config": {"name": "residual_2_5_batch_norm", "beta_regularizer": null, "axis": -1, "scale": true, "moving_mean_initializer": {"config": {}, "class_name": "Zeros"}, "epsilon": 0.001, "beta_constraint": null, "gamma_initializer": {"config": {}, "class_name": "Ones"}, "beta_initializer": {"config": {}, "class_name": "Zeros"}, "trainable": true, "gamma_regularizer": null, "momentum": 0.99, "moving_variance_initializer": {"config": {}, "class_name": "Ones"}, "center": true, "gamma_constraint": null}, "inbound_nodes": [[["residual_2_5_conv_block", 0, 0, {}]]], "class_name": "BatchNormalization"}, {"name": "add_5", "config": {"name": "add_5", "trainable": true}, "inbound_nodes": [[["4_relu", 0, 0, {}], ["residual_2_5_batch_norm", 0, 0, {}]]], "class_name": "Add"}, {"name": "5_relu", "config": {"name": "5_relu", "trainable": true, "activation": "relu"}, "inbound_nodes": [[["add_5", 0, 0, {}]]], "class_name": "Activation"}, {"name": "residual_1_6_conv_block", "config": {"activation": "linear", "name": "residual_1_6_conv_block", "bias_regularizer": null, "bias_constraint": null, "kernel_regularizer": null, "padding": "same", "kernel_initializer": {"config": {"scale": 2.0, "distribution": "normal", "mode": "fan_in", "seed": null}, "class_name": "VarianceScaling"}, "dilation_rate": [1, 1], "kernel_constraint": null, "use_bias": true, "kernel_size": [3, 3], "trainable": true, "activity_regularizer": null, "data_format": "channels_last", "strides": [1, 1], "filters": 256, "bias_initializer": {"config": {}, "class_name": "Zeros"}}, "inbound_nodes": [[["5_relu", 0, 0, {}]]], "class_name": "Conv2D"}, {"name": "residual_1_6_batch_norm", "config": {"name": "residual_1_6_batch_norm", "beta_regularizer": null, "axis": -1, "scale": true, "moving_mean_initializer": {"config": {}, "class_name": "Zeros"}, "epsilon": 0.001, "beta_constraint": null, "gamma_initializer": {"config": {}, "class_name": "Ones"}, "beta_initializer": {"config": {}, "class_name": "Zeros"}, "trainable": true, "gamma_regularizer": null, "momentum": 0.99, "moving_variance_initializer": {"config": {}, "class_name": "Ones"}, "center": true, "gamma_constraint": null}, "inbound_nodes": [[["residual_1_6_conv_block", 0, 0, {}]]], "class_name": "BatchNormalization"}, {"name": "residual_1_6_relu", "config": {"name": "residual_1_6_relu", "trainable": true, "activation": "relu"}, "inbound_nodes": [[["residual_1_6_batch_norm", 0, 0, {}]]], "class_name": "Activation"}, {"name": "residual_2_6_conv_block", "config": {"activation": "linear", "name": "residual_2_6_conv_block", "bias_regularizer": null, "bias_constraint": null, "kernel_regularizer": null, "padding": "same", "kernel_initializer": {"config": {"scale": 2.0, "distribution": "normal", "mode": "fan_in", "seed": null}, "class_name": "VarianceScaling"}, "dilation_rate": [1, 1], "kernel_constraint": null, "use_bias": true, "kernel_size": [3, 3], "trainable": true, "activity_regularizer": null, "data_format": "channels_last", "strides": [1, 1], "filters": 256, "bias_initializer": {"config": {}, "class_name": "Zeros"}}, "inbound_nodes": [[["residual_1_6_relu", 0, 0, {}]]], "class_name": "Conv2D"}, {"name": "residual_2_6_batch_norm", "config": {"name": "residual_2_6_batch_norm", "beta_regularizer": null, "axis": -1, "scale": true, "moving_mean_initializer": {"config": {}, "class_name": "Zeros"}, "epsilon": 0.001, "beta_constraint": null, "gamma_initializer": {"config": {}, "class_name": "Ones"}, "beta_initializer": {"config": {}, "class_name": "Zeros"}, "trainable": true, "gamma_regularizer": null, "momentum": 0.99, "moving_variance_initializer": {"config": {}, "class_name": "Ones"}, "center": true, "gamma_constraint": null}, "inbound_nodes": [[["residual_2_6_conv_block", 0, 0, {}]]], "class_name": "BatchNormalization"}, {"name": "add_6", "config": {"name": "add_6", "trainable": true}, "inbound_nodes": [[["5_relu", 0, 0, {}], ["residual_2_6_batch_norm", 0, 0, {}]]], "class_name": "Add"}, {"name": "6_relu", "config": {"name": "6_relu", "trainable": true, "activation": "relu"}, "inbound_nodes": [[["add_6", 0, 0, {}]]], "class_name": "Activation"}, {"name": "residual_1_7_conv_block", "config": {"activation": "linear", "name": "residual_1_7_conv_block", "bias_regularizer": null, "bias_constraint": null, "kernel_regularizer": null, "padding": "same", "kernel_initializer": {"config": {"scale": 2.0, "distribution": "normal", "mode": "fan_in", "seed": null}, "class_name": "VarianceScaling"}, "dilation_rate": [1, 1], "kernel_constraint": null, "use_bias": true, "kernel_size": [3, 3], "trainable": true, "activity_regularizer": null, "data_format": "channels_last", "strides": [1, 1], "filters": 256, "bias_initializer": {"config": {}, "class_name": "Zeros"}}, "inbound_nodes": [[["6_relu", 0, 0, {}]]], "class_name": "Conv2D"}, {"name": "residual_1_7_batch_norm", "config": {"name": "residual_1_7_batch_norm", "beta_regularizer": null, "axis": -1, "scale": true, "moving_mean_initializer": {"config": {}, "class_name": "Zeros"}, "epsilon": 0.001, "beta_constraint": null, "gamma_initializer": {"config": {}, "class_name": "Ones"}, "beta_initializer": {"config": {}, "class_name": "Zeros"}, "trainable": true, "gamma_regularizer": null, "momentum": 0.99, "moving_variance_initializer": {"config": {}, "class_name": "Ones"}, "center": true, "gamma_constraint": null}, "inbound_nodes": [[["residual_1_7_conv_block", 0, 0, {}]]], "class_name": "BatchNormalization"}, {"name": "residual_1_7_relu", "config": {"name": "residual_1_7_relu", "trainable": true, "activation": "relu"}, "inbound_nodes": [[["residual_1_7_batch_norm", 0, 0, {}]]], "class_name": "Activation"}, {"name": "residual_2_7_conv_block", "config": {"activation": "linear", "name": "residual_2_7_conv_block", "bias_regularizer": null, "bias_constraint": null, "kernel_regularizer": null, "padding": "same", "kernel_initializer": {"config": {"scale": 2.0, "distribution": "normal", "mode": "fan_in", "seed": null}, "class_name": "VarianceScaling"}, "dilation_rate": [1, 1], "kernel_constraint": null, "use_bias": true, "kernel_size": [3, 3], "trainable": true, "activity_regularizer": null, "data_format": "channels_last", "strides": [1, 1], "filters": 256, "bias_initializer": {"config": {}, "class_name": "Zeros"}}, "inbound_nodes": [[["residual_1_7_relu", 0, 0, {}]]], "class_name": "Conv2D"}, {"name": "residual_2_7_batch_norm", "config": {"name": "residual_2_7_batch_norm", "beta_regularizer": null, "axis": -1, "scale": true, "moving_mean_initializer": {"config": {}, "class_name": "Zeros"}, "epsilon": 0.001, "beta_constraint": null, "gamma_initializer": {"config": {}, "class_name": "Ones"}, "beta_initializer": {"config": {}, "class_name": "Zeros"}, "trainable": true, "gamma_regularizer": null, "momentum": 0.99, "moving_variance_initializer": {"config": {}, "class_name": "Ones"}, "center": true, "gamma_constraint": null}, "inbound_nodes": [[["residual_2_7_conv_block", 0, 0, {}]]], "class_name": "BatchNormalization"}, {"name": "add_7", "config": {"name": "add_7", "trainable": true}, "inbound_nodes": [[["6_relu", 0, 0, {}], ["residual_2_7_batch_norm", 0, 0, {}]]], "class_name": "Add"}, {"name": "7_relu", "config": {"name": "7_relu", "trainable": true, "activation": "relu"}, "inbound_nodes": [[["add_7", 0, 0, {}]]], "class_name": "Activation"}, {"name": "residual_1_8_conv_block", "config": {"activation": "linear", "name": "residual_1_8_conv_block", "bias_regularizer": null, "bias_constraint": null, "kernel_regularizer": null, "padding": "same", "kernel_initializer": {"config": {"scale": 2.0, "distribution": "normal", "mode": "fan_in", "seed": null}, "class_name": "VarianceScaling"}, "dilation_rate": [1, 1], "kernel_constraint": null, "use_bias": true, "kernel_size": [3, 3], "trainable": true, "activity_regularizer": null, "data_format": "channels_last", "strides": [1, 1], "filters": 256, "bias_initializer": {"config": {}, "class_name": "Zeros"}}, "inbound_nodes": [[["7_relu", 0, 0, {}]]], "class_name": "Conv2D"}, {"name": "residual_1_8_batch_norm", "config": {"name": "residual_1_8_batch_norm", "beta_regularizer": null, "axis": -1, "scale": true, "moving_mean_initializer": {"config": {}, "class_name": "Zeros"}, "epsilon": 0.001, "beta_constraint": null, "gamma_initializer": {"config": {}, "class_name": "Ones"}, "beta_initializer": {"config": {}, "class_name": "Zeros"}, "trainable": true, "gamma_regularizer": null, "momentum": 0.99, "moving_variance_initializer": {"config": {}, "class_name": "Ones"}, "center": true, "gamma_constraint": null}, "inbound_nodes": [[["residual_1_8_conv_block", 0, 0, {}]]], "class_name": "BatchNormalization"}, {"name": "residual_1_8_relu", "config": {"name": "residual_1_8_relu", "trainable": true, "activation": "relu"}, "inbound_nodes": [[["residual_1_8_batch_norm", 0, 0, {}]]], "class_name": "Activation"}, {"name": "residual_2_8_conv_block", "config": {"activation": "linear", "name": "residual_2_8_conv_block", "bias_regularizer": null, "bias_constraint": null, "kernel_regularizer": null, "padding": "same", "kernel_initializer": {"config": {"scale": 2.0, "distribution": "normal", "mode": "fan_in", "seed": null}, "class_name": "VarianceScaling"}, "dilation_rate": [1, 1], "kernel_constraint": null, "use_bias": true, "kernel_size": [3, 3], "trainable": true, "activity_regularizer": null, "data_format": "channels_last", "strides": [1, 1], "filters": 256, "bias_initializer": {"config": {}, "class_name": "Zeros"}}, "inbound_nodes": [[["residual_1_8_relu", 0, 0, {}]]], "class_name": "Conv2D"}, {"name": "residual_2_8_batch_norm", "config": {"name": "residual_2_8_batch_norm", "beta_regularizer": null, "axis": -1, "scale": true, "moving_mean_initializer": {"config": {}, "class_name": "Zeros"}, "epsilon": 0.001, "beta_constraint": null, "gamma_initializer": {"config": {}, "class_name": "Ones"}, "beta_initializer": {"config": {}, "class_name": "Zeros"}, "trainable": true, "gamma_regularizer": null, "momentum": 0.99, "moving_variance_initializer": {"config": {}, "class_name": "Ones"}, "center": true, "gamma_constraint": null}, "inbound_nodes": [[["residual_2_8_conv_block", 0, 0, {}]]], "class_name": "BatchNormalization"}, {"name": "add_8", "config": {"name": "add_8", "trainable": true}, "inbound_nodes": [[["7_relu", 0, 0, {}], ["residual_2_8_batch_norm", 0, 0, {}]]], "class_name": "Add"}, {"name": "8_relu", "config": {"name": "8_relu", "trainable": true, "activation": "relu"}, "inbound_nodes": [[["add_8", 0, 0, {}]]], "class_name": "Activation"}, {"name": "residual_1_9_conv_block", "config": {"activation": "linear", "name": "residual_1_9_conv_block", "bias_regularizer": null, "bias_constraint": null, "kernel_regularizer": null, "padding": "same", "kernel_initializer": {"config": {"scale": 2.0, "distribution": "normal", "mode": "fan_in", "seed": null}, "class_name": "VarianceScaling"}, "dilation_rate": [1, 1], "kernel_constraint": null, "use_bias": true, "kernel_size": [3, 3], "trainable": true, "activity_regularizer": null, "data_format": "channels_last", "strides": [1, 1], "filters": 256, "bias_initializer": {"config": {}, "class_name": "Zeros"}}, "inbound_nodes": [[["8_relu", 0, 0, {}]]], "class_name": "Conv2D"}, {"name": "residual_1_9_batch_norm", "config": {"name": "residual_1_9_batch_norm", "beta_regularizer": null, "axis": -1, "scale": true, "moving_mean_initializer": {"config": {}, "class_name": "Zeros"}, "epsilon": 0.001, "beta_constraint": null, "gamma_initializer": {"config": {}, "class_name": "Ones"}, "beta_initializer": {"config": {}, "class_name": "Zeros"}, "trainable": true, "gamma_regularizer": null, "momentum": 0.99, "moving_variance_initializer": {"config": {}, "class_name": "Ones"}, "center": true, "gamma_constraint": null}, "inbound_nodes": [[["residual_1_9_conv_block", 0, 0, {}]]], "class_name": "BatchNormalization"}, {"name": "residual_1_9_relu", "config": {"name": "residual_1_9_relu", "trainable": true, "activation": "relu"}, "inbound_nodes": [[["residual_1_9_batch_norm", 0, 0, {}]]], "class_name": "Activation"}, {"name": "residual_2_9_conv_block", "config": {"activation": "linear", "name": "residual_2_9_conv_block", "bias_regularizer": null, "bias_constraint": null, "kernel_regularizer": null, "padding": "same", "kernel_initializer": {"config": {"scale": 2.0, "distribution": "normal", "mode": "fan_in", "seed": null}, "class_name": "VarianceScaling"}, "dilation_rate": [1, 1], "kernel_constraint": null, "use_bias": true, "kernel_size": [3, 3], "trainable": true, "activity_regularizer": null, "data_format": "channels_last", "strides": [1, 1], "filters": 256, "bias_initializer": {"config": {}, "class_name": "Zeros"}}, "inbound_nodes": [[["residual_1_9_relu", 0, 0, {}]]], "class_name": "Conv2D"}, {"name": "residual_2_9_batch_norm", "config": {"name": "residual_2_9_batch_norm", "beta_regularizer": null, "axis": -1, "scale": true, "moving_mean_initializer": {"config": {}, "class_name": "Zeros"}, "epsilon": 0.001, "beta_constraint": null, "gamma_initializer": {"config": {}, "class_name": "Ones"}, "beta_initializer": {"config": {}, "class_name": "Zeros"}, "trainable": true, "gamma_regularizer": null, "momentum": 0.99, "moving_variance_initializer": {"config": {}, "class_name": "Ones"}, "center": true, "gamma_constraint": null}, "inbound_nodes": [[["residual_2_9_conv_block", 0, 0, {}]]], "class_name": "BatchNormalization"}, {"name": "add_9", "config": {"name": "add_9", "trainable": true}, "inbound_nodes": [[["8_relu", 0, 0, {}], ["residual_2_9_batch_norm", 0, 0, {}]]], "class_name": "Add"}, {"name": "9_relu", "config": {"name": "9_relu", "trainable": true, "activation": "relu"}, "inbound_nodes": [[["add_9", 0, 0, {}]]], "class_name": "Activation"}, {"name": "residual_1_10_conv_block", "config": {"activation": "linear", "name": "residual_1_10_conv_block", "bias_regularizer": null, "bias_constraint": null, "kernel_regularizer": null, "padding": "same", "kernel_initializer": {"config": {"scale": 2.0, "distribution": "normal", "mode": "fan_in", "seed": null}, "class_name": "VarianceScaling"}, "dilation_rate": [1, 1], "kernel_constraint": null, "use_bias": true, "kernel_size": [3, 3], "trainable": true, "activity_regularizer": null, "data_format": "channels_last", "strides": [1, 1], "filters": 256, "bias_initializer": {"config": {}, "class_name": "Zeros"}}, "inbound_nodes": [[["9_relu", 0, 0, {}]]], "class_name": "Conv2D"}, {"name": "residual_1_10_batch_norm", "config": {"name": "residual_1_10_batch_norm", "beta_regularizer": null, "axis": -1, "scale": true, "moving_mean_initializer": {"config": {}, "class_name": "Zeros"}, "epsilon": 0.001, "beta_constraint": null, "gamma_initializer": {"config": {}, "class_name": "Ones"}, "beta_initializer": {"config": {}, "class_name": "Zeros"}, "trainable": true, "gamma_regularizer": null, "momentum": 0.99, "moving_variance_initializer": {"config": {}, "class_name": "Ones"}, "center": true, "gamma_constraint": null}, "inbound_nodes": [[["residual_1_10_conv_block", 0, 0, {}]]], "class_name": "BatchNormalization"}, {"name": "residual_1_10_relu", "config": {"name": "residual_1_10_relu", "trainable": true, "activation": "relu"}, "inbound_nodes": [[["residual_1_10_batch_norm", 0, 0, {}]]], "class_name": "Activation"}, {"name": "residual_2_10_conv_block", "config": {"activation": "linear", "name": "residual_2_10_conv_block", "bias_regularizer": null, "bias_constraint": null, "kernel_regularizer": null, "padding": "same", "kernel_initializer": {"config": {"scale": 2.0, "distribution": "normal", "mode": "fan_in", "seed": null}, "class_name": "VarianceScaling"}, "dilation_rate": [1, 1], "kernel_constraint": null, "use_bias": true, "kernel_size": [3, 3], "trainable": true, "activity_regularizer": null, "data_format": "channels_last", "strides": [1, 1], "filters": 256, "bias_initializer": {"config": {}, "class_name": "Zeros"}}, "inbound_nodes": [[["residual_1_10_relu", 0, 0, {}]]], "class_name": "Conv2D"}, {"name": "residual_2_10_batch_norm", "config": {"name": "residual_2_10_batch_norm", "beta_regularizer": null, "axis": -1, "scale": true, "moving_mean_initializer": {"config": {}, "class_name": "Zeros"}, "epsilon": 0.001, "beta_constraint": null, "gamma_initializer": {"config": {}, "class_name": "Ones"}, "beta_initializer": {"config": {}, "class_name": "Zeros"}, "trainable": true, "gamma_regularizer": null, "momentum": 0.99, "moving_variance_initializer": {"config": {}, "class_name": "Ones"}, "center": true, "gamma_constraint": null}, "inbound_nodes": [[["residual_2_10_conv_block", 0, 0, {}]]], "class_name": "BatchNormalization"}, {"name": "add_10", "config": {"name": "add_10", "trainable": true}, "inbound_nodes": [[["9_relu", 0, 0, {}], ["residual_2_10_batch_norm", 0, 0, {}]]], "class_name": "Add"}, {"name": "10_relu", "config": {"name": "10_relu", "trainable": true, "activation": "relu"}, "inbound_nodes": [[["add_10", 0, 0, {}]]], "class_name": "Activation"}, {"name": "residual_1_11_conv_block", "config": {"activation": "linear", "name": "residual_1_11_conv_block", "bias_regularizer": null, "bias_constraint": null, "kernel_regularizer": null, "padding": "same", "kernel_initializer": {"config": {"scale": 2.0, "distribution": "normal", "mode": "fan_in", "seed": null}, "class_name": "VarianceScaling"}, "dilation_rate": [1, 1], "kernel_constraint": null, "use_bias": true, "kernel_size": [3, 3], "trainable": true, "activity_regularizer": null, "data_format": "channels_last", "strides": [1, 1], "filters": 256, "bias_initializer": {"config": {}, "class_name": "Zeros"}}, "inbound_nodes": [[["10_relu", 0, 0, {}]]], "class_name": "Conv2D"}, {"name": "residual_1_11_batch_norm", "config": {"name": "residual_1_11_batch_norm", "beta_regularizer": null, "axis": -1, "scale": true, "moving_mean_initializer": {"config": {}, "class_name": "Zeros"}, "epsilon": 0.001, "beta_constraint": null, "gamma_initializer": {"config": {}, "class_name": "Ones"}, "beta_initializer": {"config": {}, "class_name": "Zeros"}, "trainable": true, "gamma_regularizer": null, "momentum": 0.99, "moving_variance_initializer": {"config": {}, "class_name": "Ones"}, "center": true, "gamma_constraint": null}, "inbound_nodes": [[["residual_1_11_conv_block", 0, 0, {}]]], "class_name": "BatchNormalization"}, {"name": "residual_1_11_relu", "config": {"name": "residual_1_11_relu", "trainable": true, "activation": "relu"}, "inbound_nodes": [[["residual_1_11_batch_norm", 0, 0, {}]]], "class_name": "Activation"}, {"name": "residual_2_11_conv_block", "config": {"activation": "linear", "name": "residual_2_11_conv_block", "bias_regularizer": null, "bias_constraint": null, "kernel_regularizer": null, "padding": "same", "kernel_initializer": {"config": {"scale": 2.0, "distribution": "normal", "mode": "fan_in", "seed": null}, "class_name": "VarianceScaling"}, "dilation_rate": [1, 1], "kernel_constraint": null, "use_bias": true, "kernel_size": [3, 3], "trainable": true, "activity_regularizer": null, "data_format": "channels_last", "strides": [1, 1], "filters": 256, "bias_initializer": {"config": {}, "class_name": "Zeros"}}, "inbound_nodes": [[["residual_1_11_relu", 0, 0, {}]]], "class_name": "Conv2D"}, {"name": "residual_2_11_batch_norm", "config": {"name": "residual_2_11_batch_norm", "beta_regularizer": null, "axis": -1, "scale": true, "moving_mean_initializer": {"config": {}, "class_name": "Zeros"}, "epsilon": 0.001, "beta_constraint": null, "gamma_initializer": {"config": {}, "class_name": "Ones"}, "beta_initializer": {"config": {}, "class_name": "Zeros"}, "trainable": true, "gamma_regularizer": null, "momentum": 0.99, "moving_variance_initializer": {"config": {}, "class_name": "Ones"}, "center": true, "gamma_constraint": null}, "inbound_nodes": [[["residual_2_11_conv_block", 0, 0, {}]]], "class_name": "BatchNormalization"}, {"name": "add_11", "config": {"name": "add_11", "trainable": true}, "inbound_nodes": [[["10_relu", 0, 0, {}], ["residual_2_11_batch_norm", 0, 0, {}]]], "class_name": "Add"}, {"name": "11_relu", "config": {"name": "11_relu", "trainable": true, "activation": "relu"}, "inbound_nodes": [[["add_11", 0, 0, {}]]], "class_name": "Activation"}, {"name": "residual_1_12_conv_block", "config": {"activation": "linear", "name": "residual_1_12_conv_block", "bias_regularizer": null, "bias_constraint": null, "kernel_regularizer": null, "padding": "same", "kernel_initializer": {"config": {"scale": 2.0, "distribution": "normal", "mode": "fan_in", "seed": null}, "class_name": "VarianceScaling"}, "dilation_rate": [1, 1], "kernel_constraint": null, "use_bias": true, "kernel_size": [3, 3], "trainable": true, "activity_regularizer": null, "data_format": "channels_last", "strides": [1, 1], "filters": 256, "bias_initializer": {"config": {}, "class_name": "Zeros"}}, "inbound_nodes": [[["11_relu", 0, 0, {}]]], "class_name": "Conv2D"}, {"name": "residual_1_12_batch_norm", "config": {"name": "residual_1_12_batch_norm", "beta_regularizer": null, "axis": -1, "scale": true, "moving_mean_initializer": {"config": {}, "class_name": "Zeros"}, "epsilon": 0.001, "beta_constraint": null, "gamma_initializer": {"config": {}, "class_name": "Ones"}, "beta_initializer": {"config": {}, "class_name": "Zeros"}, "trainable": true, "gamma_regularizer": null, "momentum": 0.99, "moving_variance_initializer": {"config": {}, "class_name": "Ones"}, "center": true, "gamma_constraint": null}, "inbound_nodes": [[["residual_1_12_conv_block", 0, 0, {}]]], "class_name": "BatchNormalization"}, {"name": "residual_1_12_relu", "config": {"name": "residual_1_12_relu", "trainable": true, "activation": "relu"}, "inbound_nodes": [[["residual_1_12_batch_norm", 0, 0, {}]]], "class_name": "Activation"}, {"name": "residual_2_12_conv_block", "config": {"activation": "linear", "name": "residual_2_12_conv_block", "bias_regularizer": null, "bias_constraint": null, "kernel_regularizer": null, "padding": "same", "kernel_initializer": {"config": {"scale": 2.0, "distribution": "normal", "mode": "fan_in", "seed": null}, "class_name": "VarianceScaling"}, "dilation_rate": [1, 1], "kernel_constraint": null, "use_bias": true, "kernel_size": [3, 3], "trainable": true, "activity_regularizer": null, "data_format": "channels_last", "strides": [1, 1], "filters": 256, "bias_initializer": {"config": {}, "class_name": "Zeros"}}, "inbound_nodes": [[["residual_1_12_relu", 0, 0, {}]]], "class_name": "Conv2D"}, {"name": "residual_2_12_batch_norm", "config": {"name": "residual_2_12_batch_norm", "beta_regularizer": null, "axis": -1, "scale": true, "moving_mean_initializer": {"config": {}, "class_name": "Zeros"}, "epsilon": 0.001, "beta_constraint": null, "gamma_initializer": {"config": {}, "class_name": "Ones"}, "beta_initializer": {"config": {}, "class_name": "Zeros"}, "trainable": true, "gamma_regularizer": null, "momentum": 0.99, "moving_variance_initializer": {"config": {}, "class_name": "Ones"}, "center": true, "gamma_constraint": null}, "inbound_nodes": [[["residual_2_12_conv_block", 0, 0, {}]]], "class_name": "BatchNormalization"}, {"name": "add_12", "config": {"name": "add_12", "trainable": true}, "inbound_nodes": [[["11_relu", 0, 0, {}], ["residual_2_12_batch_norm", 0, 0, {}]]], "class_name": "Add"}, {"name": "12_relu", "config": {"name": "12_relu", "trainable": true, "activation": "relu"}, "inbound_nodes": [[["add_12", 0, 0, {}]]], "class_name": "Activation"}, {"name": "residual_1_13_conv_block", "config": {"activation": "linear", "name": "residual_1_13_conv_block", "bias_regularizer": null, "bias_constraint": null, "kernel_regularizer": null, "padding": "same", "kernel_initializer": {"config": {"scale": 2.0, "distribution": "normal", "mode": "fan_in", "seed": null}, "class_name": "VarianceScaling"}, "dilation_rate": [1, 1], "kernel_constraint": null, "use_bias": true, "kernel_size": [3, 3], "trainable": true, "activity_regularizer": null, "data_format": "channels_last", "strides": [1, 1], "filters": 256, "bias_initializer": {"config": {}, "class_name": "Zeros"}}, "inbound_nodes": [[["12_relu", 0, 0, {}]]], "class_name": "Conv2D"}, {"name": "residual_1_13_batch_norm", "config": {"name": "residual_1_13_batch_norm", "beta_regularizer": null, "axis": -1, "scale": true, "moving_mean_initializer": {"config": {}, "class_name": "Zeros"}, "epsilon": 0.001, "beta_constraint": null, "gamma_initializer": {"config": {}, "class_name": "Ones"}, "beta_initializer": {"config": {}, "class_name": "Zeros"}, "trainable": true, "gamma_regularizer": null, "momentum": 0.99, "moving_variance_initializer": {"config": {}, "class_name": "Ones"}, "center": true, "gamma_constraint": null}, "inbound_nodes": [[["residual_1_13_conv_block", 0, 0, {}]]], "class_name": "BatchNormalization"}, {"name": "residual_1_13_relu", "config": {"name": "residual_1_13_relu", "trainable": true, "activation": "relu"}, "inbound_nodes": [[["residual_1_13_batch_norm", 0, 0, {}]]], "class_name": "Activation"}, {"name": "residual_2_13_conv_block", "config": {"activation": "linear", "name": "residual_2_13_conv_block", "bias_regularizer": null, "bias_constraint": null, "kernel_regularizer": null, "padding": "same", "kernel_initializer": {"config": {"scale": 2.0, "distribution": "normal", "mode": "fan_in", "seed": null}, "class_name": "VarianceScaling"}, "dilation_rate": [1, 1], "kernel_constraint": null, "use_bias": true, "kernel_size": [3, 3], "trainable": true, "activity_regularizer": null, "data_format": "channels_last", "strides": [1, 1], "filters": 256, "bias_initializer": {"config": {}, "class_name": "Zeros"}}, "inbound_nodes": [[["residual_1_13_relu", 0, 0, {}]]], "class_name": "Conv2D"}, {"name": "residual_2_13_batch_norm", "config": {"name": "residual_2_13_batch_norm", "beta_regularizer": null, "axis": -1, "scale": true, "moving_mean_initializer": {"config": {}, "class_name": "Zeros"}, "epsilon": 0.001, "beta_constraint": null, "gamma_initializer": {"config": {}, "class_name": "Ones"}, "beta_initializer": {"config": {}, "class_name": "Zeros"}, "trainable": true, "gamma_regularizer": null, "momentum": 0.99, "moving_variance_initializer": {"config": {}, "class_name": "Ones"}, "center": true, "gamma_constraint": null}, "inbound_nodes": [[["residual_2_13_conv_block", 0, 0, {}]]], "class_name": "BatchNormalization"}, {"name": "add_13", "config": {"name": "add_13", "trainable": true}, "inbound_nodes": [[["12_relu", 0, 0, {}], ["residual_2_13_batch_norm", 0, 0, {}]]], "class_name": "Add"}, {"name": "13_relu", "config": {"name": "13_relu", "trainable": true, "activation": "relu"}, "inbound_nodes": [[["add_13", 0, 0, {}]]], "class_name": "Activation"}, {"name": "residual_1_14_conv_block", "config": {"activation": "linear", "name": "residual_1_14_conv_block", "bias_regularizer": null, "bias_constraint": null, "kernel_regularizer": null, "padding": "same", "kernel_initializer": {"config": {"scale": 2.0, "distribution": "normal", "mode": "fan_in", "seed": null}, "class_name": "VarianceScaling"}, "dilation_rate": [1, 1], "kernel_constraint": null, "use_bias": true, "kernel_size": [3, 3], "trainable": true, "activity_regularizer": null, "data_format": "channels_last", "strides": [1, 1], "filters": 256, "bias_initializer": {"config": {}, "class_name": "Zeros"}}, "inbound_nodes": [[["13_relu", 0, 0, {}]]], "class_name": "Conv2D"}, {"name": "residual_1_14_batch_norm", "config": {"name": "residual_1_14_batch_norm", "beta_regularizer": null, "axis": -1, "scale": true, "moving_mean_initializer": {"config": {}, "class_name": "Zeros"}, "epsilon": 0.001, "beta_constraint": null, "gamma_initializer": {"config": {}, "class_name": "Ones"}, "beta_initializer": {"config": {}, "class_name": "Zeros"}, "trainable": true, "gamma_regularizer": null, "momentum": 0.99, "moving_variance_initializer": {"config": {}, "class_name": "Ones"}, "center": true, "gamma_constraint": null}, "inbound_nodes": [[["residual_1_14_conv_block", 0, 0, {}]]], "class_name": "BatchNormalization"}, {"name": "residual_1_14_relu", "config": {"name": "residual_1_14_relu", "trainable": true, "activation": "relu"}, "inbound_nodes": [[["residual_1_14_batch_norm", 0, 0, {}]]], "class_name": "Activation"}, {"name": "residual_2_14_conv_block", "config": {"activation": "linear", "name": "residual_2_14_conv_block", "bias_regularizer": null, "bias_constraint": null, "kernel_regularizer": null, "padding": "same", "kernel_initializer": {"config": {"scale": 2.0, "distribution": "normal", "mode": "fan_in", "seed": null}, "class_name": "VarianceScaling"}, "dilation_rate": [1, 1], "kernel_constraint": null, "use_bias": true, "kernel_size": [3, 3], "trainable": true, "activity_regularizer": null, "data_format": "channels_last", "strides": [1, 1], "filters": 256, "bias_initializer": {"config": {}, "class_name": "Zeros"}}, "inbound_nodes": [[["residual_1_14_relu", 0, 0, {}]]], "class_name": "Conv2D"}, {"name": "residual_2_14_batch_norm", "config": {"name": "residual_2_14_batch_norm", "beta_regularizer": null, "axis": -1, "scale": true, "moving_mean_initializer": {"config": {}, "class_name": "Zeros"}, "epsilon": 0.001, "beta_constraint": null, "gamma_initializer": {"config": {}, "class_name": "Ones"}, "beta_initializer": {"config": {}, "class_name": "Zeros"}, "trainable": true, "gamma_regularizer": null, "momentum": 0.99, "moving_variance_initializer": {"config": {}, "class_name": "Ones"}, "center": true, "gamma_constraint": null}, "inbound_nodes": [[["residual_2_14_conv_block", 0, 0, {}]]], "class_name": "BatchNormalization"}, {"name": "add_14", "config": {"name": "add_14", "trainable": true}, "inbound_nodes": [[["13_relu", 0, 0, {}], ["residual_2_14_batch_norm", 0, 0, {}]]], "class_name": "Add"}, {"name": "14_relu", "config": {"name": "14_relu", "trainable": true, "activation": "relu"}, "inbound_nodes": [[["add_14", 0, 0, {}]]], "class_name": "Activation"}, {"name": "residual_1_15_conv_block", "config": {"activation": "linear", "name": "residual_1_15_conv_block", "bias_regularizer": null, "bias_constraint": null, "kernel_regularizer": null, "padding": "same", "kernel_initializer": {"config": {"scale": 2.0, "distribution": "normal", "mode": "fan_in", "seed": null}, "class_name": "VarianceScaling"}, "dilation_rate": [1, 1], "kernel_constraint": null, "use_bias": true, "kernel_size": [3, 3], "trainable": true, "activity_regularizer": null, "data_format": "channels_last", "strides": [1, 1], "filters": 256, "bias_initializer": {"config": {}, "class_name": "Zeros"}}, "inbound_nodes": [[["14_relu", 0, 0, {}]]], "class_name": "Conv2D"}, {"name": "residual_1_15_batch_norm", "config": {"name": "residual_1_15_batch_norm", "beta_regularizer": null, "axis": -1, "scale": true, "moving_mean_initializer": {"config": {}, "class_name": "Zeros"}, "epsilon": 0.001, "beta_constraint": null, "gamma_initializer": {"config": {}, "class_name": "Ones"}, "beta_initializer": {"config": {}, "class_name": "Zeros"}, "trainable": true, "gamma_regularizer": null, "momentum": 0.99, "moving_variance_initializer": {"config": {}, "class_name": "Ones"}, "center": true, "gamma_constraint": null}, "inbound_nodes": [[["residual_1_15_conv_block", 0, 0, {}]]], "class_name": "BatchNormalization"}, {"name": "residual_1_15_relu", "config": {"name": "residual_1_15_relu", "trainable": true, "activation": "relu"}, "inbound_nodes": [[["residual_1_15_batch_norm", 0, 0, {}]]], "class_name": "Activation"}, {"name": "residual_2_15_conv_block", "config": {"activation": "linear", "name": "residual_2_15_conv_block", "bias_regularizer": null, "bias_constraint": null, "kernel_regularizer": null, "padding": "same", "kernel_initializer": {"config": {"scale": 2.0, "distribution": "normal", "mode": "fan_in", "seed": null}, "class_name": "VarianceScaling"}, "dilation_rate": [1, 1], "kernel_constraint": null, "use_bias": true, "kernel_size": [3, 3], "trainable": true, "activity_regularizer": null, "data_format": "channels_last", "strides": [1, 1], "filters": 256, "bias_initializer": {"config": {}, "class_name": "Zeros"}}, "inbound_nodes": [[["residual_1_15_relu", 0, 0, {}]]], "class_name": "Conv2D"}, {"name": "residual_2_15_batch_norm", "config": {"name": "residual_2_15_batch_norm", "beta_regularizer": null, "axis": -1, "scale": true, "moving_mean_initializer": {"config": {}, "class_name": "Zeros"}, "epsilon": 0.001, "beta_constraint": null, "gamma_initializer": {"config": {}, "class_name": "Ones"}, "beta_initializer": {"config": {}, "class_name": "Zeros"}, "trainable": true, "gamma_regularizer": null, "momentum": 0.99, "moving_variance_initializer": {"config": {}, "class_name": "Ones"}, "center": true, "gamma_constraint": null}, "inbound_nodes": [[["residual_2_15_conv_block", 0, 0, {}]]], "class_name": "BatchNormalization"}, {"name": "add_15", "config": {"name": "add_15", "trainable": true}, "inbound_nodes": [[["14_relu", 0, 0, {}], ["residual_2_15_batch_norm", 0, 0, {}]]], "class_name": "Add"}, {"name": "15_relu", "config": {"name": "15_relu", "trainable": true, "activation": "relu"}, "inbound_nodes": [[["add_15", 0, 0, {}]]], "class_name": "Activation"}, {"name": "residual_1_16_conv_block", "config": {"activation": "linear", "name": "residual_1_16_conv_block", "bias_regularizer": null, "bias_constraint": null, "kernel_regularizer": null, "padding": "same", "kernel_initializer": {"config": {"scale": 2.0, "distribution": "normal", "mode": "fan_in", "seed": null}, "class_name": "VarianceScaling"}, "dilation_rate": [1, 1], "kernel_constraint": null, "use_bias": true, "kernel_size": [3, 3], "trainable": true, "activity_regularizer": null, "data_format": "channels_last", "strides": [1, 1], "filters": 256, "bias_initializer": {"config": {}, "class_name": "Zeros"}}, "inbound_nodes": [[["15_relu", 0, 0, {}]]], "class_name": "Conv2D"}, {"name": "residual_1_16_batch_norm", "config": {"name": "residual_1_16_batch_norm", "beta_regularizer": null, "axis": -1, "scale": true, "moving_mean_initializer": {"config": {}, "class_name": "Zeros"}, "epsilon": 0.001, "beta_constraint": null, "gamma_initializer": {"config": {}, "class_name": "Ones"}, "beta_initializer": {"config": {}, "class_name": "Zeros"}, "trainable": true, "gamma_regularizer": null, "momentum": 0.99, "moving_variance_initializer": {"config": {}, "class_name": "Ones"}, "center": true, "gamma_constraint": null}, "inbound_nodes": [[["residual_1_16_conv_block", 0, 0, {}]]], "class_name": "BatchNormalization"}, {"name": "residual_1_16_relu", "config": {"name": "residual_1_16_relu", "trainable": true, "activation": "relu"}, "inbound_nodes": [[["residual_1_16_batch_norm", 0, 0, {}]]], "class_name": "Activation"}, {"name": "residual_2_16_conv_block", "config": {"activation": "linear", "name": "residual_2_16_conv_block", "bias_regularizer": null, "bias_constraint": null, "kernel_regularizer": null, "padding": "same", "kernel_initializer": {"config": {"scale": 2.0, "distribution": "normal", "mode": "fan_in", "seed": null}, "class_name": "VarianceScaling"}, "dilation_rate": [1, 1], "kernel_constraint": null, "use_bias": true, "kernel_size": [3, 3], "trainable": true, "activity_regularizer": null, "data_format": "channels_last", "strides": [1, 1], "filters": 256, "bias_initializer": {"config": {}, "class_name": "Zeros"}}, "inbound_nodes": [[["residual_1_16_relu", 0, 0, {}]]], "class_name": "Conv2D"}, {"name": "residual_2_16_batch_norm", "config": {"name": "residual_2_16_batch_norm", "beta_regularizer": null, "axis": -1, "scale": true, "moving_mean_initializer": {"config": {}, "class_name": "Zeros"}, "epsilon": 0.001, "beta_constraint": null, "gamma_initializer": {"config": {}, "class_name": "Ones"}, "beta_initializer": {"config": {}, "class_name": "Zeros"}, "trainable": true, "gamma_regularizer": null, "momentum": 0.99, "moving_variance_initializer": {"config": {}, "class_name": "Ones"}, "center": true, "gamma_constraint": null}, "inbound_nodes": [[["residual_2_16_conv_block", 0, 0, {}]]], "class_name": "BatchNormalization"}, {"name": "add_16", "config": {"name": "add_16", "trainable": true}, "inbound_nodes": [[["15_relu", 0, 0, {}], ["residual_2_16_batch_norm", 0, 0, {}]]], "class_name": "Add"}, {"name": "16_relu", "config": {"name": "16_relu", "trainable": true, "activation": "relu"}, "inbound_nodes": [[["add_16", 0, 0, {}]]], "class_name": "Activation"}, {"name": "residual_1_17_conv_block", "config": {"activation": "linear", "name": "residual_1_17_conv_block", "bias_regularizer": null, "bias_constraint": null, "kernel_regularizer": null, "padding": "same", "kernel_initializer": {"config": {"scale": 2.0, "distribution": "normal", "mode": "fan_in", "seed": null}, "class_name": "VarianceScaling"}, "dilation_rate": [1, 1], "kernel_constraint": null, "use_bias": true, "kernel_size": [3, 3], "trainable": true, "activity_regularizer": null, "data_format": "channels_last", "strides": [1, 1], "filters": 256, "bias_initializer": {"config": {}, "class_name": "Zeros"}}, "inbound_nodes": [[["16_relu", 0, 0, {}]]], "class_name": "Conv2D"}, {"name": "residual_1_17_batch_norm", "config": {"name": "residual_1_17_batch_norm", "beta_regularizer": null, "axis": -1, "scale": true, "moving_mean_initializer": {"config": {}, "class_name": "Zeros"}, "epsilon": 0.001, "beta_constraint": null, "gamma_initializer": {"config": {}, "class_name": "Ones"}, "beta_initializer": {"config": {}, "class_name": "Zeros"}, "trainable": true, "gamma_regularizer": null, "momentum": 0.99, "moving_variance_initializer": {"config": {}, "class_name": "Ones"}, "center": true, "gamma_constraint": null}, "inbound_nodes": [[["residual_1_17_conv_block", 0, 0, {}]]], "class_name": "BatchNormalization"}, {"name": "residual_1_17_relu", "config": {"name": "residual_1_17_relu", "trainable": true, "activation": "relu"}, "inbound_nodes": [[["residual_1_17_batch_norm", 0, 0, {}]]], "class_name": "Activation"}, {"name": "residual_2_17_conv_block", "config": {"activation": "linear", "name": "residual_2_17_conv_block", "bias_regularizer": null, "bias_constraint": null, "kernel_regularizer": null, "padding": "same", "kernel_initializer": {"config": {"scale": 2.0, "distribution": "normal", "mode": "fan_in", "seed": null}, "class_name": "VarianceScaling"}, "dilation_rate": [1, 1], "kernel_constraint": null, "use_bias": true, "kernel_size": [3, 3], "trainable": true, "activity_regularizer": null, "data_format": "channels_last", "strides": [1, 1], "filters": 256, "bias_initializer": {"config": {}, "class_name": "Zeros"}}, "inbound_nodes": [[["residual_1_17_relu", 0, 0, {}]]], "class_name": "Conv2D"}, {"name": "residual_2_17_batch_norm", "config": {"name": "residual_2_17_batch_norm", "beta_regularizer": null, "axis": -1, "scale": true, "moving_mean_initializer": {"config": {}, "class_name": "Zeros"}, "epsilon": 0.001, "beta_constraint": null, "gamma_initializer": {"config": {}, "class_name": "Ones"}, "beta_initializer": {"config": {}, "class_name": "Zeros"}, "trainable": true, "gamma_regularizer": null, "momentum": 0.99, "moving_variance_initializer": {"config": {}, "class_name": "Ones"}, "center": true, "gamma_constraint": null}, "inbound_nodes": [[["residual_2_17_conv_block", 0, 0, {}]]], "class_name": "BatchNormalization"}, {"name": "add_17", "config": {"name": "add_17", "trainable": true}, "inbound_nodes": [[["16_relu", 0, 0, {}], ["residual_2_17_batch_norm", 0, 0, {}]]], "class_name": "Add"}, {"name": "17_relu", "config": {"name": "17_relu", "trainable": true, "activation": "relu"}, "inbound_nodes": [[["add_17", 0, 0, {}]]], "class_name": "Activation"}, {"name": "residual_1_18_conv_block", "config": {"activation": "linear", "name": "residual_1_18_conv_block", "bias_regularizer": null, "bias_constraint": null, "kernel_regularizer": null, "padding": "same", "kernel_initializer": {"config": {"scale": 2.0, "distribution": "normal", "mode": "fan_in", "seed": null}, "class_name": "VarianceScaling"}, "dilation_rate": [1, 1], "kernel_constraint": null, "use_bias": true, "kernel_size": [3, 3], "trainable": true, "activity_regularizer": null, "data_format": "channels_last", "strides": [1, 1], "filters": 256, "bias_initializer": {"config": {}, "class_name": "Zeros"}}, "inbound_nodes": [[["17_relu", 0, 0, {}]]], "class_name": "Conv2D"}, {"name": "residual_1_18_batch_norm", "config": {"name": "residual_1_18_batch_norm", "beta_regularizer": null, "axis": -1, "scale": true, "moving_mean_initializer": {"config": {}, "class_name": "Zeros"}, "epsilon": 0.001, "beta_constraint": null, "gamma_initializer": {"config": {}, "class_name": "Ones"}, "beta_initializer": {"config": {}, "class_name": "Zeros"}, "trainable": true, "gamma_regularizer": null, "momentum": 0.99, "moving_variance_initializer": {"config": {}, "class_name": "Ones"}, "center": true, "gamma_constraint": null}, "inbound_nodes": [[["residual_1_18_conv_block", 0, 0, {}]]], "class_name": "BatchNormalization"}, {"name": "residual_1_18_relu", "config": {"name": "residual_1_18_relu", "trainable": true, "activation": "relu"}, "inbound_nodes": [[["residual_1_18_batch_norm", 0, 0, {}]]], "class_name": "Activation"}, {"name": "residual_2_18_conv_block", "config": {"activation": "linear", "name": "residual_2_18_conv_block", "bias_regularizer": null, "bias_constraint": null, "kernel_regularizer": null, "padding": "same", "kernel_initializer": {"config": {"scale": 2.0, "distribution": "normal", "mode": "fan_in", "seed": null}, "class_name": "VarianceScaling"}, "dilation_rate": [1, 1], "kernel_constraint": null, "use_bias": true, "kernel_size": [3, 3], "trainable": true, "activity_regularizer": null, "data_format": "channels_last", "strides": [1, 1], "filters": 256, "bias_initializer": {"config": {}, "class_name": "Zeros"}}, "inbound_nodes": [[["residual_1_18_relu", 0, 0, {}]]], "class_name": "Conv2D"}, {"name": "residual_2_18_batch_norm", "config": {"name": "residual_2_18_batch_norm", "beta_regularizer": null, "axis": -1, "scale": true, "moving_mean_initializer": {"config": {}, "class_name": "Zeros"}, "epsilon": 0.001, "beta_constraint": null, "gamma_initializer": {"config": {}, "class_name": "Ones"}, "beta_initializer": {"config": {}, "class_name": "Zeros"}, "trainable": true, "gamma_regularizer": null, "momentum": 0.99, "moving_variance_initializer": {"config": {}, "class_name": "Ones"}, "center": true, "gamma_constraint": null}, "inbound_nodes": [[["residual_2_18_conv_block", 0, 0, {}]]], "class_name": "BatchNormalization"}, {"name": "add_18", "config": {"name": "add_18", "trainable": true}, "inbound_nodes": [[["17_relu", 0, 0, {}], ["residual_2_18_batch_norm", 0, 0, {}]]], "class_name": "Add"}, {"name": "18_relu", "config": {"name": "18_relu", "trainable": true, "activation": "relu"}, "inbound_nodes": [[["add_18", 0, 0, {}]]], "class_name": "Activation"}, {"name": "residual_1_19_conv_block", "config": {"activation": "linear", "name": "residual_1_19_conv_block", "bias_regularizer": null, "bias_constraint": null, "kernel_regularizer": null, "padding": "same", "kernel_initializer": {"config": {"scale": 2.0, "distribution": "normal", "mode": "fan_in", "seed": null}, "class_name": "VarianceScaling"}, "dilation_rate": [1, 1], "kernel_constraint": null, "use_bias": true, "kernel_size": [3, 3], "trainable": true, "activity_regularizer": null, "data_format": "channels_last", "strides": [1, 1], "filters": 256, "bias_initializer": {"config": {}, "class_name": "Zeros"}}, "inbound_nodes": [[["18_relu", 0, 0, {}]]], "class_name": "Conv2D"}, {"name": "residual_1_19_batch_norm", "config": {"name": "residual_1_19_batch_norm", "beta_regularizer": null, "axis": -1, "scale": true, "moving_mean_initializer": {"config": {}, "class_name": "Zeros"}, "epsilon": 0.001, "beta_constraint": null, "gamma_initializer": {"config": {}, "class_name": "Ones"}, "beta_initializer": {"config": {}, "class_name": "Zeros"}, "trainable": true, "gamma_regularizer": null, "momentum": 0.99, "moving_variance_initializer": {"config": {}, "class_name": "Ones"}, "center": true, "gamma_constraint": null}, "inbound_nodes": [[["residual_1_19_conv_block", 0, 0, {}]]], "class_name": "BatchNormalization"}, {"name": "residual_1_19_relu", "config": {"name": "residual_1_19_relu", "trainable": true, "activation": "relu"}, "inbound_nodes": [[["residual_1_19_batch_norm", 0, 0, {}]]], "class_name": "Activation"}, {"name": "residual_2_19_conv_block", "config": {"activation": "linear", "name": "residual_2_19_conv_block", "bias_regularizer": null, "bias_constraint": null, "kernel_regularizer": null, "padding": "same", "kernel_initializer": {"config": {"scale": 2.0, "distribution": "normal", "mode": "fan_in", "seed": null}, "class_name": "VarianceScaling"}, "dilation_rate": [1, 1], "kernel_constraint": null, "use_bias": true, "kernel_size": [3, 3], "trainable": true, "activity_regularizer": null, "data_format": "channels_last", "strides": [1, 1], "filters": 256, "bias_initializer": {"config": {}, "class_name": "Zeros"}}, "inbound_nodes": [[["residual_1_19_relu", 0, 0, {}]]], "class_name": "Conv2D"}, {"name": "residual_2_19_batch_norm", "config": {"name": "residual_2_19_batch_norm", "beta_regularizer": null, "axis": -1, "scale": true, "moving_mean_initializer": {"config": {}, "class_name": "Zeros"}, "epsilon": 0.001, "beta_constraint": null, "gamma_initializer": {"config": {}, "class_name": "Ones"}, "beta_initializer": {"config": {}, "class_name": "Zeros"}, "trainable": true, "gamma_regularizer": null, "momentum": 0.99, "moving_variance_initializer": {"config": {}, "class_name": "Ones"}, "center": true, "gamma_constraint": null}, "inbound_nodes": [[["residual_2_19_conv_block", 0, 0, {}]]], "class_name": "BatchNormalization"}, {"name": "add_19", "config": {"name": "add_19", "trainable": true}, "inbound_nodes": [[["18_relu", 0, 0, {}], ["residual_2_19_batch_norm", 0, 0, {}]]], "class_name": "Add"}, {"name": "19_relu", "config": {"name": "19_relu", "trainable": true, "activation": "relu"}, "inbound_nodes": [[["add_19", 0, 0, {}]]], "class_name": "Activation"}, {"name": "policy_head_conv_block", "config": {"activation": "linear", "name": "policy_head_conv_block", "bias_regularizer": null, "bias_constraint": null, "kernel_regularizer": null, "padding": "same", "kernel_initializer": {"config": {"scale": 1.0, "distribution": "uniform", "mode": "fan_avg", "seed": null}, "class_name": "VarianceScaling"}, "dilation_rate": [1, 1], "kernel_constraint": null, "use_bias": true, "kernel_size": [3, 3], "trainable": true, "activity_regularizer": null, "data_format": "channels_last", "strides": [1, 1], "filters": 2, "bias_initializer": {"config": {}, "class_name": "Zeros"}}, "inbound_nodes": [[["19_relu", 0, 0, {}]]], "class_name": "Conv2D"}, {"name": "policy_head_batch_norm", "config": {"name": "policy_head_batch_norm", "beta_regularizer": null, "axis": -1, "scale": true, "moving_mean_initializer": {"config": {}, "class_name": "Zeros"}, "epsilon": 0.001, "beta_constraint": null, "gamma_initializer": {"config": {}, "class_name": "Ones"}, "beta_initializer": {"config": {}, "class_name": "Zeros"}, "trainable": true, "gamma_regularizer": null, "momentum": 0.99, "moving_variance_initializer": {"config": {}, "class_name": "Ones"}, "center": true, "gamma_constraint": null}, "inbound_nodes": [[["policy_head_conv_block", 0, 0, {}]]], "class_name": "BatchNormalization"}, {"name": "policy_head_relu", "config": {"name": "policy_head_relu", "trainable": true, "activation": "relu"}, "inbound_nodes": [[["policy_head_batch_norm", 0, 0, {}]]], "class_name": "Activation"}, {"name": "flatten_3", "config": {"name": "flatten_3", "trainable": true, "data_format": "channels_last"}, "inbound_nodes": [[["policy_head_relu", 0, 0, {}]]], "class_name": "Flatten"}, {"name": "policy_head_dense", "config": {"name": "policy_head_dense", "bias_regularizer": null, "kernel_initializer": {"config": {"scale": 1.0, "distribution": "uniform", "mode": "fan_avg", "seed": null}, "class_name": "VarianceScaling"}, "kernel_regularizer": null, "activity_regularizer": null, "kernel_constraint": null, "use_bias": true, "units": 362, "bias_constraint": null, "activation": "linear", "bias_initializer": {"config": {}, "class_name": "Zeros"}, "trainable": true}, "inbound_nodes": [[["flatten_3", 0, 0, {}]]], "class_name": "Dense"}], "name": "model_2", "input_layers": [["input_2", 0, 0]], "output_layers": [["policy_head_dense", 0, 0]]}, "backend": "tensorflow", "class_name": "Model"}